emb_cache_v2/b004ea4ec156b1816e67eb205aec003d.npz (npz, 153200 bytes, 1 tensors)

vectors f4 [45, 768]
0	0x3d119fb8	0.03555271
1	0xbbb721df	-0.0055887545
2	0x3cc71dc5	0.024306187
3	0x3c3cf6e9	0.011533477
4	0xbcb40046	-0.021972787
5	0xbd311269	-0.043230448
6	0x3cadf06b	0.021232804
7	0xbc3d4aac	-0.011553448
8	0x3ca9e497	0.020738883
9	0x3c962a7d	0.018330807
10	0x3cbcb65d	0.023036176
11	0x3cebcedf	0.028785167
12	0x3c315324	0.010823045
13	0x3d5fab14	0.054606512
14	0xbc2196f9	-0.009862655
15	0x3d612f96	0.054977022
16	0x3ca6fb19	0.020383405
17	0xbbd10bb2	-0.006379568
18	0x3d843b47	0.06456619
19	0x3cc6af7c	0.0242536
20	0xbabd454d	-0.0014440209
21	0x3c6c2f58	0.0144155845
22	0xbd14831a	-0.03625784
23	0x3d0a531d	0.03377067
24	0x3d654bc7	0.05598047
25	0xbc9dec49	-0.019277709
26	0x3c896d6a	0.016775806
27	0xbc4e0b3f	-0.012575923
28	0xbd187743	-0.03722311
29	0xbd3c477b	-0.045966607
30	0x3d0ec8da	0.034859516
31	0x3c34cf37	0.011035732
32	0x3dade967	0.084917836
33	0xbd476025	-0.048675675
34	0x3b9d7c69	0.0048060906
35	0x3a8a5700	0.0010554492
36	0x3b4a4574	0.0030864151
37	0xbc6f9ff8	-0.014625542
38	0xbd1a5828	-0.03768173
39	0xbc9637b5	-0.01833711
40	0xbd0d3977	-0.03447863
41	0x3d1d6293	0.038424086
42	0xbd344c9a	-0.044018365
43	0xbcb1d2ad	-0.021706903
44	0xbc9a75ab	-0.018854937
45	0x3c33ceca	0.010974595
46	0xba308f60	-0.0006735232
47	0x3cfb0633	0.030642604
48	0xbc36b200	-0.011150837
49	0x3db4dede	0.08831571
50	0x3c36fb7c	0.011168357
51	0xbd132ac1	-0.035929445
52	0xbc4ca290	-0.01248993
53	0xbb1e375f	-0.002414189
54	0x3c0f00e3	0.008728239
55	0xbc3cc65a	-0.0115219
56	0xbd36dd47	-0.04464462
57	0xbc0ba2bb	-0.008522685
58	0x3d4974cb	0.049183648
59	0xbd40e5ef	-0.04709428
60	0xbbb288fa	-0.005448458
61	0xbc1d4808	-0.009599693
62	0xbc0583ad	-0.00814907
63	0xbcd34c1f	-0.025793133
64	0xbd5ec1c6	-0.054384016
65	0x3c0d7d4e	0.008635832
66	0xbd41b18c	-0.047288463
67	0x3d42b1f7	0.047533
68	0x3d19b14c	0.0375226
69	0xbc68dc18	-0.014212631
70	0x3c2e470e	0.010637058
71	0xbcc684fe	-0.024233337
72	0xbb0939cb	-0.0020938988
73	0x3bcf67f8	0.0063295327
74	0x3ca15ceb	0.019697627
75	0x3c4c563b	0.012471731
76	0x3d4a7f3f	0.049437758
77	0xbc36fa80	-0.011168122
78	0xbc4d67ab	-0.012536923
79	0x3d6a607e	0.05722093
80	0x3dfd2199	0.12359924
81	0x3d837091	0.06417955
82	0xbd845fba	-0.06463571
83	0xbd23b46d	-0.03996699
84	0x3c1a1edf	0.009406774
85	0x3c50ae64	0.01273689
86	0x3b7ed76b	0.0038885723
87	0x3cae42c8	0.021272078
88	0x3c03f1c6	0.008053249
89	0xbca8f9bb	-0.020626893
90	0x3d9cf0c8	0.07663113
91	0x3b96f2d6	0.004606585
92	0x3d5fc2be	0.05462908
93	0xbc86f416	-0.016473811
94	0x3b60c9f4	0.003430006
95	0x3cc6362c	0.024195753
96	0x3cd73aae	0.026273098
97	0xbda70a2a	-0.081562355
98	0xbc900532	-0.017580602
99	0xbd558291	-0.05212647
100	0x3d9231d8	0.07138413
101	0x3ceec9b6	0.029148918
102	0xbbbfd234	-0.0058539156
103	0xbbcf30d7	-0.006322961
104	0x3c02c33a	0.007981116
105	0x3e1025b8	0.14076889
106	0xb9334bb9	-0.00017098979
107	0x3d118580	0.035527706
108	0x3c264e6a	0.010150531
109	0x3d0568fb	0.03257082
110	0x3ced23ae	0.028947677
111	0x3b18d3d3	0.0023319616
112	0x3d4e7ece	0.0504139
113	0x3cbaada9	0.022787886
114	0xbdb2575b	-0.08708068
115	0x3ab941e8	0.0014134021
116	0xbd5afdef	-0.053464826
117	0x3ba96c80	0.005170405
118	0x3d004b52	0.03132183
119	0x3c758fcb	0.014987896
120	0x3d945c57	0.07244175
121	0x3ccc940e	0.024972942
122	0xbd9a4d9f	-0.07534336
123	0x3ceac9b8	0.02866064
124	0x3c2632cd	0.010143948
125	0xbdcff843	-0.10154774
126	0xbc262c61	-0.010142417
127	0x3ca761ec	0.020432435
128	0x3d9d3c9a	0.076775745
129	0xbc066f7c	-0.008205291
130	0xbc57976f	-0.013158663
131	0x3d4ca394	0.049960688
132	0x39f326d3	0.00046377498
133	0xbc3b4a57	-0.011431298
134	0xbd7a0ab7	-0.061045375
135	0xbbb6cd7e	-0.005578696
136	0xbd362256	-0.04446634
137	0xbc26e732	-0.010186957
138	0xbcf6ca3c	-0.03012573
139	0x3c8f8073	0.017517304
140	0xbd00cfe1	-0.03144825
141	0xbd30cccc	-0.04316406
142	0xbc153c04	-0.009108547
143	0xbcf54729	-0.029941158
144	0x3d3e1744	0.046408907
145	0x38766e96	5.875396e-05
146	0xbc6ea5f7	-0.014565936
147	0xbcb0bd49	-0.021574633
148	0xbcb2974b	-0.021800658
149	0x3ce958ae	0.028484669
150	0xbad2d81d	-0.0016086135
151	0xbccd0358	-0.025026008
152	0x3c88ecd4	0.016714491
153	0xbd2c3aa7	-0.042048123
154	0x3c45ed34	0.012080479
155	0x3ba72d68	0.0051018484
156	0x3d481a37	0.048853125
157	0xbba8ea9e	-0.0051549217
158	0xbd47b568	-0.048756987
159	0xbd90ca30	-0.07069814
160	0xbba9acf5	-0.005178089
161	0xbd1a1f4f	-0.037627514
162	0x3d567e0d	0.052366305
163	0x3d0d7b44	0.034541383
164	0x3b687517	0.0035470182
165	0xbdaeffca	-0.08544882
166	0x3d20f376	0.039294682
167	0xbc65721e	-0.014004258
168	0xbddc4455	-0.10755221
169	0xb8763230	-5.869771e-05
170	0x3c6645c5	0.01405472
171	0x3bd8a05d	0.0066109137
172	0x3c9b3a79	0.01894878
173	0x3cce4e4d	0.025183821
174	0xbd92c971	-0.07167328
175	0x3cd00813	0.025394475
176	0xbca887b4	-0.02057252
177	0xba9001d6	-0.0010986875
178	0xbc622a28	-0.013803996
179	0x3b88a78e	0.0041703647
180	0x3c423e38	0.011855654
181	0x3c72d992	0.014822381
182	0x3d5fc377	0.05462977
183	0xbd47abb0	-0.04874772
184	0x3a118b61	0.000555208
185	0xbb8d3f84	-0.00431055
186	0x3a3229ed	0.00067964086
187	0x3c6b77c5	0.014371817
188	0x3ae60a2d	0.001755064
189	0xbbefee3c	-0.007322101
190	0x3d307568	0.043080717
191	0x3c9b835a	0.018983532
192	0x3c3dfc11	0.011595742
193	0x3c86ef6d	0.016471589
194	0xbc1818c8	-0.009283252
195	0xbb1eda25	-0.002423891
196	0x3d618462	0.05505789
197	0xbd9b1f0c	-0.07574281
198	0x3cfd3f9b	0.030914119
199	0xbb81e89f	-0.003964498
200	0xbd01e348	-0.031710893
201	0xbd324e13	-0.04353149
202	0x3d6314d1	0.055439774
203	0xbd8a5280	-0.06754017
204	0xbd330594	-0.04370649
205	0x3cc54f83	0.024085766
206	0xbbaaa035	-0.0052070864
207	0x3ce40b05	0.027837286
208	0x3b1ee842	0.0024247323
209	0x3c5833f0	0.013195977
210	0x3bb95c76	0.005656774
211	0x3ccdf8d8	0.025143072
212	0xbc10f136	-0.008846572
213	0x3d3c3cc1	0.045956377
214	0xbc446fc7	-0.01198954
215	0x3d1d0ba3	0.038341176
216	0xbc36e5c1	-0.011163176
217	0xbb3f0f03	-0.0029153235
218	0xbb350809	-0.0027623198
219	0x3d3829dc	0.044961795
220	0xbbd28da8	-0.006425578
221	0xbd3f8196	-0.046754442
222	0xbd39f340	-0.045397997
223	0x3c04fbed	0.008116704
224	0x3c39da44	0.0113435425
225	0xbc9cf81c	-0.019161277
226	0xbc20762b	-0.009793798
227	0xbad5bbe3	-0.0016306605
228	0x3d659e02	0.05605889
229	0xbae3cb94	-0.0017379397
230	0xbb61fc66	-0.0034482717
231	0xbd077be2	-0.03307713
232	0xbce5a3dc	-0.028032236
233	0x3a570a54	0.0008203138
234	0x3c8bb7af	0.01705536
235	0x3d9ed372	0.07755174
236	0xbc75b004	-0.014995579
237	0xbd98c3b6	-0.07459204
238	0xbd4153db	-0.04719911
239	0xbc0a2137	-0.008430771
240	0x3cad20a3	0.021133726
241	0x3a8291f3	0.0009961709
242	0xbce41652	-0.027842674
243	0xbb4b8211	-0.0031052867
244	0xbcaf7d49	-0.021422045
245	0x3d7799cf	0.060449418
246	0xbab4c355	-0.0013791124
247	0xbccb8097	-0.02484159
248	0x3c5f2cc9	0.013621517
249	0x3d1165a5	0.035497326
250	0xbc2875ab	-0.0102819605
251	0xbb7cdecf	-0.0038584953
252	0xbbe7c2e2	-0.0070727924
253	0x3d732756	0.059363686
254	0xbd85389f	-0.0650494
255	0xbad6efd1	-0.0016398375
