emb_cache_v2/b01f63838a12e53c029018e2c5f73fb0.npz (npz, 54365 bytes, 1 tensors)

vectors f4 [16, 768]
0.00058502593 -0.044909235 0.015832508 0.013384356 -0.03697595 -0.023091754 -0.05192302 0.0031324015
-0.001359538 0.036674548 -0.010902456 -0.020769052 0.0045394353 -0.06478424 0.010577653 0.006029059
-0.039061476 0.00283235 -0.001531082 0.037827652 0.018903181 0.014147239 -0.020701349 0.00727132
-0.00628004 0.037591938 -0.006723323 0.049987957 -0.081839696 -0.03935867 -0.01219432 0.0030309393
0.041035682 0.03293521 -0.008049945 -0.029018436 0.015136203 -0.010720802 -0.0011364387 0.03968388
-0.04167096 -0.0010860485 -0.068650566 0.018184904 -0.0077471263 -0.011483838 -0.0011683189 -0.004684423
-0.0064472 0.11130623 0.028255656 -0.0145461885 0.0033934931 -0.028586585 0.0076770517 0.0039037608
-0.02955958 0.022949181 0.033509232 -0.021672165 0.018321775 -0.045760974 -0.037389267 -0.00699443
-0.09165104 -0.0044487603 -0.012127321 0.056592513 0.044365447 -0.013110118 0.047314502 -0.020737458
0.016429583 0.0597523 -0.0037483275 0.0060536396 0.022563798 0.0064237183 -0.035960164 0.045361128
0.042850744 0.055484943 -0.047993325 -0.015924335 -0.030983707 0.016409686 -0.015941432 -0.017975278
-0.047145516 -0.019259838 0.07772395 -0.028089741 0.034185175 0.005303821 0.030092934 0.0008008116
0.00013010146 -0.09840593 0.043142885 -0.096629 0.080808155 0.013380213 -0.046897158 0.017246313
0.0018732295 0.08419823 -0.06548702 0.046979025 0.023644207 -0.015091002 0.031433668 0.023327492
0.037809815 -0.020539321 -0.07868748 0.055099763 -0.0002378064 0.01711863 0.075692825 -0.01391334
-0.010901679 -0.014564863 -0.02290137 -0.011296254 -0.022913616 -0.067485265 -0.00026164774 -0.011645053
0.03603731 -0.04673327 -0.009702447 0.06359947 -0.026325025 0.021069957 -0.013813177 0.13366954
-0.0455123 0.033352636 -0.009660054 0.019584974 -0.04167673 -0.042041194 0.012377401 0.028165936
0.033781666 -0.008219484 -0.012367851 0.034098312 0.03413917 0.06099165 0.012727783 -0.0014772535
0.033372506 -0.044926852 0.024912583 0.016533803 0.021888057 -0.043242887 -0.016838003 0.0046862266
0.03805931 0.027074248 0.05398639 -0.021976272 0.0010934983 -0.055298682 -0.011510908 0.026154825
-0.08533935 0.008946581 0.007817165 0.0137292845 -0.005048936 0.045375966 -0.084610544 0.017380426
0.0025794136 0.01967703 0.0038596587 -0.027377088 -0.006455745 0.023962513 0.013380876 0.008495866
-0.048881773 -0.022201203 -0.031992078 0.008385217 -0.0042000622 -0.0131025845 -0.001454127 0.020242538
-0.12946168 0.01213256 -0.00780128 0.0019105802 0.062545545 -0.052454375 -0.004623699 -0.022593856
0.018651167 -0.04144591 0.013957697 -0.033691153 0.01178636 0.03286528 -0.010830955 0.033234455
-0.050601803 -0.033482183 -0.044080567 -0.0008818125 -0.014353908 0.0033971576 -0.040006835 0.026176263
0.010914649 0.02652671 -0.031005366 0.037868332 0.012963888 -0.012441959 0.041391116 -0.01714929
0.03691601 -0.01961858 -0.038176797 0.0054041026 0.059822842 -0.05356076 0.022603724 -0.006364963
-0.0059873457 0.05140626 0.015617559 0.019292567 -0.027919134 -0.04334772 -0.05093857 -0.056994874
0.013169971 -0.039877463 -0.032028012 -0.011668553 -0.025572369 -0.018058892 -0.035349075 -0.03930959
0.012967837 0.034713887 -0.021846235 0.009387285 -0.0126488935 0.03603288 -0.052646343 0.004571922
00000000: 6d5c 193a bff2 37bd 2db3 813c 0f4a 5b3c
00000010: 1874 17bd eb2a bdbc 3cad 54bd fa48 4d3b
00000020: 8632 b2ba 0d38 163d 37a0 32bc dc23 aabc
00000030: 8bbf 943b 9aad 84bd e44d 2d3c 6a8f c53b
00000040: edfe 1fbd f39e 393b 96ae c8ba 2bf1 1a3d
00000050: d8da 9a3c d2c9 673c e095 a9bc 4144 ee3b
00000060: cbc8 cdbb 01fa 193d 524f dcbb 2cc0 4c3d
00000070: 929b a7bd 8f36 21bd afca 47bc b9a2 463b
00000080: 0815 283d 12e7 063d ebe3 03bc 12b8 edbc
00000090: d6fd 773c 4da6 2fbc 8ef4 94ba 908b 223d
000000a0: 2baf 2abd be59 8eba ab98 8cbd 82f8 943c
000000b0: 9bdb fdbb b526 3cbc 4722 99ba ca7f 99bb
000000c0: 0943 d3bb 85f4 e33d 6878 e73c 2353 6ebc
000000d0: 5e65 5e3b 6a2e eabc c78f fb3b 3dd6 7f3b
000000e0: ef26 f2bc ecff bb3c fa40 093d d389 b1bc
000000f0: 8c17 963c dc6f 3bbd 7d25 19bd 8831 e5bb
00000100: 8ab3 bbbd e8c6 91bb acb1 46bc 8dcd 673d
00000110: 8bb8 353d d2cb 56bc dacc 413d 9ae1 a9bc
00000120: 5597 863c d4be 743d 80a6 75bb 9c5d c63b
00000130: b7d7 b83c 0e7e d23b f74a 13bd 97cc 393d
00000140: 4384 2f3d 2e44 633d a694 44bd c073 82bc
00000150: 8bd1 fdbc 9b6d 863c 9b97 82bc e440 93bc
00000160: a81b 41bd cfc6 9dbc bc2d 9f3d 751c e6bc
00000170: c105 0c3d adcb ad3b 7585 f63c 8fed 513a
00000180: d86b 0839 0c89 c9bd 98b6 303d 6de5 c5bd
00000190: bf7e a53d ae38 5b3c 3c17 40bd 2448 8d3c
000001a0: 2787 f53a 1f70 ac3d 0f1e 86bd 146d 403d
000001b0: 7fb1 c13c 4040 77bc 97c0 003d 4c19 bf3c
000001c0: 77de 1a3d 1442 a8bc e726 a1bd 4ab0 613d
000001d0: ab5b 79b9 5f3c 8c3c d704 9b3d c7f4 63bc
000001e0: f59c 32bc 77a1 6ebc a79b bbbc ec13 39bc
000001f0: 56b5 bbbc b735 8abd c42d 89b9 e4ca 3ebc
00000200: dc9b 133d 636b 3fbd 03f7 1ebc 7040 823d
00000210: 94a7 d7bc e79a ac3c aa50 62bc abe0 083e
00000220: 1b6b 3abd c69c 083d 3445 1ebc ab70 a03c
00000230: 38b5 2abd 6333 2cbd 95ca 4a3c 40bc e63c
00000240: a55e 0a3d 04ab 06bc 87a2 4abc acaa 0b3d
00000250: 84d5 0b3d 61d2 793d 3188 503c 67a0 c1ba
00000260: 9cb1 083d 3805 38bd 7915 cc3c e671 873c
00000270: 954e b33c 741f 31bd daef 89bc eb8e 993b
00000280: 14e4 1b3d d0ca dd3c d520 5d3d 9507 b4bc
00000290: b753 8f3a df80 62bd 3f98 3cbc a542 d63c
000002a0: 66c6 aebd ae94 123c 9113 003c cbf0 603c
000002b0: 8b71 a5bb 26dc 393d 4b48 adbd 6561 8e3c
000002c0: 610b 293b b931 a13c 54f2 7c3b ea45 e0bc
000002d0: b78a d3bb 084d c43c 763b 5b3c 3f32 0b3c
000002e0: 4138 48bd 4cdf b5bc 200a 03bd 2662 093c
000002f0: ada0 89bb 39ac 56bc 6898 beba aed3 a53c
00000300: 9a91 04be a5c7 463c e1a1 ffbb 6f6c fa3a
00000310: e117 803d 66da 56bd 6682 97bb c016 b9bc
00000320: 55ca 983c 30c3 29bd d3ae 643c bcff 09bd
00000330: 941b 413c be9d 063d 5174 31bc da20 083d
00000340: d643 4fbd 9d24 09bd d38d 34bd 6f29 67ba
00000350: a72c 6bbc d9a2 5e3b 35de 23bd 9a6f d63c
00000360: 5bd3 323c 8b4e d93c f7fe fdbc d31b 1b3d
00000370: 7d66 543c 5cd9 4bbc bb89 293d ab7c 8cbc
00000380: 3e35 173d 25b7 a0bc 465f 1cbd e614 b13b
00000390: cc08 753d 8762 5bbd 722b b93c 2e91 d0bb
000003a0: 7f31 c4bb 5f8f 523d cae0 7f3c 720b 9e3c
000003b0: abb6 e4bc 618d 31bd f6a4 50bd 7573 69bd
000003c0: ddc6 573c 8d56 23bd ce2f 03bd 752d 3fbc
000003d0: 257d d1bc 3ef0 93bc 31ca 10bd 1803 21bd
000003e0: 0d77 543c 2630 0e3d e0f6 b2bc 21cd 193c
000003f0: 4e3d 4fbc 3797 133d b1a3 57bd 10d0 953b
