emb_cache_v2/b045141234f0cbc537bf00cfacf4f93d.npz (npz, 41169 bytes, 1 tensors)

vectors f4 [12, 768]
00000000: c7dc 953c a286 10bc d63a 2a3c 67f3 d23c
00000010: ce1d 37bd a221 3abc 0e0a 2cbc c5ac 8abc
00000020: 42ef bebc 066c 5c3d 8d0b d0ba d583 afbc
00000030: ee81 983c 21f0 b3bc de59 f4bb 30a8 21bc
00000040: 7d4f 11bb 45d4 453d 5cdb a1bb 38b8 a33b
00000050: a8a7 ce3c e05a 99bc 23ca 15bd ffda a33b
00000060: 7f5a bfbc bfec 863c cbf3 07bd 0237 343d
00000070: ac15 90bd 595a a2bd f7b6 b73c 7f55 db3c
00000080: 43cb d83d dd88 023c 76af 84bb 05af 29bd
00000090: 3eae 023c 5b19 8cbb 1892 08bd e6b2 973c
000000a0: 0a87 95bc 1d41 853d 95e1 35bd cd26 823c
000000b0: 2c00 8bbc 5aed e1bc fb65 a2bc b1c4 9e3c
000000c0: fb0a 003c b45c 853d 601d ff3c 3921 44bd
000000d0: 525f 513d 0b87 17bd ff0e 833c aa83 7ebc
000000e0: 25bc 09bd a759 07bb bc49 bb3d 1416 2ebd
000000f0: f000 16bc 3384 4bbd 713a 94bb d2d4 7e3b
00000100: 9d55 b4bd 6c73 083c 5dbb 90bd 7c58 803d
00000110: 128d 153d fed6 edbc 6e73 003d c4fa 45bc
00000120: 4b19 b23b 8878 433d 1463 cb3c b3c2 e5bc
00000130: ec99 a33c e381 f0bc 00de 15bd 56db 383d
00000140: 2b20 653d 59ea 6b3d 9709 85bd ed1f 0b3b
00000150: eefb 28bd efd3 5d3d 287c 893c ae3d 35bd
00000160: 610d 23bc 7b3b cdbc 0a4f 6c3d bc5d c5bc
00000170: aa03 703d 616f 56ba cc58 a23c bc67 023d
00000180: f9b7 e53c 98ee 96bd 5d19 033b b050 9abd
00000190: d6cb 233d fc11 203b 96e9 c3bd 0d47 8cbc
000001a0: 1a3e 14bd 2f12 1b3e 1c87 69bb 198f 343d
000001b0: 2e90 a43b a090 d83c f90e 983c d467 1a3d
000001c0: 50ff 413b 0d47 33bb 4b2d a3bd 0f13 5b3d
000001d0: b279 e0bc 0173 4f3c 0d06 d73b dcd7 8c3b
000001e0: 3bec aa3c 79d1 9f3c 679b 66bd eb33 b33b
000001f0: 496b adbc 0e87 83bd b5eb e5bb 27de 5bbc
00000200: 4f04 223d 1132 3dbd 3294 0abb 7702 483d
00000210: c1ae 353c f41c 8dbc 5a9b 78b9 ff8e bf3d
00000220: 27e0 d5bc a218 c23c 0936 6cb9 2d79 de3b
00000230: 5d80 36bd 3286 8dbc 6516 213d f81e 34bb
00000240: 3d53 663d bcc5 10bd 9553 3fbc fba6 79bd
00000250: 0eb1 963c b558 6d3d 7fae e2bc 4888 c0bc
00000260: 1e8a 2ebb b267 b03a bb7b e23c da43 ad3c
00000270: 26b4 ab3d b5e4 62bd c30f b3bb 5815 ad3b
00000280: 4ccd 853c 5bfe 5d3c d51c 033d e857 58bc
00000290: 121f 1e3d eacd 08bd 3f6a 87bd 9fb5 bf3b
000002a0: 8124 94bd 0fb3 1f3d 0fe4 68bc 2bca af3c
000002b0: d960 99bc 88d9 35bb 83b0 77bd 449d 7c3c
000002c0: ed8f a3bc 842d 03bd 641a 09bd 2106 05bd
000002d0: 1550 2abd 6a5c 153d ccd7 163d 4f45 87bc
000002e0: e2bd bd3c 8177 463c 8172 1d3d 8df1 fabb
000002f0: 6fe9 953b 2d6d 1cbc da42 d83a 507c 063d
00000300: 02d8 33bd fe7c 1e3d 1c17 17bc e612 6abc
00000310: 5a13 233c 2a86 01bd e043 1e3d 82b2 053b
00000320: c2f3 68ba 2e82 5dbd 495b 403d bfca bebd
00000330: 7606 ec3c c5c9 d4bb b63d 3b3d c7f1 013d
00000340: 8e2b e9bc 8306 a83c 7760 91bc 95f4 a33b
00000350: 3767 3cbc 2fc6 303d 4382 a4bd b512 0f3d
00000360: 6ea1 2aba 9334 b9bc 9813 f8bc a142 fd3c
00000370: 34b4 403c be67 673b 921c 21ba 3284 09bd
00000380: f23a 26ba 99af a1bb 7a40 6cbd 8a12 6f3b
00000390: 59dd c73c 48d6 5a3b de40 aa3c 957a c8bc
000003a0: 8cc4 30bd 869e 363c 3db7 be3c 1a01 39bc
000003b0: 6fb0 313c bbad 1fbd 7831 18bd 409b 14bd
000003c0: 0df6 3b3d 2fdf 5cbd 0a7f 97bd 0d52 523b
000003d0: 51b8 abbc 7a3c 093d 588e 763c a14b a9bb
000003e0: 9416 a0bc 65df 433d ff1c aebb db00 dfbb
000003f0: 03f7 053b 5d41 0f3d 2521 35bd ab74 56bc
0.018293751 -0.008821161 0.010390004 0.025750829 -0.04470616 -0.011360558 -0.010500444 -0.016928086
-0.023307446 0.053813957 -0.0015872583 -0.021425167 0.018616643 -0.021965088 -0.007457002 -0.009866759
-0.0022172623 0.04829814 -0.0049394798 0.004996326 0.02522643 -0.01872009 -0.036569726 0.0050004716
-0.023358582 0.016470311 -0.033191483 0.043997772 -0.070353836 -0.07927389 0.022426112 0.026774166
0.10585644 0.007967201 -0.004049237 -0.041426677 0.007976113 -0.0042754835 -0.03334245 0.018517923
-0.018252868 0.0650656 -0.044404585 0.015887642 -0.016967855 -0.027578998 -0.019824019 0.0193809
0.007815118 0.06511822 0.031141937 -0.047883246 0.051116295 -0.03699402 0.015998362 -0.015534321
-0.033626694 -0.0020652802 0.09144923 -0.042501524 -0.009155497 -0.049686622 -0.0045235683 0.0038884175
-0.08805392 0.0083283 -0.07066987 0.06266877 0.03651149 -0.02903318 0.031360082 -0.012083713
0.005435144 0.04772237 0.024827518 -0.028046941 0.019970857 -0.02935881 -0.03658867 0.04513105
0.05593888 0.05759654 -0.0649597 0.0021228746 -0.041255884 0.054157194 0.016782835 -0.044248275
-0.00995192 -0.025052777 0.057692565 -0.024092548 0.058597244 -0.0008180049 0.019817732 0.03183721
0.028041827 -0.07369727 0.0020004131 -0.07534921 0.039989315 0.0024424782 -0.09566037 -0.017123723
-0.036192037 0.15143655 -0.003563351 0.04408178 0.0050220704 0.02643615 0.018561827 0.037696674
0.002960164 -0.0027355582 -0.07967623 0.053484973 -0.027401779 0.012661696 0.0065620006 0.0042981934
0.020864597 0.019509064 -0.056300547 0.0054688356 -0.021169322 -0.06422244 -0.007016624 -0.013419664
0.03955489 -0.046190325 -0.002114546 0.048830476 0.011089028 -0.01722572 -0.00023708996 0.09353446
-0.02610786 0.023693386 -0.00022526844 0.0067893476 -0.04455601 -0.017275903 0.039327998 -0.002748428
0.056231726 -0.035344824 -0.011677642 -0.06095026 0.018394973 0.057945926 -0.027671097 -0.023502484
-0.0026632617 0.0013458638 0.02764689 0.021150518 0.0838397 -0.055393893 -0.0054645254 0.0052820854
0.016333245 0.013549413 0.03200992 -0.013204552 0.03860385 -0.0333995 -0.06612062 0.0058505083
-0.07233525 0.038989123 -0.01421453 0.021458706 -0.018722938 -0.0027748067 -0.06047107 0.015418354
-0.01996609 -0.03202583 -0.033472434 -0.032476548 -0.04158028 0.036465086 0.036826894 -0.016512541
0.023161832 0.012113453 0.038439278 -0.0076581896 0.0045749466 -0.009547514 0.0016499416 0.032833397
-0.043907173 0.03869342 -0.009221818 -0.014286732 0.009953344 -0.03162209 0.03863895 0.0020400588
-0.00088864204 -0.054079227 0.046962056 -0.093160145 0.028811675 -0.0064937794 0.04571315 0.031724717
-0.028463151 0.020510918 -0.017746193 0.0050035217 -0.011499218 0.043157753 -0.08032658 0.03492995
-0.000650904 -0.022608077 -0.03028278 0.03091556 0.011761714 0.0035309638 -0.000614592 -0.033573337
-0.0006341181 -0.004934263 -0.057678677 0.0036479556 0.024397539 0.0033391882 0.020782884 -0.024472514
-0.04315619 0.011146193 0.023280734 -0.011291767 0.010845288 -0.03898404 -0.037156552 -0.03628087
0.04588895 -0.053923782 -0.07397278 0.0032092363 -0.020961912 0.03350494 0.015048586 -0.0051664864
-0.019542016 0.047820468 -0.005313515 -0.006805522 0.002044142 0.034974445 -0.044221062 -0.013089339
