emb_cache_v2/b070c58f0da3c781ad0123daab2dba1c.npz (npz, 104327 bytes, 1 tensors)

vectors f4 [31, 768]
000000 41 f6 99 3c ce 7a 0c 3c 39 47 ca ba 21 1e 09 3d
       0.01879418 0.008574201 -0.0015432603 0.033476
000010 89 93 bf bc e5 b4 54 bd df 56 38 3c 00 b7 e2 3a
       -0.02338578 -0.051930327 0.01125118 0.001729697
000020 35 95 56 bb 5d 34 60 3d 7f 9d 0e 3d ad 4c d4 39
       -0.0032742743 0.054737438 0.03481817 0.0004049292
000030 2d 45 84 3c 7c e8 83 3c d4 54 ba bb 12 25 4a 3d
       0.016146267 0.016102068 -0.005686382 0.04935176
000040 05 10 8e bc 87 26 59 3b 25 9a 3b bc b4 c0 5c 3d
       -0.017341623 0.0033134536 -0.011450325 0.053894714
000050 e3 df d2 bb 04 46 8f 3c c1 06 86 bc 4d 79 30 3d
       -0.006435381 0.01748944 -0.016360642 0.04308443
000060 be 76 e1 3c 86 af 37 3d ec 8b 02 3d 63 0b 35 3c
       0.027522441 0.044845127 0.03187172 0.011050078
000070 5e c6 83 bd b2 cd b0 bd fe de 59 3d 79 41 3d 3c
       -0.0643432 -0.08632983 0.053191178 0.011551254
000080 32 f2 aa 3d d2 c4 bb bb df e6 da bb 82 f1 21 bd
       0.08346976 -0.00573025 -0.006680354 -0.03953696
000090 c2 a1 bc bc 73 e2 c7 bc c1 37 89 3c a8 cf 0c 3d
       -0.02302635 -0.024399972 0.016750218 0.034377724
0000a0 a8 e3 1e bc 4d d3 07 3d 2f 57 2a bd 9a 93 22 bd
       -0.009697832 0.033160497 -0.04158705 -0.039691545
0000b0 83 e3 2a bd 28 45 6c bb f1 f3 33 bc 21 c3 9d 3d
       -0.04172088 -0.0036051963 -0.010983453 0.077032335
0000c0 4a b9 76 bc dd ee 9f 3d 37 2e bd 3c d4 94 c7 bb
       -0.015058825 0.078092314 0.023093326 -0.0060907397
0000d0 7c c5 11 3d 59 6a c0 bc fe 6a 3e 3c ba 52 08 bd
       0.035588726 -0.02348821 0.011622189 -0.03328202
0000e0 56 e3 21 bd 8e 0c 84 3c 69 9a 5d 3d e3 fb dd bb
       -0.039523445 0.016119268 0.054102335 -0.006774412
0000f0 3f a8 51 3b d7 40 b8 bc 6f c5 93 bc 3b fd 56 bb
       0.0031991152 -0.022491856 -0.01803848 -0.0032804746
000100 f9 51 a0 bd a3 e0 04 bd b5 a3 e0 bb 51 00 61 3d
       -0.07828135 -0.032440793 -0.006855453 0.054931942
000110 58 af f0 3c 79 60 48 3c 12 1e bc 3c 9f fa 45 bc
       0.029380485 0.012230032 0.022963557 -0.0120836785
000120 d6 f8 98 3c 04 fa d6 3c cf bb 11 3d 7e e3 65 bd
       0.018673342 0.026242264 0.0355795 -0.056125157
000130 79 e9 85 3d f6 ca f9 3c 9b d1 c0 ba 13 bd 44 3d
       0.06538672 0.030492287 -0.0014710905 0.048031878
000140 10 f2 33 3d ae 3a 6a 3d b7 fb b6 bd 8d 31 28 bb
       0.04393202 0.057184868 -0.089347295 -0.00256643
000150 6b 8a c7 ba b6 33 16 3b 64 c0 0d bd f5 f4 69 bb
       -0.0015223747 0.0022919006 -0.034607306 -0.0035698984
000160 5b 2d fe bc 90 31 20 bd 07 61 3e 3d 3c d1 07 bd
       -0.031027487 -0.039109766 0.04647925 -0.033158526
000170 fb 7c a5 3b cc 56 cf bc 2a a3 18 3d 5f 60 b4 3c
       0.005050299 -0.025309943 0.03726498 0.02201861
000180 73 7f 31 bc 3f 9e 78 3b 9a 02 55 3b 4d b9 a0 bd
       -0.010833609 0.003793612 0.0032502771 -0.07847843
000190 64 19 09 3d 20 d2 c3 3c d7 62 e5 3b e8 c9 5a 3c
       0.03347148 0.023903906 0.007000308 0.013353802
0001a0 03 82 9c 3b 90 ca 5c 3d 29 07 45 3c a0 c1 07 3d
       0.004776241 0.053904116 0.012025633 0.03314364
0001b0 99 42 81 3c 85 a1 3c 3d 04 b4 3b 3c 32 e8 d2 3c
       0.015778827 0.046052475 0.011456493 0.025745485
0001c0 d6 e3 8f 3c c3 6f 00 3d 44 4c 00 be d8 c9 14 3d
       0.017564695 0.031356584 -0.12529093 0.036325306
0001d0 90 75 85 bd cb f4 37 3a 0e 78 fb bb 62 8d 67 3c
       -0.06516564 0.0007017373 -0.0076742237 0.014132829
0001e0 0c e6 86 3d 65 fa 30 3c 81 17 30 bd 63 4a 6b 3c
       0.06586847 0.010801886 -0.042991165 0.014360997
0001f0 cb a7 a6 3c 39 44 da bd cd 85 39 bc c9 b9 ee 3b
       0.020343682 -0.10657544 -0.0113234045 0.007285331
000200 f6 95 07 3d f6 c7 91 bd 15 ec 09 3c 82 32 36 3d
       0.033102 -0.07118218 0.008418103 0.04448176
000210 3a 99 ca bc 6e d1 12 bc c0 b4 e8 bc e2 3a 5b 3d
       -0.024731267 -0.008961065 -0.0284065 0.053522952
000220 9d 2c 48 bd 90 b1 1b bd a2 51 50 bd 2f ca c6 bc
       -0.04887067 -0.038011134 -0.0508591 -0.02426633
000230 a3 a7 e7 bc cd 19 a2 bc 9e bf 02 bd b0 56 9e 3c
       -0.028278178 -0.019787693 -0.03192102 0.019328445
000240 94 e2 e2 3c 70 e1 10 bd e3 cf 15 bd ee 61 bd bd
       0.027695931 -0.035371244 -0.03657521 -0.09247194
000250 f8 83 7f 3c 82 cd 16 3d 96 4f a2 bc 63 75 af bc
       0.015595429 0.03681708 -0.01981334 -0.021418279
000260 91 6f d9 3a 81 ea ae bc 2f 6d 73 3c 10 bd 81 3c
       0.0016589036 -0.021352055 0.014857574 0.015837222
000270 55 f4 6e 3d 47 8b 7e bc be a6 8b bc f1 9b 82 bd
       0.058338482 -0.015536136 -0.017047282 -0.063774
000280 ad 5e 40 bc 55 c1 86 bc 1d 5e 55 3c 71 fc 32 bb
       -0.011741322 -0.01644961 0.013022927 -0.0027311111
000290 b2 d2 a2 3b 8d 3d 8c bd 6e 52 02 3d c7 4f ba bc
       0.0049689645 -0.068476774 0.031816892 -0.022743119
0002a0 a4 32 d2 bd 11 f0 21 3d 54 73 8e bc 40 02 c8 3b
       -0.10263565 0.039535586 -0.017388977 0.006103784
0002b0 af d0 77 3c 61 96 8e bb 1d 57 56 bd 0a 4f f4 bc
       0.015125438 -0.0043514227 -0.05232917 -0.029822845
0002c0 79 02 8d bc 30 dd 01 bc 7f e4 b5 bc 09 51 a6 3c
       -0.017213093 -0.00792627 -0.022203682 0.020302312
0002d0 2c 3e 18 3d 04 65 b7 3c 22 96 b5 3c eb 20 5b bd
       0.037168667 0.022387035 0.022166315 -0.05349819
0002e0 a4 09 a3 bc 7f f4 e3 bc 6d ab cb bb 75 53 17 bc
       -0.019902058 -0.027826546 -0.006215504 -0.009236206
0002f0 29 f0 b1 ba 08 d9 3e bd 6a 7c 23 3d 5f 7d 55 3c
       -0.0013575602 -0.046593696 0.039913572 0.013030379
000300 42 79 81 bc b6 17 d4 3b e5 22 1e 3c b3 4e 98 bb
       -0.01580489 0.006472553 0.009651874 -0.0046480536
000310 6c b4 00 3d d9 8d 91 3b bb dc 1f 3d dc a2 e3 3b
       0.031422064 0.0044419584 0.039028864 0.0069469046
000320 83 05 87 bd b7 14 13 3c 0d f5 3c 3d 67 97 fd bd
       -0.06592848 0.008977107 0.046132136 -0.12382393
000330 1e 97 bd bc b0 d7 9a 3a 97 e1 8e 3d e9 a2 11 3d
       -0.023143347 0.0011813547 0.069766216 0.035555754
000340 43 7c 43 bd c3 06 90 3c 38 ef 68 bc db 2a 0f 3d
       -0.047725927 0.01758135 -0.01421719 0.03495298
000350 20 90 2b bc 00 47 8d 3d b8 4f a0 bc 93 18 a7 bc
       -0.010471374 0.06898308 -0.019569263 -0.02039746
000360 8e e9 b1 bb 1c 0a 16 bc 21 d1 85 bc 42 42 2f 3d
       -0.005429453 -0.009157684 -0.016335072 0.042787798
000370 a7 92 00 3c ec b0 03 3d 73 fd 22 bd 74 ba 46 bc
       0.007847465 0.032151148 -0.03979249 -0.012129415
000380 b3 3a 06 3c b4 73 80 3c 41 35 c5 bc 3c b8 5b bc
       0.008192706 0.015680172 -0.024073245 -0.013410624
000390 ed 26 b7 3a 74 df 00 bb 67 9f 1b 3a d5 b2 bd bc
       0.0013973393 -0.0019664438 0.00059365336 -0.023156563
0003a0 1c 6a af ba e5 c1 91 bb 28 b0 5d 3d 14 74 83 3d
       -0.0013383063 -0.004448163 0.054123074 0.064186245
0003b0 95 f9 9e 3b d4 ec 2b bd 1c 9a 3a bb 78 a8 f6 bc
       0.00485153 -0.041973904 -0.0028473204 -0.030109629
0003c0 2b a2 b0 bc 3a 58 34 bd 21 a7 51 bd ce 8d f2 3b
       -0.021561703 -0.044029452 -0.051184777 0.0074021583
0003d0 e5 87 89 bc 30 21 42 3d 01 86 e2 3c bd e6 04 bd
       -0.016788432 0.04739493 0.027651789 -0.03244661
0003e0 39 f1 c8 ba a6 6e f6 3b d3 c6 c6 bc 47 9f a6 bc
       -0.0015330679 0.0075205145 -0.024264729 -0.020339621
0003f0 f6 e3 ed 3b fd 4b 2f 3d a9 e0 d8 bc d4 f3 70 3d
       0.007259841 0.042797077 -0.026474314 0.058826283
