emb_cache_v2/b0a46ef7f662a16cc43efb082574a7f7.npz (npz, 101804 bytes, 1 tensors)

vectors f4 [30, 768]
00000000: 8b09 aa3c e13e 1ebb 2357 eb3c ef05 ef3b
00000010: ada4 4cbd 21c3 db3c 4918 323d f26c 13bd
00000020: dde0 fb3b 5075 9f3c bffb 433c 40aa e6bc
00000030: c66e 2fbd 30cd f9bc f3b3 2fbc 6842 433d
00000040: 3701 d53c e6e6 153b e51f 9d3c 39ce 8bbc
00000050: efbb 903c db23 e33c ef4e 9dbc ccd8 cc3c
00000060: 4143 003b 373c 2c3d 6f5a 18bc 9aca 093d
00000070: 1ec3 29bd ad6b 18bd a310 873c 2865 ea3a
00000080: 0695 253d 1689 2b3c 3060 173c 8777 0bbd
00000090: 8c2a 41bc 0d9e 02bd e09e c7bc c319 753c
000000a0: 71e9 54bd 8d4d e33b ecff 61bd 0fab 9cbb
000000b0: e9a3 31bd 4b44 103d 0aca 733c db82 23bd
000000c0: c48c a9bc 4d85 9f3d 094d 203d 4738 0bbd
000000d0: c39a 01bd 1340 0cbd fe94 bb3c ad79 24bb
000000e0: 7c0a 1bbd 67d9 ae3c 9bc1 8a3d 11d6 ddbc
000000f0: 8a12 2cbc b397 b0bc 6be4 bbba feba 9abc
00000100: 410a f0bd 61c4 8cbc e4e4 dfbc 0481 ee3c
00000110: db4e 483d 2e32 e3bc c9b5 b7bc 6e5e 85bc
00000120: e5be 393c 2ba0 723d b3fb e53c ca13 3e3d
00000130: 6047 bc3c 8b18 973d 54c0 0bbd 4579 263d
00000140: 3559 8d3d 3f29 b13d bc10 dcbc 1b48 023d
00000150: 4613 3b3d c22b afbd 7f5e 083c e54d 233c
00000160: 5f1a 42bd 0b7a 8fbc 0dc0 1b3c 1b2a f0bb
00000170: 359a c73c b1d0 98bb 3bae d93c cb5e 3dbc
00000180: 680a d13c fd17 c8bd 8125 0e3d 19e7 7cbc
00000190: 6d21 0d3c 2c13 113d 5772 f6bb eb70 0ebb
000001a0: 6a11 91bc 693d 543d d16e 5ebd 866c ef3c
000001b0: 00e7 65ba 67b5 213d 1bda f83b 4769 093d
000001c0: e05d c03c 9d72 813c 56fc d2bd d704 bc3c
000001d0: b12a 2cbd 3e7c 1bbb d962 133d 55ae b03b
000001e0: 510c 0cbd 2030 083d 5071 2cbd 4b75 0dbc
000001f0: 3776 873d 1721 08be 9c62 83bd 6c09 01bd
00000200: 0e7c 863d 7593 5db9 b55c 8dbb e4c1 493d
00000210: 8a9e 78bc 39af 293c 0604 38bb 0737 073d
00000220: 3ab2 dabb fefd 07bc 8637 81bc 4eba 333d
00000230: 86ce 40bd de27 babc c3ef 5bbc a1f5 3e3a
00000240: 9d40 ae3c 09c5 25bd ffcc b7bb 7fed 233d
00000250: 4f61 27bc 4d43 593b 630e f73c 0268 08bd
00000260: dd88 acbb ed72 4dbd 378c dc3c 17a6 523d
00000270: 58ca 513d 4476 65bd d4e9 923b 882e 00bd
00000280: 1932 d03c 9f24 193c dd2b 0b3d 990e a63c
00000290: 3e08 75bc 4318 abbd 158e cc3d f54e 0c3a
000002a0: ece1 53bd f96b bf3c d01e e23c 710b 603c
000002b0: 3bbb aebb 3f9a f6bb da98 b0bd ae92 ab3c
000002c0: 0feb b93b 33c0 23bd 2e7b f2bb a974 7cbc
000002d0: bdb7 123d 1de6 b13c 8a4e e63c 2577 22bd
000002e0: 011c 3fbd e3c9 9d3c 8f62 7bbd 63b0 b03c
000002f0: fedc e03b d286 74bc a7ba bd3b a83b bd3c
00000300: a43c 75bd b74a 4bbc fa20 273c a1ad c93c
00000310: 52ff 903d a07f d6bb 6c13 4a3d 7acb 2d3c
00000320: ba22 e5ba 9db1 1fbd 5645 a03d aa67 94bd
00000330: e730 383c 69b2 b83b 6803 f83c dcca c63c
00000340: 3d0a bdbd 0c37 613d 96f8 513c a0f3 b23c
00000350: 5cb2 5d3b a796 893c 5ca9 59bc 7f43 393d
00000360: 3b81 00bb a7b8 f43c 5d6c 653c ad23 383c
00000370: 2e23 93bc 0484 b93c a3de 313c c390 68bc
00000380: a23a 013d da2b 6f3c 1396 6cba ae7b 873b
00000390: fe91 b9ba d106 f6bc e1cc 06bc 904c efba
000003a0: b67f 64bb a7ce eabb 7b11 053d 3208 983d
000003b0: 768e 21bb 3c20 9fbd d1a7 5dbd 37fd 7c3c
000003c0: 1428 0e3c 78c0 023c b020 29bd cf53 7d3b
000003d0: c500 f0bb 0057 3e3d aac0 30bc 212b 8bbd
000003e0: 3922 583c c8bb b93c 7c5b cfbc 7000 1bbd
000003f0: d3a0 1ebc 60de 433d bda5 98bc 98a3 9a3c
0.020756504 -0.0024146365 0.028728073 0.0072944085 -0.049961735 0.026826443 0.04348019 -0.03599257
0.007686718 0.019465119 0.011961876 -0.028157353 -0.04283025 -0.030493349 -0.010724056 0.04767075
0.026001556 0.0022873222 0.019180248 -0.017066108 0.017667739 0.027727058 -0.019202678 0.02500572
0.0019571336 0.042049613 -0.009298905 0.03364048 -0.041445844 -0.037212063 0.016487425 0.001788293
0.040425323 0.010469696 0.0092392415 -0.034049537 -0.011789929 -0.03188901 -0.02436775 0.014959755
-0.05198044 0.006936735 -0.055175707 -0.004781134 -0.043369208 0.03522138 0.014879713 -0.039919715
-0.020697005 0.07789097 0.039135966 -0.033989217 -0.031641733 -0.034240793 0.022898193 -0.0025096938
-0.037851796 0.0213439 0.067752086 -0.027079614 -0.010502467 -0.02155671 -0.0014335042 -0.018887993
-0.11720706 -0.017183485 -0.027330823 0.029114254 0.048903327 -0.027733888 -0.02242555 -0.01628038
0.011337017 0.05923478 0.028074121 0.04640559 0.022983253 0.07377728 -0.034118965 0.040642995
0.069017805 0.08650445 -0.026863448 0.031807046 0.045672677 -0.08553268 0.008323311 0.009967302
-0.04738843 -0.01751425 0.009506238 -0.007329238 0.024365524 -0.00466355 0.026572337 -0.011558245
0.025517657 -0.097702004 0.034703735 -0.015435957 0.008613926 0.035418674 -0.0075209546 -0.0021734785
-0.017708499 0.051816378 -0.0543049 0.029226553 -0.00087700784 0.03947964 0.0075943596 0.033547666
0.023482263 0.015801722 -0.103020355 0.022951527 -0.0420329 -0.0023725177 0.03598294 0.0053918757
-0.034191433 0.03324902 -0.04210025 -0.008633922 0.066143446 -0.13293873 -0.064152926 -0.031503126
0.0656663 -0.00021131134 -0.00431403 0.049257174 -0.015174517 0.010356718 -0.002807857 0.033011463
-0.0066740783 -0.008300303 -0.015773546 0.043878846 -0.047071956 -0.022724088 -0.013423863 0.00072845264
0.021271044 -0.04047111 -0.0056091542 0.040021416 -0.010216071 0.0033151687 0.030158227 -0.033302315
-0.005265339 -0.05015843 0.026922328 0.051427927 0.05121836 -0.05602099 0.004483441 -0.031294376
0.025414513 0.00934711 0.03397738 0.020270633 -0.014955578 -0.08354237 0.099880375 0.00053523417
-0.051729128 0.023366915 0.027602583 0.013674603 -0.005332378 -0.007525712 -0.08622904 0.020943966
0.005673773 -0.039978217 -0.007399938 -0.015408673 0.035819758 0.021716172 0.028113622 -0.039664406
-0.046657566 0.019261306 -0.06137329 0.021568483 0.006862282 -0.014924722 0.005790073 0.023099735
-0.059872285 -0.01240795 0.010200733 0.024618926 0.070799485 -0.006545976 0.04933493 0.010607595
-0.0017481663 -0.038987745 0.07825725 -0.07246335 0.011242128 0.0056365025 0.030275062 0.024266653
-0.092304684 0.054984137 0.012815615 0.021844685 0.0033828234 0.01679547 -0.013285007 0.045230385
-0.0019608277 0.029873205 0.014002887 0.0112389745 -0.01796111 0.022645958 0.010856303 -0.01419467
0.031550057 0.014597857 -0.00090250483 0.004134617 -0.0014157889 -0.030032547 -0.008227558 -0.001825707
-0.003486616 -0.007165748 0.032487374 0.07423438 -0.0024651564 -0.0776982 -0.05411512 0.0154412305
0.008676548 0.007980458 -0.04129094 0.003865469 -0.0073243105 0.04646969 -0.010788122 -0.067953356
0.013191753 0.022672549 -0.025312178 -0.037842214 -0.009681898 0.047819495 -0.018633718 0.018876836
