emb_cache_v2/b0a947b850293e1a93e6cd500776b827.npz (npz, 37976 bytes, 1 tensors)

vectors f4 [11, 768]
00000000: 4e25 2c3d 7b4a 9cbd 17ea 9a3c 16d9 c13a
00000010: c497 05bd bac3 abbc 59fb 46bd 3b60 8d39
00000020: 8689 693c cc80 0c3d 291a d8bc fa79 7d3c
00000030: 48aa 1cbc 7707 41bd 06dc 6ebc 315f 383c
00000040: dba8 76b9 a19e 5d3d 123e 3e3d 1823 ed3c
00000050: 18b2 a23c 0ccf 5c3c f016 b0bc 526f e63c
00000060: 908d 8d3c b2d3 563c 8ff3 2c3d 3481 e03c
00000070: b484 86bd 7d46 5cbd 140b 073d 960a ba3c
00000080: e983 4a3d a562 72bb 1b73 a5b9 3f38 1cbd
00000090: 3fa3 c43c ee6b 89bb b4a2 67bc 19b7 7b3d
000000a0: 700f 4bbc fc79 8c3c 93d8 f6bc f0ce aa3c
000000b0: d19e 27bc 5eb2 463d 3c9f 14bb 3393 84bb
000000c0: 8dfb 91bc 280b 813d 11ac 183d 6bff 973b
000000d0: 5a1b a4bc 02e3 34bd e407 323d d531 02bc
000000e0: e9ee 05bd 8e2d 503a ee28 813d 51db 5ebd
000000f0: f9e4 913c 26c3 e5bb b969 36bd d114 c0ba
00000100: fa6a 95bd 2fe3 a9bb 1a61 fabc daed 373d
00000110: ef03 693d e424 1abc c101 533c 89e2 3f3c
00000120: 7252 023d 2983 1f3c f1cc 2d3b e0d3 823c
00000130: 719f cf3c 79e3 873b 1b71 27bc 90dc 543c
00000140: 5473 683d b7d3 b13d 0923 10bd 0563 843c
00000150: 0e51 b63c 651e 263b c4b2 8fbc 8578 43bc
00000160: 2132 e2bb fcd0 f2bb a8a3 893d 29fc 763a
00000170: ef52 ab3b 9478 9a3b 550f 4f3d cf71 bd3c
00000180: e2d7 193d d71f c8bc 59ba ab3c 814f fdbd
00000190: 9053 b43c cffb bb3c 130d 04bd 99eb 35bb
000001a0: 5a86 043b 5ce8 ac3d d718 bbbc 08b8 7d3d
000001b0: 52e2 8a3c e702 533d 7b9b 793c 9710 023d
000001c0: f2b5 9a3d db6d c2bc 5c0d 36bd 0b46 1e3d
000001d0: 99cc 02bd 55cd 9c3c 2b1e 313d 0bf9 9e3a
000001e0: 777f cd3d 300e 8b3c 7d1f b6bb 2aae 023c
000001f0: a261 49bc 9df7 f2bd f4c1 27bd 1c1d 2bba
00000200: fba8 583d cb10 be38 27bd d4ba dd19 953d
00000210: a3b2 16bd 098d 81ba 3b5d 2bbc a6f5 683d
00000220: 9cb7 0abd 2f43 4eba b157 87bc e9ed 8cbc
00000230: 8fbb 56bd c3da 29bd 50d8 f3bc 1ad9 dc3c
00000240: 88d7 143d cc4f efbc fac2 b7bc 05d5 d53a
00000250: fb7e 0b3c 6aa0 fc3c 09da 0dbd 2a1f bdbc
00000260: cd88 183d 6a00 99bc 511c 94bb b59e 633c
00000270: c88f 54bc 4c05 9cbc 5aa0 fa3c e7ad acbd
00000280: d636 ad3c 68b0 41bc 99b0 dfbc 5e3d a839
00000290: 6338 663a f3ee 36bd 6329 663d 90bb b83c
000002a0: 5c65 70bd 5eca 8d3c cc41 69bc 211b 44bc
000002b0: 3f4f 43bb f94c 603c 9a46 38bd 3dff d13c
000002c0: 02ae 08bc 4cec 8e3c 7790 e0bc ed57 e0bc
000002d0: 6446 b33c b93a 263d 9417 143b 2122 bebc
000002e0: 09f3 9cbc 0d0d 9cbc 4c50 99bc 02a3 78bd
000002f0: e6ef 83bb 1a5b 443b 3225 b93c 1b43 91bb
00000300: 044e 97bd acd7 8f3b a15b 96bc 3b2c c73c
00000310: 8d8c 863d 78d0 f6bc 025d 743c 1735 23bd
00000320: 929d 093c 2fd5 4cbd 2145 033d fab1 14bd
00000330: 6673 efb9 f17e b2bc 8482 983c ed90 6c3d
00000340: 1009 48bd 2ad5 ad3b 7fd6 2dbd 5608 fe3b
00000350: 0d25 f53b d511 df3c 50a2 7dbc 5991 953d
00000360: 3a1e 653b f6bc cb3c 23f4 de3c 0cc0 c3bb
00000370: 0c7d bd3c 8495 f53b fab3 0d3d d246 eebc
00000380: 093a bb3c 7943 3ebd cef9 e7bb e795 8dbc
00000390: cc38 063b 38ae 27bd d256 803c ac0a 573c
000003a0: 8acb 333c 14fa a4bb 9dc6 703d f8d9 843d
000003b0: c8c5 fabc c1e0 50bd 62f9 92bd eb83 5ebd
000003c0: 4f96 e63c 80e6 05bc 9d85 0dbd 6a55 c0bc
000003d0: 9a22 aabc e525 643d 33b9 b8bd 7228 60bd
000003e0: d501 bb3c 9b74 2b3d 927b 5ebc 8f92 6b39
000003f0: 227c b2bc 8b9a 403d 8cdc 11bd 357b a6bc
0.042027764 -0.076313935 0.01891045 0.0014789428 -0.032615438 -0.020967353 -0.048579548 0.00026965313
0.01425398 0.034302518 -0.026379662 0.015470976 -0.009562083 -0.04712626 -0.014578825 0.011253164
-0.00023523292 0.05410636 0.046445914 0.028947398 0.019860312 0.013477098 -0.021495312 0.028129254
0.017279416 0.0131119955 0.042224463 0.027405359 -0.0656828 -0.05377816 0.03296955 0.022710126
0.049442206 -0.0036985066 -0.00031557013 -0.038139578 0.024003623 -0.0041937744 -0.014137913 0.061453912
-0.012393817 0.01714801 -0.030132568 0.020850629 -0.010230736 0.048509948 -0.002267792 -0.004045868
-0.017820144 0.06300956 0.03727347 0.0046386025 -0.020032573 -0.044161804 0.043464556 -0.007946451
-0.032698546 0.00079413585 0.06306635 -0.054408375 0.017809378 -0.007011789 -0.04453442 -0.0014654641
-0.07295795 -0.005184553 -0.03056388 0.044904567 0.056888517 -0.0094082095 0.012878836 0.011711725
0.031816907 0.009735861 0.002651986 0.01597017 0.025344582 0.00414699 -0.010219838 0.012992039
0.05675061 0.086829595 -0.035189662 0.016160497 0.022255447 0.0025347706 -0.017541297 -0.01193059
-0.0069029485 -0.007410167 0.06720668 0.000942173 0.0052283923 0.004714081 0.05055173 0.023125557
0.037559398 -0.024429245 0.02096288 -0.1236868 0.022012502 0.02294722 -0.03223903 -0.0027758835
0.0020221681 0.084427565 -0.022838993 0.061943084 0.016953621 0.05151644 0.015234823 0.031754103
0.075542346 -0.023734024 -0.044446334 0.038641017 -0.0319334 0.019140879 0.04324166 0.0012128664
0.100340776 0.016974539 -0.005557953 0.007976094 -0.012291344 -0.11863635 -0.040956452 -0.000652747
0.052895527 9.063034e-05 -0.0016230688 0.07280324 -0.036791455 -0.0009883951 -0.01045924 0.056874894
-0.03386651 -0.00078682875 -0.016521307 -0.017203288 -0.052424964 -0.041468393 -0.029766232 0.02695899
0.03633836 -0.029212855 -0.02243184 0.0016314095 0.008514161 0.03083821 -0.034631763 -0.02308615
0.03723984 -0.018676955 -0.004519977 0.013892819 -0.012973733 -0.019045494 0.03059404 -0.08431607
0.021144312 -0.011821844 -0.027305888 0.0003208918 0.0008782206 -0.044661473 0.056191813 0.022550374
-0.058690414 0.01730841 -0.014236879 -0.011969359 -0.0029801873 0.013690227 -0.044989206 0.025634402
-0.008342268 0.01744666 -0.027412636 -0.027385676 0.02188415 0.040583346 0.0022597061 -0.023209633
-0.019158857 -0.019049192 -0.018715046 -0.06070233 -0.004026401 0.0029961527 0.022600744 -0.0044330484
-0.07387927 0.0043897238 -0.018354239 0.024313083 0.06569777 -0.030128703 0.014914753 -0.039845552
0.008399384 -0.050007995 0.03204835 -0.036302544 -0.0004567161 -0.021789046 0.018616922 0.0577554
-0.048836768 0.005304952 -0.042440888 0.0077524586 0.0074812234 0.027230183 -0.015480593 0.073031135
0.0034960643 0.024870377 0.027216023 -0.0059738215 0.023130916 0.0074946303 0.034595467 -0.029086504
0.022854822 -0.046451066 -0.0070793396 -0.017283393 0.002048063 -0.040937632 0.0156664 0.013125103
0.01097382 -0.0050346944 0.058783162 0.06486887 -0.030611888 -0.050995592 -0.07176472 -0.054325026
0.028147845 -0.008172631 -0.03455125 -0.023478229 -0.020768452 0.0557002 -0.09019699 -0.05472607
0.022828022 0.04185925 -0.013579266 0.00022465944 -0.021787707 0.047022384 -0.03561072 -0.020322422
