emb_cache_v2/b18ce75f20b398851dcd3124b9c7fcc8.npz (npz, 227055 bytes, 1 tensors)

vectors f4 [67, 768]
0.042858873 -0.05006999 0.014027542 0.037338402 -0.07726359 -0.027171362 -0.021730347 -0.0004240018
0.006089523 -0.0074131344 -0.0026319087 0.012950486 0.042770334 -0.06651979 0.017795093 -0.0026927227
-0.025454167 0.03911547 0.05501406 0.040578038 0.023180353 -0.006257057 -0.023680797 0.022288907
-0.013967009 0.014084928 -0.014002197 0.05939577 -0.027160421 -0.07367363 0.01658132 0.014199879
0.091298014 0.006671683 -0.0060378853 -0.014532029 -0.0015056158 -0.023888607 0.014031201 0.020201582
0.0141777815 0.02213672 -0.033951744 0.019114738 -0.00055432244 -0.0056483457 0.03614537 -0.05639714
0.016569002 0.07282022 0.031544328 -0.027613856 -0.021753885 0.025762763 0.0094358 -0.011873888
-0.007829215 0.011657567 0.09585009 -0.023815162 0.008974629 -0.054906588 0.001263763 0.005758511
-0.095698915 -0.00084730313 -0.015320722 0.045226313 0.02948208 8.046588e-05 0.033300072 -0.041100226
-0.025954787 0.05365837 0.029907255 -0.0642061 0.02822149 0.021663234 -0.034508057 0.06442315
0.07358314 0.09987494 -0.061141104 -0.030006869 0.0045820954 -0.014797148 0.0023325996 -0.01671825
-0.052538134 0.03141694 0.100989416 -0.00360065 0.016136013 -0.0150089385 -0.000747522 0.008997116
0.018226158 -0.07938518 0.026673786 -0.06367312 0.11077179 0.025367463 -0.084669866 -0.0073801973
-0.00938842 0.077509515 0.02639674 0.004861013 0.024173828 -0.013639431 0.036169536 -0.0006998097
0.0004204096 -0.015255887 -0.07754898 0.042077295 -0.010102986 0.004733581 -0.00037883795 0.016998328
0.026164304 0.018262178 -0.045792866 -0.025867358 0.015533699 -0.04390675 -0.036200464 -0.01993
0.06631007 -0.016130341 -0.010373153 0.013866851 -0.013342614 -0.004036862 -0.027832951 0.014921621
0.0038845502 -0.0001643317 -0.048784122 0.038417935 -0.03770917 -0.0021927713 -0.030152198 0.007897125
0.014644631 -0.044744864 -0.0027140225 -0.038184866 -0.0020003717 0.060317114 0.010919188 -0.0036411344
-0.018581383 -0.029557806 -0.012415205 0.02721335 0.03533206 -0.014022669 -0.018987484 -0.020957524
0.05147655 -0.010177306 0.053396236 -0.0007707036 0.0153896455 -0.061002504 -0.043283127 0.039710145
-0.11178932 0.00067839795 0.022091681 -0.021550685 -0.005184697 -0.011297272 -0.07073815 0.021715943
-0.03059703 -0.0016919007 -0.008784101 -0.0069369148 0.011553617 0.0685493 -0.0015765734 0.005898599
-0.03414031 0.008990419 0.011062586 -0.016931694 -0.024363888 -0.00028615966 0.0037892691 0.046537206
-0.018338865 0.0037016906 -0.033688713 -0.013033358 0.039667346 -0.13438249 0.03438961 0.011302006
-0.025278283 -0.06498461 -0.007891945 -0.06631473 -0.0034357065 0.0195795 -0.025160428 0.053556643
-0.048446458 -0.04383941 0.022794703 0.004791223 0.011427035 0.06318955 -0.024050139 -0.006718944
-0.00093255367 0.010904221 -0.045801375 0.007019761 -0.01878043 -0.060026336 -0.0040399963 -0.041568305
0.06660616 0.0054720864 -0.025717461 -0.011546422 -0.008959341 -0.04053727 -0.010321128 -0.02066115
-0.027568445 0.026419852 0.048935376 -0.018869534 0.0023198603 -0.12366366 -0.051274512 -0.049671557
-0.007855808 -0.041237663 -0.028622057 -0.021430705 -0.012895895 0.013408776 0.026993163 -0.006923278
-0.010252612 0.02240842 -0.025989488 0.027831191 0.008252721 0.052003864 -0.04961361 -0.0042867
00000000: c98c 2f3d 3116 4dbd c7d3 653c 27f0 183d
00000010: 603c 9ebd 7a96 debc d703 b2bc 8f4c deb9
00000020: 9f8a c73b e1e9 f2bb 1a7c 2cbb 462e 543c
00000030: f22f 2f3d 873b 88bd 04c7 913c 6478 30bb
00000040: 4285 d0bc 8b37 203d 6c56 613d 2835 263d
00000050: b9e4 bd3c 0008 cdbb 3bfe c1bc 3a97 b63c
00000060: e2d5 64bc 78c4 663c 7969 65bc fb48 733d
00000070: 887f debc 33e2 96bd 8cd5 873c 9ca6 683c
00000080: 74fa ba3d 229e da3b 74d9 c5bb bf17 6ebc
00000090: 1558 c5ba 0ab2 c3bc 1fe3 653c ca7d a53c
000000a0: ed49 683c 1158 b53c fc10 0bbd 8396 9c3c
000000b0: f34f 11ba c215 b9bb 2b0d 143d b000 67bd
000000c0: b7bb 873c c422 953d a034 013d 7436 e2bc
000000d0: 3435 b2bc 6e0c d33c 9d98 1a3c b28a 42bc
000000e0: 1c46 00bc 61ff 3e3c 0d4d c43d 0418 c3bc
000000f0: 530a 133c bbe5 60bd daa4 a53a e4b1 bc3b
00000100: cbfd c3bd 8d1d 5eba c403 7bbc 3a3f 393d
00000110: 6784 f13c cabf a838 a865 083d b658 28bd
00000120: 229f d4bc e1c8 5b3d 0f00 f53c 7d7e 83bd
00000130: c130 e73c 1877 b13c 5258 0dbd 49f0 833d
00000140: c2b2 963d 3c8b cc3d 186f 7abd f7d0 f5bc
00000150: 6725 963b bd6f 72bc 87de 183b b6f4 88bc
00000160: 3a32 57bd 0daf 003d 8ad3 ce3d e2f8 6bbb
00000170: ac2f 843c 0de8 75bc 5af5 43ba a468 133c
00000180: 064f 953c b294 a2bd fc82 da3c 0e67 82bd
00000190: 52dc e23d 6dcf cf3c 6567 adbd 95d5 f1bb
000001a0: e3d1 19bc 4fbd 9e3d fa3d d83c 2249 9f3b
000001b0: 3108 c63c ec77 5fbc 8226 143d 6f73 37ba
000001c0: 6c6a dc39 d4f3 79bc 00d2 9ebd 3e59 2c3d
000001d0: ff86 25bc 281c 9b3b c59e c6b9 1440 8b3c
000001e0: 8656 d63c 909a 953c 4d91 3bbd c8e7 d3bc
000001f0: 0e81 7e3c 90d7 33bd f046 14bd 3d44 a3bc
00000200: 93cd 873d c723 84bc 28f4 29bc ca31 633c
00000210: fb9a 5abc a747 84bb ee01 e4bc d179 743c
00000220: f093 7e3b 7450 2cb9 dcd1 47bd 205c 1d3d
00000230: ee74 1abd 99b4 0fbb be01 f7bc f162 013c
00000240: 09f0 6f3c 6446 37bd bedd 31bb bc67 1cbd
00000250: ab18 03bb 140f 773d 65e6 323c 19a0 6ebb
00000260: fc37 98bc 3623 f2bc 2569 4bbc 88ee de3c
00000270: 5ab8 103d 56bf 65bc a48b 9bbc 1daf abbc
00000280: 13d9 523d b7be 26bc 03b6 5a3d 0b09 4aba
00000290: da24 7c3c c3dd 79bd a649 31bd 1ba7 223d
000002a0: cdf1 e4bd 84d6 313a 9df9 b43c 108b b0bc
000002b0: 64e4 a9bb 3118 39bc 2adf 90bd a2e5 b13c
000002c0: 9fa6 fabc c4c2 ddba 31eb 0fbc 0f4f e3bb
000002d0: 624b 3d3c 9363 8c3d 06a5 ceba 0949 c13b
000002e0: b6d6 0bbd 8d4c 133c d93f 353c 56b4 8abc
000002f0: c796 c7bc b307 96b9 6355 783b cc9d 3e3d
00000300: 633b 96bc 1098 723b 2dfd 09bd de89 55bc
00000310: 3a7a 223d 909b 09be 1fdc 0c3d 0d2c 393c
00000320: 6714 cfbc a716 85bd 374d 01bc 04d0 87bd
00000330: 9729 61bb 3065 a03c 3e1d cebc 365e 5b3d
00000340: cb6f 46bd f490 33bd f5bb ba3c b1ff 9c3b
00000350: 7538 3b3c 8669 813d cc04 c5bc 962a dcbb
00000360: 9e76 74ba 9ea7 323c 399a 3bbd 0606 e63b
00000370: 6bd9 99bc 2dde 75bd f261 84bb 8743 2abd
00000380: cf68 883d 304f b33b 6dad d2bc 342d 3dbc
00000390: 33ca 12bc 690a 26bd f319 29bc 9241 a9bc
000003a0: 38d7 e1bc 726e d83c 7670 483d 4894 9abc
000003b0: cc08 183b 5f43 fdbd 3905 52bd 6774 4bbd
000003c0: a6b5 00bc d3e8 28bd ce78 eabc 728f afbc
000003d0: 4e49 53bc 7cb0 5b3c c420 dd3c aadc e2bb
000003e0: 92fa 27bc dd91 b73c e8e7 d4bc 3dfe e33c
000003f0: 6c36 073c 0102 553d a437 4bbd 7277 8cbb
