emb_cache_v2/b19417cfde4e71351b39b54977835ff3.npz (npz, 52158 bytes, 1 tensors)

vectors f4 [15, 768]
0.019008558 0.06249958 -0.003719447 0.052366376 -0.05792076 -0.042321697 0.03293559 -0.002563313
0.014171369 -0.0018844104 0.023291988 -0.018442046 -0.0012042578 -0.03051366 -0.002783965 -0.012921674
0.016752586 0.023183288 -0.015594398 0.033450846 3.332378e-05 0.0100981295 -0.04381843 0.017128486
0.06777087 0.034173965 0.004089853 0.028024366 -0.06426207 -0.08040002 0.046002366 0.04673363
0.086503804 0.0038381936 -0.00721893 -0.058287267 0.003643398 -0.040169522 -0.02428278 0.0764139
0.039022803 0.033859365 -0.039064985 -0.01777989 -0.0140615655 -0.02052313 0.011613495 0.035681643
-0.029460719 0.05825925 0.036598302 -0.03981035 0.026933197 -0.0068122717 0.021897146 -0.006667504
-0.015324262 0.03475089 0.076483026 0.004798643 -0.025923738 -0.0076960702 -0.0062456126 -0.022502543
-0.08034539 -0.020567495 -0.08772784 0.061642837 0.039590858 -0.019495877 0.04287047 -0.009916241
-0.0001480619 0.033376254 0.02630935 -0.027406352 0.0438051 -0.007653965 0.0029979493 0.039949413
0.08379348 0.06760502 -0.06804934 -0.011946089 -0.018797362 0.017725296 -0.011742568 0.006935219
-0.014503527 -0.044028096 0.042622644 -0.04909008 0.01938451 -0.010115272 0.004493586 -0.010006978
0.039266217 -0.052422397 0.013982004 -0.038965106 0.03695085 0.027914803 -0.02783646 -0.0134560205
-0.0011089331 0.067142755 0.0028710158 0.020692585 0.026490524 0.061611947 0.03842453 0.020942666
0.028282128 -0.0044228625 -0.15072918 0.038556498 -0.04840194 0.0077169826 0.0053145173 0.04225576
0.054132562 0.020361947 -0.023381649 -0.00068611844 -0.0027273323 -0.06457187 -0.04274424 0.0009052907
0.055110138 -0.027891912 0.00817868 0.043187898 0.00031031363 -0.02167217 0.0028037445 0.099318966
-0.030400457 -0.01150457 -0.025216347 0.0074130227 -0.049984306 0.009281399 -0.035169855 -0.009539738
-0.0075756484 -0.040560503 -0.041801285 -0.07698888 -6.4054205e-07 0.04472714 0.009228319 -0.0043830075
-0.026992725 -0.038248677 0.021509817 0.038623326 0.025543444 -0.024769738 -0.01535405 -0.056138873
0.028443115 -0.00696553 0.039073277 0.01541534 0.032195996 -0.0556329 0.013047166 0.015789941
-0.096985735 0.03934886 0.026848735 0.022704225 -0.005840841 0.014251564 -0.054733135 0.041999348
0.020159509 0.017037265 -0.080447674 0.007353978 0.0358608 0.044375017 -0.0064108535 -0.004131067
0.01997984 0.009896661 -0.010918121 -0.034083348 -0.011148897 -0.024495503 0.025088277 0.043770872
-0.051324118 0.004553898 -0.014664593 -0.012651056 0.040934086 -0.03555277 0.017886698 -0.002732755
-0.009716178 -0.047785304 0.0063777803 -0.08487668 -0.004710114 0.013751753 -0.012752632 0.041054804
-0.06470807 0.01333058 -0.062282667 0.010219597 -0.028417118 0.044669423 -0.03323863 0.028607167
0.012000759 -0.0084869005 -0.026107918 0.04004988 0.009670189 -0.015534911 -0.024947362 -0.015539834
0.048215467 0.016368585 -0.032061093 -0.009443275 0.028983977 -0.01687363 -0.012443098 -0.006682506
-0.032821592 0.015208955 0.018378733 0.034885757 0.011180175 -0.051943056 -0.034590375 -0.0020513812
0.008420494 -0.015062735 -0.027498528 -0.0018302008 -0.02260231 0.0675589 -0.0075192777 -0.040882733
-0.018773092 0.028524574 -0.030718446 -0.010253298 -0.008144878 0.043745764 -0.04756103 -0.01880319
00000000: d6b7 9b3c 8fff 7f3d f7c1 73bb 207e 563d
00000010: 523e 6dbd 8459 2dbd 78e7 063d 42fd 27bb
00000020: 082f 683c 52fe f6ba d7ce be3c c613 97bc
00000030: 30d8 9dba c8f7 f9bc 2f73 36bb 6eb5 53bc
00000040: b83c 893c e1ea bd3c a57f 7fbc c103 093d
00000050: 23c5 0b38 a072 253c f47a 33bd 0a51 8c3c
00000060: 74cb 8a3d 00fa 0b3d 2c04 863b 5b93 e53c
00000070: d59b 83bd c4a8 a4bd fa6c 3c3d c36b 3f3d
00000080: e828 b13d 348a 7b3b c68c ecbb a1be 6ebd
00000090: 13c6 6e3b cc88 24bd aeec c6bc e47e 9c3d
000000a0: 60d6 1f3d 1eb0 0a3d 9b02 20bd 22a7 91bc
000000b0: 7b62 66bc 2020 a8bc 8746 3e3c ea26 123d
000000c0: 9b57 f1bc 40a1 6e3d 1ae8 153d 2d10 23bd
000000d0: 02a3 dc3c 7a39 dfbb a561 b33c 147b dabb
000000e0: 9d12 7bbc f356 0e3d 22a3 9c3d ef3d 9d3b
000000f0: 055e d4bc 512f fcbb ffa7 ccbb 4157 b8bc
00000100: 208c a4bd 2a7d a8bc a7aa b3bd 337d 7c3d
00000110: 062a 223d d1b5 9fbc f298 2f3d bb77 22bc
00000120: 1041 1bb9 8ab5 083d b586 d73c 4983 e0bc
00000130: fa6c 333d 1dce fabb 3e79 443b ffa1 233d
00000140: eb9b ab3d 8074 8a3d 745d 8bbd 87b9 43bc
00000150: edfc 99bc a434 913c e663 40bc d540 e33b
00000160: 34a0 6dbc ce56 34bd 1595 2e3d ae12 49bd
00000170: 44cc 9e3c 87ba 25bc ee3e 933b 4ff4 23bc
00000180: 9dd5 203d deb8 56bd c614 653c e099 1fbd
00000190: c659 173d 96ad e43c 4a09 e4bc a476 5cbc
000001a0: 9f59 91ba 2482 893d a727 3c3b 7f83 a93c
000001b0: a802 d93c cf5c 7c3d 0a63 1d3d f48f ab3c
000001c0: ecaf e73c a9ed 90bb c058 1abe 6bed 1d3d
000001d0: 1d41 46bd bede fc3b 6725 ae3b 6014 2d3d
000001e0: 1bba 5d3d 19ce a63c df8a bfbc a1dc 33ba
000001f0: 0bbd 32bb 423e 84bd 9614 2fbd 0851 6d3a
00000200: 2bbb 613d 947d e4bc dfff 053c cbe5 303d
00000210: 97b1 a239 d689 b1bc 07bf 373b be67 cb3d
00000220: 610a f9bc aa7d 3cbc 8392 cebc f1e8 f23b
00000230: 58bc 4cbd 0211 183c 440e 10bd 904c 1cbc
00000240: 253d f8bb c522 26bd d337 2bbd 59ac 9dbd
00000250: b7f1 2bb5 ce33 373d 6032 173c 559f 8fbb
00000260: d91f ddbc a5aa 1cbd 5b35 b03c 7e33 1e3d
00000270: 7c40 d13c e8e9 cabc 8e8f 7bbc e0f1 65bd
00000280: 8901 e93c 1a3f e4bb 4d0b 203d 9f90 7c3c
00000290: f3df 033d 53df 63bd c8c3 553c e859 813c
000002a0: 75a0 c6bd 452c 213d e1f1 db3c 36fe b93c
000002b0: 8764 bfbb 647f 693c da2f 60bd 8207 2c3d
000002c0: 8e25 a53c bc91 8b3c c0c1 a4bd a4f9 f03b
000002d0: c6e2 123d 94c2 353d 2312 d2bb e75d 87bb
000002e0: c3ac a33c 9b25 223c ebe1 32bc fb9a 0bbd
000002f0: dda9 36bc cbaa c8bc ee85 cd3c 1649 333d
00000300: 3d39 52bd dd38 953b c343 70bc 6046 4fbc
00000310: 80aa 273d c89f 11bd 2087 923c 0518 33bb
00000320: 9b30 1fbc 86ba 43bd b3fc d03b d3d3 adbd
00000330: 4d57 9abb 084f 613c 6af0 50bc 1529 283d
00000340: aa85 84bd 8168 5a3c 1c1c 7fbd 1970 273c
00000350: 04cb e8bc 49f7 363d 3b25 08bd 9459 ea3c
00000360: d59e 443c a40c 0bbc 46e0 d5bc 580b 243d
00000370: b66f 1e3c 2486 7ebc 695e ccbc ca9a 7ebc
00000380: 957d 453d 6917 863c 7e52 03bd f7b7 1abc
00000390: ce6f ed3c 913a 8abc 23de 4bbc ecf8 dabb
000003a0: ef6f 06bd fb2e 793c ff8e 963c 5ee4 0e3d
000003b0: 0d2d 373c 3ec2 54bd a3ae 0dbd 7770 06bb
000003c0: 1df6 093c b1c9 76bc 9844 e1bc 59e3 efba
000003d0: 7b28 b9bc 525c 8a3d 4664 f6bb a774 27bd
000003e0: 07ca 99bc 5eac e93c 40a5 fbbc 73fd 27bc
000003f0: 1872 05bc c22e 333d 5bcf 42bd 2609 9abc
