emb_cache_v2/b1c132f2498fc804f479307143badc52.npz (npz, 50333 bytes, 1 tensors)

vectors f4 [15, 768]
0	0x3cbc0c9b	0.02295523
1	0xbcffa9c5	-0.031208882
2	0xbc75970a	-0.014989624
3	0x3d285f20	0.041106343
4	0xbd61cc92	-0.055126734
5	0xbc58dfa3	-0.013236913
6	0x3c03d7ce	0.008047057
7	0x3c9306a6	0.017947506
8	0x3d083aca	0.03325919
9	0x3cc3119b	0.023812106
10	0x3d00c588	0.03143838
11	0x3ca0b85f	0.019619165
12	0x3b1c2b2c	0.0023829443
13	0xbc07e36a	-0.008293966
14	0x3bc8e2ae	0.006130538
15	0x3c1848e7	0.009294725
16	0xbc81f976	-0.015866023
17	0x3d4be190	0.04977566
18	0xbb611282	-0.0034343307
19	0x3d19531e	0.037432782
20	0x3cca8004	0.024719246
21	0xbb9914f5	-0.0046716877
22	0xbd2e4f3e	-0.04255604
23	0xbbdafaff	-0.006682753
24	0xbb7e74fb	-0.003882705
25	0x3cf04201	0.029328348
26	0xbcb40c59	-0.021978544
27	0x3d2cceee	0.04218953
28	0xbd00ab4e	-0.03141337
29	0xbdc6b5c4	-0.09702638
30	0x3bf7e034	0.007564569
31	0x3c8400bd	0.016113633
32	0x3daa3e20	0.08312631
33	0xbc7f7921	-0.015592844
34	0xbbb1acaf	-0.005422197
35	0xbd506116	-0.05087384
36	0x3cad3773	0.021144604
37	0xba40d513	-0.0007355969
38	0x3c1e4dd2	0.0096621085
39	0xbc1f943e	-0.009739934
40	0xbd644971	-0.0557341
41	0x3b102ac4	0.0021998147
42	0xbcc021ce	-0.02345362
43	0x3b864bc7	0.004098389
44	0xbc2c675a	-0.010522688
45	0x3c269931	0.01016836
46	0x3c98b77b	0.018642178
47	0xbcdc9931	-0.026928516
48	0xbce0b5bc	-0.027430408
49	0x3dacc9dc	0.08436939
50	0x3ce1471e	0.027499732
51	0xbc23c458	-0.0099955425
52	0xbd24233b	-0.04007266
53	0xbcec4ad4	-0.028844275
54	0x3c939fb0	0.01802048
55	0xbb05aaf8	-0.0020396095
56	0xba931691	-0.0011221935
57	0x3cd82425	0.026384423
58	0x3dbd0ffe	0.09231566
59	0xbd815bdb	-0.06316348
60	0xbb5e34c9	-0.0033905974
61	0xbd01ccb4	-0.03168936
62	0xbc9f4ca0	-0.019445717
63	0x39a59c07	0.00031587502
64	0xbda669cf	-0.0812565
65	0x3c0081f0	0.0078434795
66	0x3d8590fe	0.06521796
67	0x3d238aa1	0.03992713
68	0x3d1ed15c	0.03877388
69	0xbc881fb8	-0.016616687
70	0xba869df8	-0.0010270467
71	0xbc1a9676	-0.009435287
72	0x3cbc407d	0.02297997
73	0x3cd22c70	0.025655955
74	0x3bdb9a2e	0.0067017293
75	0x3ce8bba7	0.028409792
76	0x3d2a7b82	0.041621692
77	0x3cb65bca	0.022260565
78	0xbd6c273f	-0.057654615
79	0x3d333a69	0.043756876
80	0x3da52ffc	0.08065793
81	0x3d6fd92d	0.058556724
82	0xbd4d386e	-0.050102644
83	0xbc7f9fc8	-0.01560206
84	0x3b987165	0.0046521896
85	0x3c92d9fa	0.017926205
86	0xbb4bdd08	-0.0031107087
87	0xbd06a9da	-0.032876827
88	0xbd1f9014	-0.038955763
89	0x3be87f8a	0.007095282
90	0x3d7a3cc4	0.061093107
91	0xbccba6dd	-0.02485984
92	0x3d8242d1	0.063604005
93	0xbca9ed9e	-0.020743188
94	0x3d35c270	0.044374883
95	0x3cdddf31	0.027083965
96	0x3c3b33b4	0.011425901
97	0xbdaefe52	-0.085446015
98	0xbc927a15	-0.017880479
99	0xbd8557c1	-0.06510878
100	0x3d35140c	0.04420857
101	0xbab07580	-0.0013462752
102	0xbc3f7fd9	-0.011688196
103	0x3c4d43ce	0.012528373
104	0x3bf13943	0.0073615625
105	0x3d9a5d91	0.075373776
106	0x3ab3d324	0.0013719541
107	0x3b4700c4	0.0030365447
108	0x3cccbd25	0.024992535
109	0x3c1026c0	0.008798301
110	0x3d2904dc	0.0412644
111	0x3cfaa068	0.030594066
112	0x3d1c1fc8	0.038116246
113	0xbc3b9971	-0.0114501575
114	0xbdd739f6	-0.10509102
115	0x3d4e7200	0.050401688
116	0xbd0d0460	-0.034428
117	0x3bd7610f	0.0065728496
118	0x3b53da84	0.003232629
119	0x3b96a2fb	0.0045970655
120	0x3d0d6716	0.03452214
121	0xbcc0a862	-0.023517791
122	0xbd963d09	-0.0733586
123	0x3b130b13	0.002243702
124	0xbc93d245	-0.0180446
125	0xbdcfcf41	-0.101469524
126	0xbd5be981	-0.053689484
127	0xbcda1b84	-0.026624449
128	0x3d9407d9	0.07228059
129	0xbb261255	-0.0025340517
130	0xbc9026b3	-0.017596578
131	0x3d34c5b6	0.044133864
132	0xbcab8e35	-0.020941833
133	0xbc76fd8a	-0.015075097
134	0xbcc01bba	-0.023450721
135	0x3c138a14	0.009005088
136	0xbce5e9c6	-0.028065573
137	0xbc43f9e7	-0.011961437
138	0xbcee1297	-0.029061599
139	0x3d0fdcdf	0.03512275
140	0xbd374c88	-0.04475072
141	0xbccf0edb	-0.025275638
142	0xbc39ed3d	-0.011348066
143	0x3d0b5ca5	0.0340239
144	0x3d0b49c3	0.03400589
145	0xbccde995	-0.025135795
146	0xbca5bd02	-0.020231728
147	0xbd37fc73	-0.04491849
148	0x3bbc4fde	0.0057468256
149	0x3d648a7c	0.05579613
150	0x3cbc74e0	0.02300495
151	0xbc80ce7f	-0.015723465
152	0x3d4b20d2	0.049591847
153	0xbccbee2c	-0.024893843
154	0x3ca04055	0.019561926
155	0x3d5720e9	0.05252162
156	0x3cf5b953	0.029995596
157	0xbcc5e38f	-0.02415636
158	0x3a9ef5a7	0.0012127653
159	0xbb5a8e60	-0.0033349022
160	0x3ccc7f80	0.02496314
161	0x3bab3b1c	0.0052255522
162	0x3d059bc0	0.032619238
163	0xbc07883c	-0.008272227
164	0xbbcc1e55	-0.006229202
165	0xbcf0d9a9	-0.029400663
166	0xbbce02d4	-0.006286958
167	0x3b8a6a17	0.0042240727
168	0xbdbc9a76	-0.092091486
169	0x3c9794c5	0.018503556
170	0x3c510eba	0.012759859
171	0xbc9e1ea2	-0.019301716
172	0x3a2633cf	0.00063401175
173	0x3d088fe5	0.033340354
174	0xbda7bf22	-0.081907526
175	0x3d6a657d	0.057225693
176	0xbc67b7f4	-0.014142979
177	0xbcad5d48	-0.021162644
178	0x3c259152	0.010105448
179	0xbd2c30f6	-0.04203888
180	0xbb940742	-0.0045174668
181	0x3c15f3d2	0.00915237
182	0x3d42b7a5	0.04753842
183	0xbce38386	-0.027772676
184	0x3b9ee985	0.004849615
185	0x3c1999d7	0.009375057
186	0xbaa3ff67	-0.0012512029
187	0xbc874176	-0.016510706
188	0xbc6c96f6	-0.014440289
189	0xbc89cd5a	-0.016821552
190	0x3bd787c1	0.0065774624
191	0x3d2f8769	0.042853747
192	0xbc9ce2f3	-0.019151187
193	0x3cbfecb8	0.023428306
194	0xbccdf546	-0.02514137
195	0x3c153f73	0.009109366
196	0x3d64843b	0.055790167
197	0xbd84eb3d	-0.06490181
198	0x3cdf2352	0.027238522
199	0xbc001d07	-0.007819421
200	0x3cc53356	0.02407233
201	0xbd91acd0	-0.071130395
202	0x3d146892	0.03623254
203	0xbda5c1df	-0.080936186
204	0xbc4f4141	-0.012649835
205	0xbc8621ee	-0.0163736
206	0x3cd4f679	0.025996434
207	0x3d41b931	0.047295753
208	0xbda47035	-0.08029214
209	0x3d0f6866	0.03501167
210	0xbd59d70f	-0.05318361
211	0x3cdd6820	0.02702719
212	0xbbb19ece	-0.0054205423
213	0x3d15aab2	0.03653974
214	0xbd184a20	-0.037180066
215	0x3a8b6f1e	0.0010637974
216	0x3c22aa31	0.009928272
217	0x3c5052ce	0.012715055
218	0xbc2a9163	-0.010410639
219	0x3c261a3f	0.0101380935
220	0x3b552ed4	0.0032529132
221	0x3afa19d5	0.0019081185
222	0xbbe8e7a7	-0.0071076932
223	0xbb9981eb	-0.004684677
224	0x3cd26743	0.025684005
225	0x3c60dd75	0.0137246745
226	0xbce2bb2d	-0.027677143
227	0x3bf96052	0.007610359
228	0x3d3133f9	0.043262456
229	0xbca80537	-0.0205103
230	0x3c7d0bc0	0.015444696
231	0xbd1db028	-0.038498074
232	0xbc646eae	-0.013942404
233	0xbbef47f8	-0.0073022805
234	0x3d2869d5	0.041116554
235	0x3d2b3bdb	0.04180513
236	0xbc782558	-0.015145622
237	0xbd9fbfd4	-0.0780026
238	0xbd573c40	-0.052547693
239	0xbc0165b8	-0.007897787
240	0x3cf92177	0.030411465
241	0xbcc083e8	-0.023500398
242	0xbd558625	-0.052129883
243	0x3b81a265	0.0039561265
244	0xbd1a114f	-0.037614163
245	0x3c9e9150	0.0193564
246	0xbb9cf56e	-0.0047899997
247	0xbcaf8ad7	-0.021428509
248	0xbc1378d4	-0.009000976
249	0x3d816d77	0.06319707
250	0xbc7500dd	-0.014953819
251	0xbc59b387	-0.013287432
252	0x3c02d271	0.007984743
253	0x3d16f8a3	0.036858212
254	0xbd062857	-0.032753315
255	0x3c3b8b49	0.011446782
