emb_cache_v2/b1e2bc45870cedd5056cb2c376c72c88.npz (npz, 128774 bytes, 1 tensors)

vectors f4 [38, 768]
0.012039669 -0.037319917 0.009522199 0.046276614 -0.024794977 -0.0007206335 0.0028637142 0.0069045005
0.014012407 0.051281434 -0.017993562 0.022152644 0.006301444 -0.044461533 0.017344516 0.004225877
-0.031146143 0.012451233 0.003596522 0.030368803 0.00021820141 0.02560457 -0.024484213 0.008469336
-0.008828533 0.0378634 -0.0147602055 0.0187845 0.0018503908 -0.080538124 -0.004821136 -0.008495497
0.05776744 -0.0047468306 -0.005496848 0.00046788366 0.007999636 0.0066545946 -0.028750423 -0.030050365
0.028595522 0.04745622 -0.038821522 0.006798045 -0.05095962 0.008437246 0.032333106 -0.010481151
0.013224838 0.06634423 0.028926801 -0.044519898 -0.008544696 -0.0034173983 -0.070605785 0.010328477
-0.02435167 0.0052468036 0.08175094 -0.01429584 0.0090112 -0.019435972 0.018839302 -0.0047417576
-0.06666994 0.014447789 0.010965978 0.047719527 0.03993135 0.0017069466 -0.0034274103 -0.018265288
0.033460464 0.065470375 0.026869277 -0.083522595 0.019313902 0.013276482 -0.03440588 0.057382192
0.047487058 0.052123282 -0.046599023 0.0015198854 0.021863068 0.0012110634 -0.0044314195 -0.016614437
-0.047034338 -0.004306382 0.0005588828 0.018390382 0.044330668 -0.011081864 0.009213375 0.0023024273
0.015346717 -0.07161267 0.011140947 -0.07579337 0.049884044 -0.005705824 -0.07091876 -0.005204023
-0.007476408 0.04885221 -0.009244008 0.023302248 0.05533869 0.016368723 0.0052911183 0.021718668
0.0003878392 0.029577533 -0.07672412 0.015797473 -0.031014588 0.012287415 0.029526776 0.01808277
0.0325326 0.026816117 -0.04927069 0.0010295511 0.022672534 -0.09817269 -0.03070756 -0.023322316
0.061233725 -0.013617496 -0.04145219 0.031704936 -0.011416352 -0.005331296 -0.019992897 0.0737549
-0.019435475 0.00856766 -0.020847706 0.033956174 -0.047866613 -0.025823036 -0.009212307 0.001343532
0.011828109 -0.024091192 -0.022284612 -0.058008324 0.015985074 0.063559346 0.018598432 -0.008027474
-0.002371547 -0.049402416 0.019289428 0.018598342 0.079771936 -0.055231612 0.012273854 -0.0031525013
0.0024976255 0.021825844 0.030986471 0.02277246 0.019755159 -0.06501883 -0.011894691 -0.0071221506
-0.06302017 0.01953289 0.005393946 -0.0003398736 0.0074540433 0.032134645 -0.07966941 -0.015434376
0.011395544 0.04572842 -0.024269572 -0.038443916 -0.028823245 -0.027156249 -0.024465898 0.05498021
-0.03680794 -0.000987989 0.02496435 0.0028744226 -0.00835082 0.017782997 0.02617072 0.03655415
-0.013551096 0.028708914 -0.02434641 -0.025146011 0.025621278 -0.027077794 0.03163884 0.004220188
-0.010118818 -0.06375381 -0.05118726 -0.073214926 -0.013808373 -0.007821473 -0.05049503 0.03820173
0.011441311 -2.2040786e-06 -0.032297455 0.04180053 0.0051241876 0.005791939 -0.022703918 0.0064392933
0.006702838 0.026579736 -0.010722288 0.04107264 0.0030816766 -0.0021797519 -0.035708945 -0.033462867
0.014386544 0.0076476377 -0.01701764 -0.018710796 0.037824944 -0.035794374 -0.0007532039 -0.02351845
-0.05193299 -0.0016583587 0.024458084 0.0535364 -0.049558334 -0.093226545 -0.039831992 -0.03287194
-0.0019434582 -0.019805985 -0.057100493 -0.024944512 0.021258088 0.0028284183 -0.008079306 -0.03384293
0.0077441325 0.037079778 -0.03673017 0.007683208 0.014751284 0.037437454 -0.014325797 -0.014845496
00000000: 0842 453c c5dc 18bd ff02 1c3c 8c8c 3d3d
00000010: d61e cbbc e5e8 3cba 27ad 3b3b 263f e23b
00000020: 4b94 653c 7b0c 523d 3c67 93bc 7679 b53c
00000030: 587c ce3b 4c1d 36bd 1616 8e3c 3a79 8a3b
00000040: 3226 ffbc 4200 4c3c a0b3 6b3b ffc7 f83c
00000050: ffcc 6439 adc0 d13c 1e93 c8bc f8c2 0a3c
00000060: 8da5 10bc a716 1b3d cad4 71bc f4e1 993c
00000070: d088 f23a 2cf1 a4bd 9ffa 9dbb b230 0bbc
00000080: 8d9d 6c3d 4d8b 9bbb e71e b4bb 484e f539
00000090: e810 033c c90e da3b 0286 ebbc 2f2c f6bc
000000a0: 2841 ea3c 7461 423d 5103 1fbd 22c2 de3b
000000b0: 09bb 50bd 603c 0a3c b86f 043d 22b9 2bbc
000000c0: feac 583c 7cdf 873d e6f7 ec3c 7f5a 36bd
000000d0: 0dff 0bbc 6ef6 5fbb c499 90bd c638 293c
000000e0: 277d c7bc 61ed ab3b 096d a73d 1939 6abc
000000f0: b6a3 133c 3038 9fbc e154 9a3c bf60 9bbb
00000100: 408a 88bd 6bb6 6c3c a5aa 333c 8d75 433d
00000110: 0e8f 233d a0bb df3a 679e 60bb 16a1 95bc
00000120: d70d 093d 5515 863d f51c dc3c e50d abbd
00000130: 3038 9e3c 9a85 593c 2eed 0cbd 9709 6b3d
00000140: ca81 423d 397f 553d 9ede 3ebd e436 c73a
00000150: 2d1a b33c 8bbc 9e3a 7135 91bb 001b 88bc
00000160: 14a7 40bd 8d1c 8dbb fd81 123a 6da7 963c
00000170: 1394 353d b590 35bc b2f3 163c 52e4 163b
00000180: cc70 7b3c aaa9 92bd 8588 363c 8e39 9bbd
00000190: 3653 4c3d ecf7 babb db3d 91bd 8286 aabb
000001a0: a8fc f4bb 4119 483d 2e74 17bc 5be4 be3c
000001b0: d2aa 623d b317 863c 1e61 ad3b 59eb b13c
000001c0: e556 cb39 954c f23c 8921 9dbd b469 813c
000001d0: 4e12 febc 2751 493c 23e2 f13c 5122 943c
000001e0: e740 053d 79ad db3c 10d0 49bd 01f2 863a
000001f0: c0bb b93c c30e c9bd 6c8e fbbc 710e bfbc
00000200: 37d0 7a3d eb1b 5fbc c6c9 29bd 09dd 013d
00000210: a70b 3bbc 27b2 aebb 25c8 a3bc cf0c 973d
00000220: 2537 9fbc 5f5f 0c3c cfc8 aabc a115 0b3d
00000230: c80f 44bd d58a d3bc 37ef 16bc 7419 b03a
00000240: afca 413c e45a c5bc 388e b6bc 239a 6dbd
00000250: 21f3 823c 672b 823d bd5b 983c ab85 03bc
00000260: f56b 1bbb 305a 4abd dd04 9e3c 8d5b 983c
00000270: 785f a33d 8b3a 62bd 4618 493c 329a 4ebb
00000280: 34af 233b 1dcc b23c 57d7 fd3c 4f8d ba3c
00000290: 92d5 a13c 9828 85bd f3e1 42bc ee60 e9bb
000002a0: b810 81bd 7003 a03c b3bf b03b 1031 b2b9
000002b0: 0c41 f43b 9e9f 033d b729 a3bd 77e0 7cbc
000002c0: 60b4 3a3c b94d 3b3d fbd0 c6bc 5e77 1dbd
000002d0: ba1e ecbc c876 debc b56c c8bc ee32 613d
000002e0: ecc3 16bd 697f 81ba 0982 cc3c cf60 3c3b
000002f0: e1d1 08bc a6ad 913c fa63 d63c ceb9 153d
00000300: 6b05 5ebc f52e eb3c 1f72 c7bc 02ff cdbc
00000310: b7e3 d13c 40d2 ddbc ba97 013d 8149 8a3b
00000320: 66c9 25bc 5c91 82bd bba9 51bd b5f1 95bd
00000330: 843c 62bc a325 00bc e0d3 4ebd 6b79 1c3d
00000340: 5674 3b3c c8e9 13b6 564a 04bd 0837 2b3d
00000350: cde8 a73b 4eca bd3b 91fd b9bc b500 d33b
00000360: 7ba3 db3b bfbd d93c 89ac 2fbc c93b 283d
00000370: f4f5 493b 2bda 0ebb 8b43 12bd 5c10 09bd
00000380: 8ab5 6b3c 0999 fa3b 9468 8bbc 6247 99bc
00000390: 54ee 1a3d 1f9d 12bd a872 45ba c4a9 c0bc
000003a0: b0b7 54bd 495d d9ba 525c c83c fc48 5b3d
000003b0: aefd 4abd 8fed bebd df26 23bd baa4 06bd
000003c0: a3bb feba 2940 a2bc 35e2 69bd 6f58 ccbc
000003d0: 7125 ae3c fc5c 393b 115f 04bc e29e 0abd
000003e0: 7ec2 fd3b f7e0 173d 6072 16bd 6cc3 fb3b
000003f0: 5faf 713c 0458 193d bfb6 6abc 863a 73bc
