emb_cache_v2/b205701ea7992316552e87915f4db73d.npz (npz, 45744 bytes, 1 tensors)

vectors f4 [13, 768]
0.043333504 0.0005969629 0.0058930065 0.058276214 -0.046042178 -0.058480732 0.035417892 -0.037957158
0.010725163 0.022005422 0.011525339 -0.01969134 0.012075745 0.019058209 -0.019125119 0.031674594
-0.014505369 0.001223054 -0.008420794 0.030398753 0.0016729769 0.029546378 -0.0171387 0.016092138
0.028450979 0.06717392 0.01833016 0.017020736 -0.04799879 -0.08310154 0.012588929 0.004297623
0.0783772 -0.0010919314 -0.0027836573 -0.05952322 -0.00031054957 -0.010825821 0.0011509039 0.050413344
-0.024865376 0.04959815 0.0014385326 -0.011123346 -0.03336407 0.0032403793 0.023677785 0.03478171
-0.04267327 0.030626548 0.04302074 -0.044349346 0.006021381 -0.02907933 0.012842567 -0.013040646
-0.023656016 0.010813872 0.042365022 0.0028170897 -0.028980482 0.011655487 -0.012211491 -0.04981018
-0.020957205 -0.006596728 -0.0386014 0.05578396 0.07046461 -0.011130775 0.049117807 -0.0034950764
0.0059118154 0.00941503 0.029352142 -0.030089563 0.04906376 0.030109946 -0.012764146 0.03700122
0.06070237 0.04614968 -0.05587068 -0.039661713 0.029248266 0.0033110126 -0.0021727418 -0.012329009
0.012728347 -0.03425471 0.057712592 -0.009789926 0.035069812 -0.0009878445 -0.0057410207 0.029225362
0.011614118 -0.012250362 -0.008625388 -0.044436008 0.085649356 -0.003170794 -0.038792036 0.0087921405
-0.018929278 0.0718403 0.03444485 0.03305902 0.0077624125 0.035613336 0.034411043 0.0090139145
0.015847815 -0.011154259 -0.11243641 0.011517231 -0.077983424 -0.016089931 -0.0018747547 0.03598608
0.016522175 0.033900846 -0.010269169 -0.008057317 0.03730486 -0.097478844 -0.010977236 0.0083517935
0.034835104 -0.04884645 0.002536656 0.060642503 -0.0032225263 -0.02687178 -0.03666532 0.035899736
-0.021873677 -0.008662329 -0.09532864 -0.0120142605 -0.035435542 0.0045398315 -0.023756774 0.005593972
0.025611734 -0.071741395 -0.03576143 -0.03261828 -0.007508418 0.051168174 -0.003630363 0.0048979144
-0.00072878134 -0.019354569 0.040602352 0.018024728 0.031516645 0.031113971 -0.015323684 -0.046937034
0.026945952 -0.0027702672 0.0035783867 0.001839248 0.0027817946 -0.042343106 0.010381407 -0.011832692
-0.08636469 0.020793794 0.0018958764 -0.00027655697 -0.009887014 -0.0027097291 -0.0132590085 0.04021933
-0.0049713687 -0.025995933 -0.010631602 0.029148543 0.045405235 0.0454194 -0.010777453 0.0028446584
-0.06295784 -0.0010654095 -0.075634904 -0.013948674 -0.022874685 -0.03770347 -0.0032332765 0.009665383
-0.035347097 0.021589395 -0.015299393 -0.026402114 0.041836973 -0.016027348 0.009135826 0.021644598
0.0023019384 -0.0053692507 -0.014050846 -0.072491966 -0.007686777 -0.0025235927 0.01268322 0.022017153
-0.07894356 0.035260834 -0.026116544 0.008238792 -0.024070945 0.048010282 -0.038120814 -0.028073788
0.012971544 -0.04069307 0.00471602 0.01707702 0.024155675 0.0078921635 -0.02188586 0.0056179864
-0.008222455 -0.009022414 -0.002263774 -0.009773853 0.015252955 -0.014835318 -0.010140757 -0.0024445853
-0.018451132 0.034475178 0.012232921 0.07428457 0.026357308 -0.012980104 -0.028624255 -0.0022898654
-0.016227245 -0.021024097 -0.051509008 0.002601054 -0.05403949 0.01217485 -0.019260325 -0.013840818
0.0309292 0.028391937 -0.06528895 -0.03612707 -0.011047211 0.030434 -0.020144807 -0.00033859935
00000000: 797e 313d 817d 1c3a 1f1a c13b 0ab3 6e3d
00000010: b996 3cbd 7e89 6fbd 5a12 113d f778 1bbd
00000020: 98b8 2f3c b744 b43c c7d4 3c3c bc4f a1bc
00000030: 58d9 453c f61f 9c3c 48ac 9cbc 38bd 013d
00000040: eda7 6dbc e24e a03a 5ff7 09bc ce06 f93c
00000050: ca47 db3a 3f0b f23c 7566 8cbc a9d3 833c
00000060: 0712 e93c 7b92 893d 2229 963c 126f 8b3c
00000070: 619a 44bd 2431 aabd cc41 4e3c 13d3 8c3b
00000080: 3a84 a03d 231f 8fba 056e 36bb 9fce 73bd
00000090: 42d1 a2b9 c95e 31bc edd9 963a 397e 4e3d
000000a0: 79b2 cbbc 6e27 4b3d 258d bc3a b23e 36bc
000000b0: c3a8 08bd 8b5c 543b eaf7 c13c 4477 0e3d
000000c0: 2bca 2ebd 87e4 fa3c 8436 303d a9a7 35bd
000000d0: 014f c53b c637 eebc a169 523c 6fa8 55bc
000000e0: 43ca c1bc ab2c 313c f286 2d3d ec9e 383b
000000f0: 7a68 edbc a8f6 3e3c b512 48bc c205 4cbd
00000100: 72ae abbc 5e29 d8bb 801c 1ebd b97d 643d
00000110: c04f 903d db5d 36bc c12f 493d a70d 65bb
00000120: e7b7 c13b 7f41 1a3c e773 f03c 637e f6bc
00000130: 15f7 483d 22a9 f63c b520 51bc 978e 173d
00000140: 0ca3 783d 7207 3d3d a7d8 64bd 5274 22bd
00000150: 0f9a ef3c 93fd 583b 8f64 0ebb 9dff 49bc
00000160: 8f8a 503c ab4e 0cbd 0a64 6c3d ed65 20bc
00000170: 5da5 0f3d 907a 81ba 2c1f bcbb 076a ef3c
00000180: 2449 3e3c beb5 48bc 8051 0dbc 8802 36bd
00000190: ee68 af3d 19cd 4fbb 66e4 1ebd e90c 103c
000001a0: 9311 9bbc 0221 933d 0b16 0d3d e568 073d
000001b0: d65b fe3b 4adf 113d 98f2 0c3d 19af 133c
000001c0: 47d3 813c 5ac0 36bc 0f45 e6bd c5b2 3c3c
000001d0: c6b5 9fbd 08cf 83bc 54ba f5ba 2466 133d
000001e0: 8359 873c 9ddb 0a3d 0440 28bc d602 04bc
000001f0: fbcc 183d fda2 c7bd ddd9 33bc f6d5 083c
00000200: 41af 0e3d 3713 48bd 073e 263b 4664 783d
00000210: 0531 53bb 3522 dcbc 602e 16bd 9a0b 133d
00000220: 6d30 b3bc 71ec 0dbc a93b c3bd 76d7 44bc
00000230: dc24 11bd dec2 943b 919d c2bc a34d b73b
00000240: b3cf d13c 27ed 92bd 947a 12bd bf9a 05bd
00000250: 2d09 f6bb b895 513d 62eb 6dbb af7e a03b
00000260: b00b 3fba 798d 9ebc a74e 263d 98a8 933c
00000270: 9917 013d bae2 fe3c 3010 7bbc 0c41 40bd
00000280: c2bd dc3c 5f8d 35bb 5e83 6a3b ec12 f13a
00000290: c54e 363b f76f 2dbd c716 2a3c e8dd 41bc
000002a0: f8df b0bd bf57 aa3c 0e7f f83a d9fe 90b9
000002b0: 24fd 21bc b695 31bb 503c 59bc 06bd 243d
000002c0: dde6 a2bb 6cf5 d4bc 2c30 2ebc edc8 ee3c
000002d0: d7fa 393d b109 3a3d ea93 30bc 736d 3a3b
000002e0: 0af0 80bd 36a5 8bba 79e6 9abd fb88 64bc
000002f0: b163 bbbc f46e 1abd 61e5 53bb 8e5b 1e3c
00000300: 1ec8 10bd 3edc b03c 4eaa 7abc 3f49 d8bc
00000310: 3f5d 2b3d c94b 83bc 6eae 153c 0350 b13c
00000320: 1edc 163b 8af0 afbb 8535 66bc ab76 94bd
00000330: 5ce1 fbbb dc62 25bb 48cd 4f3c 515d b43c
00000340: 29ad a1bd aa6d 103d 5df2 d5bc 00fc 063c
00000350: 6e30 c5bc 6ea6 443d 9224 1cbd 00fb e5bc
00000360: 9986 543c c7ad 26bd d888 9a3b 1be5 8b3c
00000370: 1fe2 c53c 224e 013c fa49 b3bc 1617 b83b
00000380: 7ab7 06bc bfd2 13bc d35b 14bb 8322 20bc
00000390: 88e7 793c d50f 73bc 6b25 26bc 5635 20bb
000003a0: d426 97bc d835 0d3d 976c 483c 8222 983d
000003b0: 48eb d73c 81aa 54bc 6a7d eabc 9111 16bb
000003c0: 00ef 84bc ba3a acbc 1cfb 52bd 7276 2a3b
000003d0: 8358 5dbd 0679 473c d4c7 9dbc 99c4 62bc
000003e0: 3c5f fd3c 3596 e83c 37b6 85bd fbf9 13bd
000003f0: 5cff 34bc b950 f93c b906 a5bc 0986 b1b9
