emb_cache_v2/b258c665b814d400a52bfe6f77cd8cfa.npz (npz, 290849 bytes, 1 tensors)

vectors f4 [85, 768]
0.012061873 0.037507556 0.016850112 0.0818409 -0.042549208 -0.03929866 0.024247453 -0.019618843
-0.043158233 -0.02300465 -0.024412753 0.012167893 0.014460201 0.025743987 0.008142424 0.06323031
-0.019116327 -0.011879937 -0.011400135 0.019505633 -0.016169887 0.03585053 -0.0622095 0.028440088
0.04823829 0.06501177 0.012032568 0.0347883 -0.020530405 -0.041485023 0.06029495 0.020048669
0.060295314 0.026527708 0.0010807188 -0.014738406 0.012829888 -0.03310926 0.004190139 0.036901258
0.021201469 0.033629026 -0.023339454 -0.03663964 -0.014836916 -0.051129114 0.0012182166 0.01821453
-0.012205734 0.109801136 0.02137111 -0.039111532 0.034219768 -0.0051814676 0.0027818556 -0.04685415
-0.032578282 0.00074251735 0.037824277 -0.015221076 -0.019106086 -0.043872993 0.008280301 -0.015610397
-0.05673871 0.02479149 -0.01882382 0.07156352 0.03967315 0.0061672516 0.06872807 -0.02119443
0.0089194 0.03429457 0.016580721 -0.03932074 0.026733855 -0.004640314 -0.0049399813 0.07076946
0.046936285 0.06382167 -0.05678097 0.027485829 0.0010882494 0.019751498 -0.0017076271 -0.024575122
-0.017991036 -0.044686235 0.09957708 -0.017519955 0.0010722863 0.011406754 -0.0018591974 -0.0015781124
0.03315455 -0.047736447 -0.007942963 -0.08151362 0.027981602 0.030723387 -0.04755946 0.0018273321
-0.029124046 0.06728992 -0.004383955 0.046405822 0.033110708 0.039862666 0.05180487 -0.006697236
0.014638162 0.04187107 -0.09016475 0.02398937 -0.05352132 -0.019786341 -0.008503999 -0.008044057
0.03247702 0.044278648 -0.026305629 -0.014225034 -0.0041924366 -0.09503177 -0.038992107 0.011042631
0.07998209 0.0064154635 -0.02545345 0.05416171 0.03421289 -0.012435867 -0.044544756 0.061189562
-0.0048049865 -0.020539502 -0.022831494 -0.0028198126 -0.020810518 -0.03883846 -0.0144917825 0.021182947
0.015650874 -0.052252978 -0.040893238 -0.089263365 -0.0033786357 0.008476774 -0.012967964 -0.02243348
-0.030944923 -0.012016219 0.031229958 0.029149596 0.0077592866 -0.033680502 -0.008124827 -0.08821136
0.008416207 0.01209835 0.026583184 -0.0018577308 0.012836359 -0.04008188 -0.025968006 0.010744333
-0.13158768 0.032304335 0.03293718 -0.009240202 -0.011115173 0.017002933 -0.05142523 0.01711032
-0.04567083 -0.0108880205 -0.04437476 -0.0035607535 0.0036009378 0.048738047 0.041537356 -0.04244043
-0.027771916 -0.0009412249 0.02047897 -0.04070229 0.022087917 -0.023670536 -0.005434647 0.04600744
-0.039952196 0.002599026 0.020016767 -0.04866681 0.059085928 -0.04741288 0.025860818 0.01737291
-0.045684654 -0.05982099 0.028604338 -0.08024795 -0.029579548 0.012438102 -0.009915736 0.020024078
0.015494286 0.042824063 -0.012017141 0.030247157 -0.050888516 0.034629926 -0.026124733 -0.0033988312
0.011216575 -0.021827694 -0.05399879 0.03824894 0.021326685 0.020094898 -0.06071249 -0.0071660797
0.043211013 0.03984762 -0.0048473757 0.0015718964 0.0038424537 -0.009185892 -0.012043763 -0.007910048
-0.043586683 0.019877087 0.02750533 0.029114386 0.040404078 0.013906589 -0.004866779 0.038598254
-0.048817296 -0.024751512 -0.02088079 0.0011558236 0.00890062 0.039020736 0.040972132 -0.023076547
-0.010220401 0.017925156 0.0002876549 -0.017367983 0.028152764 0.030494852 -0.005579599 0.020595817
00000000: 2a9f 453c 86a1 193d 3f09 8a3c 349c a73d
00000010: 1448 2ebd a2f7 20bd 98a2 c63c b2b7 a0bc
00000020: b0c6 30bd 3f74 bcbc 41fd c7bc d85b 473c
00000030: 7bea 6c3c 0ee5 d23c cd67 053c e57e 813d
00000040: d899 9cbc 11a4 42bc a2c7 3abc 47ca 9f3c
00000050: b676 84bc 01d8 123d 64cf 7ebd 30fb e83c
00000060: 8395 453d e424 853d 4024 453c 2d7e 0e3d
00000070: 612f a8bc 33ec 29bd d6f7 763d 1b3d a43c
00000080: 38f8 763d a350 d93c e8a6 8d3a 5b79 71bc
00000090: 7334 523c 939d 07bd 6f4d 893b c625 173d
000000a0: b4ae ad3c 97be 093d 6232 bfbc 7213 16bd
000000b0: 8916 73bc c36c 51bd 91ac 9f3a a336 953c
000000c0: 8ffa 47bc 6bdf e03d 7712 af3c 6a33 20bd
000000d0: 072a 0c3d 4dc9 a9bb cb4f 363b 23ea 3fbd
000000e0: ce70 05bd 7fa5 423a a1ed 1a3d d261 79bc
000000f0: 5e84 9cbc 2bb4 33bd 19aa 073c c0c2 7fbc
00000100: d966 68bd 8617 cb3c 6934 9abc e58f 923d
00000110: 5080 223d a816 ca3b 4dc1 8c3d f19f adbc
00000120: ad22 123c 7778 0c3d 4bd4 873c c90e 21bd
00000130: f500 db3c c60d 98bb 91df a1bb 94ef 903d
00000140: 4340 403d f0b4 823d 2a93 68bd f629 e13c
00000150: 97a3 8e3a e5cd a13c 75d2 dfba c451 c9bc
00000160: f061 93bc ea08 37bd 11ef cb3d 0286 8fbc
00000170: f58b 8c3a 65e3 3a3c 50b0 f3ba aad8 ceba
00000180: 11cd 073d 4b87 43bd 3423 02bc 9df0 a6bd
00000190: ac39 e53c 9daf fb3c b5cd 42bd 1783 ef3a
000001a0: 8d95 eebc 4ccf 893d 48a7 8fbb 0814 3e3d
000001b0: 189f 073d 0947 233d 5831 543d 7d74 dbbb
000001c0: e7d4 6f3c 0081 2b3d 4ca8 b8bd 5b85 c43c
000001d0: 2c39 5bbd f716 a2bc 5b54 0bbc 38cb 03bc
000001e0: a006 053d 875d 353d e77e d7bc 1e10 69bc
000001f0: b560 89bb 04a0 c2bd 30b6 1fbd 27ec 343c
00000200: a6cd a33d cf38 d23b c183 d0bc abd8 5d3d
00000210: d122 0c3d cfbf 4bbc 9074 36bd e8a1 7a3d
00000220: 2673 9dbb 7542 a8bc 1d09 bbbc 9bcc 38bb
00000230: d27a aabc 1415 1fbd f16e 6dbc dc87 ad3c
00000240: 4336 803c 3807 56bd ab7f 27bd b6cf b6bd
00000250: 1a6c 5dbb 2be2 0a3c 9577 54bc 6bc6 b7bc
00000260: 3580 fdbc addf 44bc f8d5 ff3c 22cb ee3c
00000270: 9d41 fe3b 91f4 09bd ff1d 05bc 28a8 b4bd
00000280: 21e4 093c 2838 463c fac4 d93c 1a7f f3ba
00000290: 984f 523c e62c 24bd dbba d4bc 0009 303c
000002a0: ecbe 06be 8d51 043d 23e9 063d 3764 17bc
000002b0: 6a1c 36bc bc49 8b3c 43a3 52bd f12a 8c3c
000002c0: 5611 3bbd ab63 32bc 4fc2 35bd 885b 69bb
000002d0: b6fd 6b3b 8ca1 473d 1323 2a3d 04d6 2dbd
000002e0: ee81 e3bc 89bc 76ba 83c3 a73c 72b7 26bd
000002f0: b8f1 b43c b6e8 c1bc 2015 b2bb 4c72 3c3d
00000300: eaa4 23bd 6c54 2a3b 34fa a33c d956 47bd
00000310: 1604 723d 0234 42bd 11da d33c a251 8e3c
00000320: d51f 3bbd db06 75bd a553 ea3c 0a59 a4bd
00000330: cf50 f2bc 2ec9 4b3c 9c75 22bc 8909 a43c
00000340: bfdb 7d3c 4968 2f3d 8be3 44bc e3c8 f73c
00000350: 7a70 50bd 1cd8 0d3d 8903 d6bc edbe 5ebb
00000360: bac5 373c fecf b2bc d62d 5dbd ecaa 1c3d
00000370: 4db5 ae3c 0e9e a43c a9ad 78bd 6fd1 eabb
00000380: 08fe 303d 4237 233d bcd6 9ebb 1708 ce3a
00000390: add1 7b3b 6c80 16bc 3453 45bc 2599 01bc
000003a0: f387 32bd 46d5 a23c dc52 e13c 4b81 ee3c
000003b0: bf7e 253d 76d8 633c 8079 9fbb 3419 1e3d
000003c0: a5f4 47bd afc3 cabc 310e abbc 017f 973a
000003d0: e8d3 113c 35d4 1f3d 65d2 273d 070b bdbc
000003e0: 7873 27bc c7d7 923c 63d0 9639 4d47 8ebc
000003f0: a0a0 e63c 57d0 f93c 12d5 b6bb 8fb8 a83c
