emb_cache_v2/b2838d8de42368c703607354f031b4bd.npz (npz, 56778 bytes, 1 tensors)

vectors f4 [16, 768]
000000 00 82 97 3c 02 dc ae bc 77 58 19 bc 0a aa 82 3d
       0.018494606 -0.021345142 -0.009359471 0.063800886
000010 cb 95 08 bd 45 99 2e bd c5 74 9d 3c d5 59 49 bc
       -0.03334598 -0.042626638 0.01922072 -0.012289484
000020 62 cd d9 3c d8 d2 2f 3b 8d cc 43 3d 43 d3 9d bc
       0.026587192 0.0026828554 0.047802497 -0.019265777
000030 74 2e 4e 3c 0c 88 e3 bc 3e 89 f6 bb 26 cd c2 bb
       0.0125843175 -0.027774833 -0.0075236848 -0.0059448658
000040 27 a0 c2 bc f2 34 df 3c df 70 cb 3c 16 20 52 3d
       -0.023758007 0.027246926 0.024834095 0.05130013
000050 a6 d4 96 bc c6 0b de ba 9e 17 c5 bc 76 7a 1c 3c
       -0.018411946 -0.0016940765 -0.024059113 0.009550681
000060 ba 46 81 3c 86 2c 46 3d 17 4d 59 ba 3d b6 10 3d
       0.015780795 0.048382305 -0.00082893803 0.035330046
000070 dd 8f 8f bd 13 be d6 bd dc c8 a9 3b 96 d8 e6 bb
       -0.070098616 -0.104854725 0.005181415 -0.007044862
000080 b1 59 b4 3d 30 4e 3a bd e2 a8 a6 bb b8 b4 98 bd
       0.0880617 -0.04548472 -0.0050860504 -0.07456344
000090 41 de 98 3c a3 2e ae bc 09 71 51 3c f3 b5 68 3d
       0.018660666 -0.021262472 0.012783297 0.056814145
0000a0 f3 7f 70 bc 1f 12 be 3c 0b d5 0f bd 76 c7 6a bc
       -0.014678943 0.023202 -0.035115283 -0.014329782
0000b0 1a 62 ef bc d5 e8 ba 3c 9b e0 19 3c d9 4f 05 3d
       -0.029221583 0.022816101 0.009391929 0.03254685
0000c0 9c 36 9c bc 72 da 3b 3d 46 3f ea 3c 51 3f a5 b9
       -0.019069009 0.045862623 0.028594624 -0.00031518427
0000d0 51 c0 26 3d f4 66 d3 bc 2e e3 b6 3d 93 a8 be bb
       0.04071075 -0.025805928 0.0893005 -0.0058184355
0000e0 5b ea ad bc fe 0a 62 3d cd f5 8d 3d b3 a6 45 bd
       -0.021229913 0.055186264 0.069316484 -0.04825468
0000f0 56 5b ba 3b d3 06 af bc 90 f3 09 bc 1b aa a0 bc
       0.0056871576 -0.021365559 -0.008419886 -0.019612363
000100 a8 46 a7 bd 7b 7d 06 bc f6 06 02 bc db 34 83 3d
       -0.081677735 -0.008208628 -0.00793623 0.06406566
000110 c0 eb c8 3c 04 b0 91 3b a9 45 8c 3b 13 27 b8 bc
       0.024526477 0.0044460315 0.004280765 -0.02247957
000120 04 96 8b 3c ac 06 96 3c b0 74 38 3d 13 70 b4 bc
       0.017039306 0.018313728 0.045033157 -0.022026097
000130 af 2e d9 3c 3e e3 c6 3c 7b 3c b8 bc db 8f 6b 3d
       0.026511518 0.02427828 -0.022489777 0.05751024
000140 d6 d0 e1 3d a7 fd 38 3d a6 6f 8f bd 5e 40 ed bc
       0.110261604 0.045163777 -0.07003717 -0.028961357
000150 12 45 e7 bb d6 8a 24 3d 54 0a cb bb 6d 41 63 bc
       -0.0070577944 0.040171467 -0.0061962996 -0.013870579
000160 de 61 82 bc b4 a2 3e bd a5 ca bb 3d d7 f2 09 3c
       -0.015915807 -0.046541885 0.09169511 0.008419714
000170 66 b1 36 3d 08 94 e6 bb 81 c3 fc 3c 29 57 84 3b
       0.044602774 -0.0070366897 0.030854942 0.0040387106
000180 ca cd 07 3d a5 5b 1d bd 17 e3 2d 3c 7b cc 86 bd
       0.03315524 -0.038417477 0.0106132245 -0.0658197
000190 42 a0 5a 3d 61 b2 94 3c 2f d4 ec bc 49 6b 5d bb
       0.05337549 0.018151464 -0.02890977 -0.003378587
0001a0 70 ed 00 bd 0b 08 a7 3d d4 87 19 3c 46 99 c0 3b
       -0.031476438 0.08155831 0.009370763 0.0058776466
0001b0 13 49 ed 3c df 22 10 3d cc 1d 7d 3d 71 f5 08 3d
       0.028965509 0.035189506 0.061795995 0.033437196
0001c0 5e b8 43 3c cf a7 4f 3c 23 c9 d9 bd 98 ef 78 3d
       0.011945812 0.012674286 -0.10634067 0.06077537
0001d0 fe a6 3f bd 3d e8 c7 3c 33 e1 db 3b 4b 8f df 3a
       -0.046790116 0.024402732 0.0067101954 0.0017056254
0001e0 46 6e c0 3c 96 c1 ad 3c 61 46 25 bd 7f 95 4f 3b
       0.023490082 0.021210473 -0.04035032 0.00316748
0001f0 75 28 74 3c 0f b5 c5 bd 38 fe 0a bd d0 10 d2 3b
       0.014902224 -0.09653675 -0.03393385 0.0064106956
000200 5f 90 2e 3d 63 41 59 bd c0 0b 9f 39 f7 b7 32 3d
       0.04261815 -0.053040873 0.00030335598 0.043632474
000210 e9 cf d2 bb cb 29 87 bc 6c 79 1f bc a3 b5 a1 3d
       -0.006433476 -0.01649942 -0.009733539 0.078959726
000220 99 48 38 bb 35 5e e6 bb 3c 3a 03 bd ac 1f 38 3d
       -0.0028119443 -0.0070302733 -0.03203796 0.04495208
000230 3c e1 11 bd 88 61 10 bb a2 d0 3b 3c d4 40 08 3c
       -0.03561519 -0.002203079 0.011463316 0.0083162375
000240 78 35 0a 3d d4 ce 69 bd 4d b5 fd bb 70 fd 00 bd
       0.033742398 -0.057082012 -0.00774256 -0.031491697
000250 c6 83 8d 3b 14 5d 8f 3c a9 3d 1a 3d 4b bb 13 bc
       0.004318687 0.017500438 0.03765646 -0.009016822
000260 0f ab a3 3b 78 c0 b8 bc 6d fb 90 3c d9 02 14 3d
       0.004994757 -0.022552714 0.017698014 0.03613553
000270 6a b3 70 3d 45 61 96 bc 8f aa 22 ba a0 42 0d bd
       0.058764853 -0.018356929 -0.0006205225 -0.034487367
000280 fe c6 cc 3c 0d ae 2f bc 37 6b 93 3d be 9b de bb
       0.02499723 -0.010722649 0.07198184 -0.0067934683
000290 57 66 ff 3c 7a cd 7a bc 8f a5 5d 3c a1 38 40 bb
       0.03117673 -0.0153077785 0.013528242 -0.0029330628
0002a0 52 3c d2 bd db bd e0 3c b9 7c bb bc ad b4 b7 ba
       -0.102654114 0.02743428 -0.02288662 -0.0014015638
0002b0 73 e1 c3 b9 ca 89 48 3c 85 64 10 bd f7 16 cc 3c
       -0.0003736127 0.012239883 -0.035252113 0.024913294
0002c0 b3 1a bb bc 5b db e3 bc 9f 26 10 bd 0f 2b b5 3b
       -0.02283988 -0.027814558 -0.035193082 0.0055288146
0002d0 40 53 14 3c df 31 bb 3c 29 e3 93 3c 56 36 d6 bc
       0.0090530515 0.022850929 0.018052654 -0.026148956
0002e0 59 af 16 bd 68 98 9e 3c f5 ab 07 bb 4b ac 05 bd
       -0.03678832 0.019359782 -0.002070186 -0.032635015
0002f0 13 62 81 bc c8 fa 61 bd 9c a4 95 3c 8c b3 59 3c
       -0.015793836 -0.055170804 0.018266968 0.013287436
000300 7b c5 34 bd 4f 39 83 bb 3e 1a 89 bb 26 8d 8e bc
       -0.044133645 -0.0040046345 -0.0041840365 -0.01740129
000310 15 8e 71 3d e2 18 fa 3b 47 ad 22 3c d6 e7 8b ba
       0.05897339 0.007632361 0.009929008 -0.0010673951
000320 dc 6f f9 3b 1e 70 6b bd 11 1f 1f 3c 01 df d1 bd
       0.0076122116 -0.05747997 0.009711997 -0.10247613
000330 f3 3e e8 bb 7f 92 ce 3c 6f cd 52 bb 07 3d ab 3c
       -0.0070875823 0.02521634 -0.0032165905 0.020903124
000340 2a 06 a0 bc df 99 4c 3c 0f 03 87 bd 17 7a 8e 3c
       -0.01953419 0.012487858 -0.0659238 0.017392201
000350 01 15 ce bb bc 4d 1d 3d bf 67 15 bd b2 05 55 3c
       -0.006289125 0.03840421 -0.036475893 0.013001846
000360 06 b0 2d 3c c3 7d e6 bc bb 69 06 bd 59 ea c6 3c
       0.010601049 -0.02813614 -0.032815676 0.024281668
000370 1a 9c e1 39 a2 b0 19 3c 0e 92 ee 3b 61 c0 a9 bc
       0.0004303165 0.009380491 0.0072805947 -0.020721616
000380 c3 82 d6 3b 03 53 15 3c 83 10 00 bd a7 b5 50 3c
       0.0065463497 0.00911403 -0.031265747 0.012738622
000390 53 1b 20 3d 6e 93 19 bd b9 14 8a 3c 7b 73 e9 bc
       0.03908856 -0.037494116 0.016855584 -0.028497448
0003a0 f8 c0 84 bc 40 55 b6 3c 54 08 93 3c 84 98 5e 3d
       -0.016205296 0.022257447 0.017948307 0.05434467
0003b0 03 11 73 3c 7a ec d5 bc 57 ca 7e bc 9f 0f 12 bd
       0.014835599 -0.026113737 -0.015551171 -0.03565943
0003c0 68 e4 31 3d e9 34 91 bd ff 1c 88 bd e5 b2 6b bb
       0.043430716 -0.0709017 -0.066461556 -0.0035964784
0003d0 47 ac c3 bc b3 cc b6 3c bc ff 14 3c 4c 82 9a bc
       -0.02388586 0.022314405 0.009094175 -0.018860959
0003e0 04 ec 73 3c b4 ae 19 3d 7e 1e ce bb ae 89 f2 bc
       0.0148878135 0.037520126 -0.006290256 -0.029606666
0003f0 82 35 e9 3b 33 f7 e8 3c 2b 15 3e bd 48 fe 47 3d
       0.0071169743 0.028438186 -0.046406906 0.048826486
