emb_cache_v2/b2ac81c315bf678590a842e3f35b16ca.npz (npz, 219548 bytes, 1 tensors)

vectors f4 [66, 768]
0	0x3c7d47dc	0.015459027
1	0x3d1813c2	0.037128218
2	0xbc0b0ede	-0.008487431
3	0x3cbd18aa	0.02308305
4	0xbd17f637	-0.037100043
5	0xbd0cbee5	-0.03436174
6	0x3c57065e	0.013124077
7	0xbcbf9f56	-0.023391407
8	0x39fe1038	0.0004845874
9	0xbc367aab	-0.011137645
10	0xbb191dae	-0.0023363638
11	0xbd698e7c	-0.05702065
12	0x3d07b267	0.033129122
13	0x3bb8281f	0.005620017
14	0xbd349a6a	-0.044092573
15	0x3d348b02	0.04407788
16	0x3c2ae10b	0.010429631
17	0x3cc1be70	0.023650378
18	0xbccf2b04	-0.025289066
19	0x3d2d339a	0.04228554
20	0xbc8dcf8b	-0.017310878
21	0x3b4475c9	0.0029977432
22	0xbbde8c27	-0.00679161
23	0x3d16a946	0.036782525
24	0x3af055af	0.0018336083
25	0x3d8a277c	0.06745812
26	0x3c892e4c	0.016745709
27	0x3bf95ee7	0.00761019
28	0xbda07b26	-0.07835989
29	0xbdbe2cb8	-0.09285873
30	0x3cd35a00	0.025799751
31	0x3ca02524	0.01954896
32	0x3d620fc6	0.055190824
33	0x3ba83dc5	0.0051343166
34	0xbb12d253	-0.0022403195
35	0xbd43228c	-0.04764037
36	0x3c5b6c91	0.0133925835
37	0xbcee3e26	-0.029082369
38	0xbd3788c8	-0.04480818
39	0x3d1b6b60	0.037944198
40	0xbc0f2eeb	-0.008739213
41	0x3ca41d65	0.020033548
42	0xbd4b011f	-0.049561616
43	0xbae46e33	-0.0017427861
44	0xbc3d61c8	-0.011558957
45	0xbaa8118f	-0.0012822616
46	0x3b4d6de8	0.0031346027
47	0x3d1ff5ac	0.03905265
48	0xbc680069	-0.014160254
49	0x3d210290	0.039309084
50	0x3ce557dd	0.027995998
51	0xbcdea461	-0.027177991
52	0x3c369a25	0.011145149
53	0xbc6bf849	-0.0144024575
54	0x3d95a220	0.073063135
55	0xbc8b89d3	-0.017033493
56	0xbd12b160	-0.03581369
57	0x3d6bcd8c	0.05756907
58	0x3d8506b8	0.06495422
59	0xbcacab19	-0.02107768
60	0x3b08f96d	0.0020900622
61	0xbc151788	-0.009099849
62	0xb842cd83	-4.6444602e-05
63	0x3c4b23d0	0.012398675
64	0xbd55c2ec	-0.052187845
65	0xbc252744	-0.010080162
66	0x3b93af6e	0.004506997
67	0x3d463e41	0.048399214
68	0x3cff0330	0.03112945
69	0xbc3a5cbc	-0.011374649
70	0x3da48cd2	0.08034672
71	0x3c29951a	0.01035049
72	0x3bfe6929	0.007764001
73	0x3d1aab41	0.037760977
74	0x3d14328f	0.03618103
75	0xbd443866	-0.04790535
76	0x3c24b8ca	0.010053823
77	0x3cc49bb2	0.024000023
78	0xbc3cb601	-0.0115180025
79	0x3d0d527c	0.03450249
80	0x3d7df9ae	0.06200569
81	0x3d26534b	0.040606778
82	0xbd9a335f	-0.075293295
83	0xbcb6f550	-0.022333771
84	0x3cb49e0c	0.022048019
85	0x3d4a9a71	0.049463693
86	0xbc87e9a5	-0.016590903
87	0xbc04f2c0	-0.008114517
88	0xbd6c7195	-0.057725508
89	0xba1d8759	-0.0006009243
90	0x3de69dad	0.11260543
91	0xbd301024	-0.042984143
92	0x3c63c2d7	0.013901434
93	0xbb7dce2e	-0.003872763
94	0x3c56c351	0.0131080905
95	0x3b90a54f	0.0044142376
96	0x3d34d460	0.04414785
97	0xbceeeaec	-0.029164754
98	0x3c6162ab	0.013756434
99	0xbd96513e	-0.073397145
100	0x3d47b798	0.048759073
101	0x3c9b5dca	0.01896562
102	0xbcea6b96	-0.028615754
103	0xbc42d700	-0.01189208
104	0x3c0ce933	0.008600521
105	0x3d79d664	0.060995474
106	0xbcbc9627	-0.023020817
107	0x3cdf9ff7	0.027297957
108	0x3d12bd88	0.035825282
109	0x3d47d733	0.048789214
110	0x3cf0d19e	0.029396828
111	0x3cd309ce	0.025761511
112	0x3cef82ca	0.02923717
113	0x3bad490a	0.005288248
114	0xbdda6eec	-0.10665688
115	0x3d603cdc	0.05474554
116	0xbd962e9a	-0.07333107
117	0x3c91ba83	0.017789131
118	0x3ba8d91f	0.005152836
119	0xba92f948	-0.0011213208
120	0x3d4a0fe9	0.04933158
121	0xbab8b070	-0.0014090668
122	0xbd287bf4	-0.041133836
123	0x3bd663e6	0.0065426705
124	0xbc9d8228	-0.019227102
125	0xbe17cf72	-0.14825228
126	0xbca5181b	-0.020153096
127	0xbb6d60b4	-0.003622097
128	0x3d37a892	0.044838496
129	0xbd17200f	-0.036895808
130	0xbc444c38	-0.011981063
131	0x3d176b3f	0.036967512
132	0xbcb58832	-0.02215967
133	0xbc6399e1	-0.013891668
134	0xbcc8d7a0	-0.02451688
135	0x3da46292	0.08026613
136	0xbcbee86e	-0.02330419
137	0x3c4878db	0.012235845
138	0xbd249882	-0.040184505
139	0x3cb0e577	0.021593792
140	0xbd1a244e	-0.03763228
141	0x3bac8cf9	0.0052658287
142	0xbb96e621	-0.00460507
143	0x3bf04095	0.0073319175
144	0xbc31afbc	-0.010845121
145	0xbd66bbb9	-0.05633137
146	0xbcda58bd	-0.026653642
147	0xbd6058f7	-0.054772343
148	0x3c3f52d3	0.011677462
149	0x3d1369cd	0.03598957
150	0x3b0f9135	0.0021906618
151	0xbc0ccc24	-0.008593593
152	0xbd1107cc	-0.035407826
153	0xbce96980	-0.02849269
154	0x3d055ec8	0.032561094
155	0x3d0bebd5	0.034160454
156	0x3cdb7921	0.026791157
157	0xbcf3c983	-0.029759174
158	0xbb03bdd7	-0.0020102167
159	0xbd92efc7	-0.0717464
160	0xbb69ae5b	-0.0035656902
161	0xbb8c402f	-0.004280112
162	0x3cb890c6	0.02252997
163	0xbba8e1f2	-0.005153888
164	0x3cbc7562	0.023005191
165	0xbcd7505a	-0.026283432
166	0x3b351fcc	0.002763736
167	0x3bba77b7	0.0056905407
168	0xbd9001fe	-0.0703163
169	0x3d70c37f	0.05878019
170	0xbca5a74f	-0.02022138
171	0xbc042914	-0.008066434
172	0xbc536e62	-0.012904735
173	0x3c0f0d6f	0.00873123
174	0xbd28ef3c	-0.041243777
175	0x3bf6d48c	0.007532662
176	0xbd3051cb	-0.043046754
177	0xbc03932f	-0.008030697
178	0xbd42af4f	-0.04753047
179	0xbcd36b75	-0.025808075
180	0x3ce0e527	0.027453018
181	0x3c73a7a1	0.014871509
182	0x3c4680fa	0.012115711
183	0xbcb002ee	-0.021485772
184	0xbcd294b1	-0.025705667
185	0x3c2467a9	0.01003448
186	0xba6935c4	-0.00088962563
187	0x3cdc5d4b	0.026899954
188	0xbba2c698	-0.004967522
189	0xbd21343d	-0.03935646
190	0x3c05737b	0.0081452085
191	0x3c974ca4	0.018469162
192	0xbd1cd941	-0.038293127
193	0x3ada9642	0.001667686
194	0x3c0eb867	0.008710957
195	0xbb1177cd	-0.002219665
196	0x3d68e85a	0.056862213
197	0xbbd84301	-0.0065997844
198	0x3d2836c4	0.041067854
199	0xbcae91af	-0.021309702
200	0xbbc32bb6	-0.0059561385
201	0xbd704afe	-0.058665268
202	0x3ca38595	0.019961158
203	0xbdddf039	-0.108368345
204	0xbc8a2af6	-0.016866188
205	0xbc0eb24b	-0.008709501
206	0x3d1579e7	0.03649321
207	0x3c8d3506	0.017237198
208	0xbd957874	-0.07298365
209	0x3d2f19d7	0.042749252
210	0xbd97944f	-0.074013345
211	0x3ad76703	0.0016433898
212	0xbcc0a84d	-0.023517752
213	0x3d246c1d	0.040142167
214	0xbc9626a9	-0.018328981
215	0x3cf6243c	0.030046575
216	0x3c3f18a4	0.01166359
217	0x3b97cba1	0.0046324288
218	0xbce5f060	-0.028068721
219	0x3cbaa236	0.022782426
220	0x3d261f8f	0.04055744
221	0x3d53d03d	0.051712263
222	0xbcca6c8b	-0.02470996
223	0x3aa18f5a	0.0012326047
224	0x3cfda134	0.030960657
225	0x3d08dbe4	0.03341283
226	0xbd091c1a	-0.033474065
227	0x3ae96018	0.0017805127
228	0x3d401299	0.046892736
229	0xbb55cb1a	-0.0032622279
230	0x3c905bae	0.017621841
231	0xbc894b4a	-0.016759533
232	0xbd10c3c7	-0.035342958
233	0xbc2e9a97	-0.010656974
234	0x3cad24b0	0.021135658
235	0x3c85d85e	0.016338523
236	0x3cdec554	0.027193703
237	0xbd499786	-0.04921677
238	0xbc3f5eea	-0.011680344
239	0x3d70261a	0.058630086
240	0x3c4745e6	0.012162661
241	0xbb16dbbe	-0.002301916
242	0x3b1e5f6f	0.002416577
243	0x3cdb3471	0.026758404
244	0xbd1d5e00	-0.038419724
245	0x3d3ee2fc	0.046603188
246	0xbd268265	-0.040651698
247	0xbd1f38ea	-0.038872637
248	0x3ccb073b	0.024783721
249	0x3c9d7d3e	0.01922476
250	0x3c23e037	0.010002187
251	0xbb6f7d3e	-0.0036543156
252	0x3b57447d	0.0032847219
253	0x3d424754	0.047431305
254	0xbd8fca0b	-0.070209585
255	0x3d10f5c6	0.035390638
