emb_cache_v2/b2dbcc0cd27a2ca6f753f46b82a35fd3.npz (npz, 59520 bytes, 1 tensors)

vectors f4 [17, 768]
0	0x3cd31f69	0.025771813
1	0xbc3f1d89	-0.011664757
2	0x3a3474c9	0.00068838574
3	0xbb819279	-0.0039542285
4	0xba6101f7	-0.00085833616
5	0xbd32d29d	-0.043657888
6	0x3c5f8966	0.013643598
7	0xbcb1569a	-0.02164774
8	0x3ca9ba68	0.020718768
9	0xbcb816bc	-0.022471778
10	0xbc81c3e5	-0.01584048
11	0x3d4c659b	0.049901586
12	0xbacdc0f7	-0.0015697767
13	0xbc7a205b	-0.015266503
14	0x3c8ccd89	0.01718785
15	0x3d43258c	0.04764323
16	0xbc21113f	-0.009830772
17	0x3d808d95	0.06277005
18	0x3dd02f70	0.10165298
19	0x3c9e768b	0.019343635
20	0x3cfd149d	0.030893618
21	0x3b9bc4dd	0.0047536925
22	0x3bc5da4e	0.006037987
23	0x3c17f6ee	0.009275181
24	0x3c63dc9b	0.013907577
25	0x3d492013	0.049102854
26	0x3d13c90b	0.0360804
27	0xbc48200d	-0.012214673
28	0xbb68ef3a	-0.003554298
29	0xbc57a101	-0.013160945
30	0x3d93fac4	0.07225564
31	0xbc24d020	-0.0100593865
32	0x3c9ac56c	0.018892966
33	0x3cb58376	0.022157412
34	0xbbb607eb	-0.005555143
35	0xbc8c8d91	-0.017157348
36	0xb937ca43	-0.00017527588
37	0xbc61ae76	-0.013774505
38	0xbc0d7dcd	-0.00863595
39	0x3d76009f	0.060059186
40	0xbc5608e5	-0.013063644
41	0x3d549377	0.051898446
42	0xbd2d6762	-0.04233492
43	0x3d22a96b	0.03971235
44	0xbc676d9d	-0.014125255
45	0x3d848eae	0.064725265
46	0x3c82c0f0	0.01596114
47	0x3b0a4e51	0.002110381
48	0xbc44e3c3	-0.012017193
49	0x3da53b1f	0.08067917
50	0x3c342f0e	0.010997547
51	0xbd0ae72a	-0.03391186
52	0xbd67d40f	-0.05659872
53	0xbc8b59a4	-0.017010517
54	0xbd0cde1d	-0.03439151
55	0x3d6dc99d	0.0580536
56	0x3bee0632	0.007263922
57	0x3bd2a06c	0.006427815
58	0x3d2a6b44	0.041606203
59	0xbbe77564	-0.0070635546
60	0x3d31b7d0	0.043388188
61	0xbd341f59	-0.043975208
62	0xbca2f527	-0.019892288
63	0x3ca064de	0.019579347
64	0xbcd5fed8	-0.026122496
65	0x3caa0754	0.020755447
66	0x3d19e5ad	0.03757255
67	0x3d87b44d	0.066261865
68	0x3d1a57cf	0.037681397
69	0xbc098821	-0.008394272
70	0x3d90a4e2	0.07062699
71	0x3b94d678	0.004542168
72	0x3d3cb8e0	0.046074748
73	0x3c2e51d4	0.0106396265
74	0x3d146c4f	0.036236104
75	0xbc976604	-0.018481262
76	0x3c1fd616	0.009755632
77	0x3d97e70c	0.074171156
78	0xbd2b5527	-0.041829254
79	0x3ce000de	0.027344164
80	0x3d993c9c	0.074822634
81	0x3da27a14	0.07933441
82	0xbd248e38	-0.040174693
83	0x3ca22133	0.019791221
84	0x3d1fbe65	0.038999934
85	0x3b88086d	0.004151395
86	0xbb0a45a4	-0.0021098638
87	0xbc172acd	-0.009226513
88	0xbb08f05a	-0.0020895214
89	0xbca922d4	-0.02064649
90	0x3dab284f	0.08357298
91	0xbc5bf533	-0.013425159
92	0x3d517f28	0.051146656
93	0xbcad4870	-0.021152705
94	0x3c963431	0.018335434
95	0x3ce45da9	0.027876692
96	0xbb779c81	-0.0037782493
97	0xbd71cd54	-0.059033707
98	0x3d272fa1	0.040816907
99	0xbdb5189f	-0.08842587
100	0x3ba9181b	0.0051603443
101	0x3cd5c6d1	0.02609578
102	0x3cc64220	0.024201453
103	0x3ca1565a	0.019694496
104	0x3aa54250	0.0012608264
105	0x3c054011	0.00813295
106	0xbd305274	-0.043047383
107	0x3d7b4543	0.06134535
108	0xbc54e51b	-0.012994076
109	0x3d77b002	0.06047059
110	0x3c65cda0	0.014026076
111	0x3afc5a06	0.0019252903
112	0x3bc28fa3	0.005937533
113	0xbc55dbe9	-0.013052919
114	0xbdce956f	-0.10087096
115	0x3d3f000a	0.046630897
116	0xbd18502a	-0.037185825
117	0xbc57f392	-0.01318063
118	0xbcfaecc5	-0.030630479
119	0x3b7438f4	0.0037265392
120	0x3d23ba3f	0.03997254
121	0x3cd09509	0.02546169
122	0xbb9d4063	-0.0047989353
123	0xbc8a7d9d	-0.0169056
124	0x3c0c8d65	0.008578633
125	0xbcfcc4fc	-0.030855648
126	0xbd05492d	-0.03254049
127	0x3c008be2	0.007845851
128	0x3cdcd93d	0.026959056
129	0xbc5de5d2	-0.013543563
130	0x3b0ec9df	0.0021787805
131	0x3c874069	0.016510205
132	0xbcc3d2fb	-0.023904314
133	0x3b1a1426	0.0023510545
134	0xbc31428f	-0.010819091
135	0x3d9503d4	0.07276121
136	0x3c3d7c23	0.011565241
137	0x3c8c8bab	0.017156443
138	0xbca668d1	-0.020313652
139	0xbbfbcd7b	-0.0076844073
140	0xbd541d4e	-0.05178576
141	0xbceecd46	-0.029150616
142	0xbd53ea1a	-0.05173693
143	0x3d394900	0.045235634
144	0xbccc266e	-0.024920668
145	0xbd685dc1	-0.056730036
146	0xbcff369d	-0.031153971
147	0x3bfb8048	0.0076752044
148	0xbc8f245e	-0.017473396
149	0x3c29552d	0.010335249
150	0xbd4bb4a2	-0.04973281
151	0xbc13fd9c	-0.009032633
152	0x3b9ea53c	0.004841475
153	0xbbe8d04b	-0.0071049086
154	0x3cf6b8bf	0.03011739
155	0x3d344e7d	0.044020165
156	0xbc0b1ad6	-0.008490285
157	0xbcb75710	-0.022380382
158	0x3d40a2b8	0.04703018
159	0xbd489c54	-0.04897721
160	0xbb1b8d4a	-0.0023735338
161	0xbd34ef92	-0.044173785
162	0x3ca46662	0.020068351
163	0x3ccc563e	0.024943467
164	0xbcf42f42	-0.02980769
165	0xbcfdae73	-0.030966973
166	0x3bfeba5b	0.00777368
167	0xbcc8192f	-0.024426071
168	0xbdcd4615	-0.10023133
169	0x3ab8a0b9	0.0014085985
170	0xbd11961b	-0.035543542
171	0x3c23def3	0.010001886
172	0xbd4cacf3	-0.049969625
173	0x3c8bed1a	0.017080832
174	0xbd2c9127	-0.042130616
175	0x3b931864	0.0044889916
176	0xbc221a8a	-0.009894023
177	0x3d7d5590	0.061849177
178	0xbd8a957d	-0.06766794
179	0xbcbc5d61	-0.022993745
180	0x3ca1adfc	0.019736283
181	0x39bdb538	0.00036183908
182	0x3d591a3e	0.053003542
183	0xbc90d911	-0.01768163
184	0xbdb40193	-0.08789363
185	0xbc6b3036	-0.014354756
186	0xbb6d33ed	-0.003619428
187	0xbd127124	-0.03575243
188	0xbb5451cf	-0.0032397395
189	0xbcd803a1	-0.026368918
190	0xbbd3a684	-0.006459059
191	0x3d4d1db9	0.050077174
192	0xbcec81e0	-0.028870523
193	0x3ca9fdb8	0.020750865
194	0x3c90f238	0.017693624
195	0xbc9db559	-0.019251512
196	0x3c896bf8	0.016775116
197	0x3cacca17	0.021092458
198	0x3cd13570	0.025538176
199	0x3ca85eb1	0.020552965
200	0xbb8ebff7	-0.00435638
201	0xbc9dd7f5	-0.019268015
202	0xbb477bb5	-0.0030438725
203	0xbce27844	-0.027645238
204	0xbc853076	-0.01625846
205	0x3d26863b	0.040655356
206	0x3d3d4ef0	0.04621786
207	0x3c2b0a32	0.0104394425
208	0xbdc0419b	-0.09387513
209	0x3d722c19	0.059124086
210	0xbcea7584	-0.028620489
211	0x3c80f2ac	0.015740715
212	0xbccb9094	-0.024849214
213	0x3caf17da	0.021373678
214	0xbd34e190	-0.044160426
215	0xbd86f5d9	-0.065898605
216	0x3b15aade	0.002283744
217	0x3d040d2d	0.032239128
218	0xbdaef8bc	-0.08543536
219	0x3ced5fb7	0.028976304
220	0x3cba2983	0.022724872
221	0xbca07320	-0.019586146
222	0xbc49e6e4	-0.012323115
223	0xbd234643	-0.03986193
224	0x3c1eaa19	0.009684109
225	0xbc0ed867	-0.0087185865
226	0xbd570e26	-0.052503727
227	0x3c60b7d5	0.013715704
228	0x3ac38041	0.0014915542
229	0xbcdaa070	-0.02668783
230	0x3c97384a	0.018459458
231	0x3b78ab8b	0.0037944044
232	0xbc2727fd	-0.010202405
233	0xbd56b8fb	-0.052422505
234	0x3cb7bd39	0.022429096
235	0x3d44faf4	0.04809089
236	0xbbc8b71b	-0.0061253435
237	0x3c2b42c3	0.010452929
238	0xbba5eab9	-0.0050633815
239	0xbc9f84ff	-0.019472597
240	0x3b04977d	0.0020231896
241	0xbd528117	-0.05139264
242	0xbbfc1fe7	-0.0076942327
243	0xbcce88b4	-0.02521167
244	0xbbf853e4	-0.00757836
245	0x3cf706e6	0.030154657
246	0xbce65e47	-0.028121127
247	0xbd081ea9	-0.033232365
248	0xbd812b28	-0.063070595
249	0x3cad600c	0.021163963
250	0xbb83e26f	-0.0040247957
251	0xbc8ec855	-0.01742951
252	0x3ce5ee27	0.028067661
253	0x3d9104c0	0.07080984
254	0xbcc02101	-0.023453237
255	0x3d90ab42	0.07063915
