emb_cache_v2/b2e0e89f439cb66badab63458304dd36.npz (npz, 74536 bytes, 1 tensors)

vectors f4 [22, 768]
0.016533803 -0.0028515982 0.005766459 0.044283744 -0.017330887 -0.034290887 -0.0022769098 -0.010431163
-0.048927065 0.024197267 0.015771579 -0.06309909 0.007875121 -0.013089715 -0.0006063709 -0.01597195
-0.013085545 0.025846617 0.01949514 0.05868148 0.0014232638 0.0051432336 -0.03235846 0.0075886324
0.008715397 0.023656903 0.01022361 0.024436433 -0.08066625 -0.06661328 0.015144013 0.011702134
0.06812508 -0.0058119986 -0.0034974217 -0.076956354 0.011165278 -0.037905507 -0.026371157 0.051159527
-0.0068227723 0.033983048 -0.061597716 -0.004814174 -0.049647722 0.01190788 -0.005854752 0.028262971
-0.029630862 0.032690413 0.034675874 -0.017339217 0.033566806 -0.051034626 0.08819123 -0.036521237
-0.04438997 0.048809517 0.063293256 -0.02971194 0.0134213315 -0.007325191 -0.013987753 -0.00039414348
-0.093521744 -0.021183105 -0.03720657 0.061612424 0.024825882 0.0020396803 0.041231506 -0.010043369
-0.0042224107 0.008604613 0.048768044 -0.054041382 0.012551636 0.019471748 0.0035885666 0.04645282
0.023593059 0.07536529 -0.06575018 -0.009442218 -0.031492632 0.04456175 -0.033333234 -0.004113021
-0.025246792 -0.041998513 0.11437423 -0.013070802 0.018730326 -0.022509981 0.04420895 -0.0025579133
0.03585356 -0.05444264 0.017004574 -0.084854215 0.0023073414 0.018663999 -0.041387007 -0.008026585
-0.009450443 0.09750586 -0.036141366 0.006434734 0.03475991 0.03980778 0.038513165 0.053913876
0.0073550753 -0.0059106927 -0.09312298 0.051815495 -0.039630085 0.012688225 0.013907201 0.0007668752
0.009986681 0.015982943 -0.03202312 0.014354043 -0.019560132 -0.1251155 -0.038614254 -0.017950937
0.05931952 -0.07380576 -0.0077414005 0.048416723 -0.0132724065 -0.035980288 0.013339056 0.12646839
-0.01974947 -0.011503309 -0.01502018 -0.010912611 -0.03680065 -0.007076212 0.0077765686 0.005107011
0.04304765 -0.06445018 -0.015213089 -0.03379554 0.016609143 0.043717783 0.0070671067 -0.009472821
0.011716627 -0.028040834 0.0030458267 0.012307382 0.02646599 -0.011383824 0.009017795 -0.05175418
-0.0032054896 0.0008925469 0.022596842 0.0049800943 0.04791073 -0.06500369 0.02183826 0.0015658134
-0.036401108 0.07566143 -0.014225989 0.013126435 -0.005096612 -0.0046345014 -0.05820197 0.00040523414
-0.027397584 0.0028475346 -0.03701244 -0.02752418 0.011346138 0.030486125 0.0055685462 -0.024685854
-0.0053914846 -0.00884686 -0.00044315952 0.02410252 -0.0091836145 -0.035045683 0.05367815 -0.009136239
-0.043004196 0.0017278012 -0.022441389 -0.012604593 0.046603315 0.039308887 0.00059216435 -0.021840142
-0.020966949 -0.058408096 0.01951219 -0.105952375 -0.0038363247 0.009454656 -0.018446844 0.032808885
0.0018298607 -0.027641721 -0.069725454 0.013701093 -0.017399292 -0.0019831755 0.0017411524 0.036074594
-0.008181638 0.01463076 -0.0021468243 0.022993637 0.016650718 0.02837618 0.021230305 -0.028785525
0.033336375 -0.030246766 -0.030768193 -0.014268884 0.043952122 -0.033654716 0.011320687 -0.028859567
-0.04634551 0.017841589 0.015736569 0.0386873 0.009798367 -0.039711583 -0.013270187 0.010407857
0.021484068 -0.048265427 -0.069903694 0.021455646 -0.036905292 0.04587958 -0.05050081 -0.019558862
0.0050774734 0.008995792 0.008226352 -0.021730384 -0.01745353 0.014598802 -0.040789675 0.008187935
00000000: e671 873c e1e1 3abb 90f4 bc3b df62 353d
00000010: 81f9 8dbc 9a74 0cbd 3538 15bb 78e7 2abc
00000020: bf67 48bd 5939 c63c 6633 813c 183a 81bd
00000030: a706 013c 3e76 56bc ddf4 1eba 9bd7 82bc
00000040: c164 56bc 49bc d33c 46b4 9f3c fe5b 703d
00000050: cf8c ba3a 9288 a83b 4e8a 04bd 10aa f83b
00000060: 06cb 0e3c 1fcc c13c ee80 273c ea2e c83c
00000070: 5934 a5bd 8b6c 88bd 981e 783c 4fba 3f3c
00000080: 2985 8b3d 9472 bebb 0035 65bb 4b9b 9dbd
00000090: 92ee 363c ce42 1bbd 5308 d8bc a78c 513d
000000a0: 9091 dfbb cf31 0b3d e34d 7cbd 38c0 9dbb
000000b0: 695b 4bbd 4519 433c 38d9 bfbb bf87 e73c
000000c0: 6cbc f2bc 62e6 053d 4a08 0e3d f90a 8ebc
000000d0: 597d 093d af09 51bd 9b9d b43d 4b97 15bd
000000e0: 42d2 35bd 7dec 473d e59f 813d 7466 f3bc
000000f0: 25e5 5b3c 2808 f0bb e32c 65bc 0ba5 ceb9
00000100: 5488 bfbd 3188 adbc eb65 18bd 4f5d 7c3d
00000110: a65f cb3c 28ac 053b 5ee2 283d f18c 24bc
00000120: 265c 8abb 5dfa 0c3c 00c1 473d 7f5a 5dbd
00000130: 61a5 4d3c 3783 9f3c 282e 6b3b 5045 3e3d
00000140: 3b46 c13c 1e59 9a3d 08a8 86bd 88b3 1abc
00000150: 6bfe 00bd 6286 363d 6e88 08bd 85c6 86bb
00000160: 5cd2 cebc a206 2cbd 093d ea3d eb26 56bc
00000170: 5770 993c da66 b8bc 7214 353d aaa2 27bb
00000180: 2fdb 123d 3fff 5ebd 2d4d 8b3c 0cc8 adbd
00000190: c436 173b 3ee5 983c 6c85 29bd f081 03bc
000001a0: 08d6 1abc 27b1 c73d f808 14bd 76da d23b
000001b0: 6860 0e3d 7c0d 233d fbbf 1d3d ccd4 5c3d
000001c0: d802 f13b 7cae c1bb 43b7 bebd 7c3c 543d
000001d0: 2853 22bd 46e2 4f3c 07db 633c 2008 493a
000001e0: 2d9f 233c a9ee 823c ad2a 03bd 382d 6b3c
000001f0: 923c a0bc 471e 00be fb29 1ebd d80d 93bc
00000200: 06f9 723d 7927 97bd 93ab fdbb 9d50 463d
00000210: 8274 59bc 1160 13bd 0e8c 5a3c ee80 013e
00000220: a4c9 a1bc 6078 3cbc 3317 76bc cfca 32bc
00000230: 47bc 16bd 92df e7bb 96d2 fe3b b758 a73b
00000240: bc52 303d 75fe 83bd 5240 79bc 316d 0abd
00000250: e60f 883c 6b11 333d 3093 e73b e433 1bbc
00000260: 18f7 3f3c e4b5 e5bc 7e9c 473b e7a4 493c
00000270: 34cf d83c 3883 3abc 60bf 133c 31fc 53bd
00000280: 3113 52bb cff9 693a 031d b93c 0f30 a33b
00000290: 0b3e 443d a820 85bd 27e6 b23c fb3b cd3a
000002a0: 5419 15bd 61f4 9a3d 1f14 69bc 4210 573c
000002b0: 7b01 a7bb 04dd 97bb 3065 6ebd 9b75 d439
000002c0: e670 e0bc b49d 3a3b 5b9a 17bd 647a e1bc
000002d0: 27e5 393c 0abe f93c 5a78 b63b fd39 cabc
000002e0: 0dab b0bb 6cf2 10bc dd57 e8b9 a672 c53c
000002f0: df76 16bc 108c 0fbd 9fdd 5b3d 2ab0 15bc
00000300: 2b25 30bd 6377 e23a 01d7 b7bc 7f83 4ebc
00000310: 1ee3 3e3d 5b02 213d 7a3b 1b3a 19ea b2bc
00000320: e1c2 abbc 543d 6fbd 07d8 9f3c 8ffd d8bd
00000330: d96a 7bbb b4e7 1a3c d61d 97bc 9c62 063d
00000340: f0d7 ef3a e470 e2bc 38cc 8ebd 8d7a 603c
00000350: f688 8ebc 2af8 01bb 6137 e43a f4c2 133d
00000360: 470c 06bc dbb5 6f3c bcb1 0cbb 275d bc3c
00000370: 1667 883c 2a75 e83c 2deb ad3c 9fcf ebbc
00000380: b98b 083d 11c8 f7bc 940d fcbc 0ac8 69bc
00000390: 2407 343d 87d9 09bd 677a 393c e66a ecbc
000003a0: cad4 3dbd 8628 923c fae9 803c 9376 1e3d
000003b0: 5489 203c 9da8 22bd 336b 59bc b785 2a3c
000003c0: 5bff af3c f8b1 45bd ab29 8fbd c0c3 af3c
000003d0: 012a 17bd 3aec 3b3d f0d9 4ebd e839 a0bc
000003e0: ef60 a63b 1663 133c d2c7 063c eb03 b2bc
000003f0: b5fa 8ebc d02f 6f3c 1313 27bd b026 063c
