emb_cache_v2/b2faa2750c49beb30e173df2e770497d.npz (npz, 24512 bytes, 1 tensors)

vectors f4 [7, 768]
0.029578917 0.020838248 0.018985786 0.04868847 -0.0478494 -0.026846401 -0.0015286868 -0.016336394
0.033670485 0.03260035 0.0030505664 -0.06560626 0.017264176 0.030201793 -0.008616194 0.020811033
-0.024623854 -0.008417358 -0.02902717 0.017198954 -0.0037619867 0.045080815 0.0028267454 0.063074514
0.030472236 0.0340264 0.014100121 -0.00057382707 -0.06819468 -0.051736236 0.01459567 -0.0049745687
0.044953372 -0.0009162602 -0.0015543712 -0.04505065 -0.0023029973 -0.026220016 -0.00496659 0.048430115
-0.03638922 0.037163105 -0.06411939 0.02066782 -0.0652683 -0.034053568 0.0031716384 0.04714654
-0.061492357 0.048023574 0.03560195 -0.05700698 0.0553084 -0.028478233 0.023678347 -0.041943833
-0.062735155 0.010491315 0.030523282 -0.03448452 -0.0023776395 0.002185002 -0.015810283 -0.022827623
-0.06501165 -0.032077152 -0.06409566 0.072787 0.03691258 -0.015868887 0.005442525 -0.00094037346
-0.004976173 0.03991013 0.018011136 -0.050459977 0.030086435 0.054150485 0.0032349406 0.04945784
0.038363695 0.065748975 -0.074378885 -0.0114321755 -0.012227815 0.02821783 -0.012671809 0.008695845
-0.015340778 -0.032509163 0.055375546 -0.025915295 0.01483055 0.00069204404 0.008307928 0.021258205
0.041824028 -0.0046736505 0.0025650554 -0.09021516 0.038280636 0.04911203 -0.041724257 -0.0063045016
-0.0055642608 0.06137174 -0.050922103 0.004663491 0.038708996 0.026458502 0.008593331 0.042995796
0.0549851 0.033597454 -0.09759554 0.03818914 -0.045271777 0.008498394 0.011872769 -0.017060563
0.018462248 0.021281455 -0.0030802004 -0.022335585 -0.017278016 -0.114378236 -0.036328826 -0.017408397
0.039246496 -0.06647263 -0.010086256 0.061184093 -0.015051435 -0.014081699 -0.009093728 0.10503823
-0.037891176 0.013438996 -0.065707974 0.017266545 -0.0057399785 -0.029537529 0.003940055 0.01683205
0.06748868 -0.034364577 -0.04410986 -0.01178358 0.00042479322 0.030937728 -0.029569991 -0.020272756
-0.0036405027 -0.02924706 0.006156171 0.015749551 -0.0109053375 -0.008481 -0.0034930182 -0.0527582
-0.004203874 0.012747242 -0.03321079 -0.010398297 0.004429041 -0.08892509 -0.0032710535 0.015216533
-0.082636505 0.038152266 0.008805291 0.027633065 -0.0009378306 0.0072738053 -0.061588395 0.026085027
-0.04102611 0.018993335 -0.030336935 0.00012868138 0.03536788 0.060120016 0.03537255 -0.05616389
-0.016091235 -0.008334559 0.0015876727 0.0003334536 -0.0009527249 -0.034233987 0.035642132 0.03500909
-0.06443511 -0.035118382 -0.011579652 -0.024216998 0.025324818 -0.050675564 0.022533527 0.014255851
-0.0010109011 -0.037113532 0.045686997 -0.09791834 0.0003301969 0.031316012 0.05438403 0.03834263
-0.06677814 -0.009054766 -0.032242075 0.018284487 -0.04362253 0.035412192 -0.023523645 0.046452258
-0.014693296 0.047030214 -0.036358498 0.056878384 0.007580361 0.055780705 0.014804868 -0.047540493
0.04900632 -0.021125237 -0.026227228 -0.011239935 0.024366125 -0.021616612 0.01624939 -0.033714253
-0.024594111 0.02076484 0.026093353 0.04373625 0.041637458 -0.016988253 -0.02240082 0.007865359
0.0009038148 -0.04757234 -0.036690563 0.015762208 -0.0039019703 0.039685734 0.00996437 -0.030668847
0.021667084 -0.0044107838 0.008803658 -0.011358199 0.02291345 0.06083411 -0.05408644 -0.057094328
00000000: 7c4f f23c f9b4 aa3c 1488 9b3c 906d 473d
00000010: bcfd 43bd fcec dbbc 385e c8ba e7d3 85bc
00000020: 10ea 093d f287 053d 03ec 473b 935c 86bd
00000030: 9a6d 8d3c c069 f73c f02a 0dbc e67b aa3c
00000040: f7b7 c9bc f5e8 09bc 63ca edbc d2e4 8c3c
00000050: aa8b 76bb a9a6 383d eb40 393b 362d 813d
00000060: e9a0 f93c 445f 0b3d 3204 673c e26c 16ba
00000070: a7a9 8bbd 60e9 53bd ad22 6f3c b501 a3bb
00000080: 0721 383d 2e31 70ba 0bbc cbba 0887 38bd
00000090: e2ed 16bb 5ccb d6bc c7be a2bb a85e 463d
000000a0: dd0c 15bd 5738 183d 0751 83bd 8f4f a93c
000000b0: 63ab 85bd c17b 0bbd 43db 4f3b bb1c 413d
000000c0: 69df 7bbd 5eb4 443d 5ad3 113d 2780 69bd
000000d0: 108b 623d 2f4b e9bc 18f9 c13c 4ccd 2bbd
000000e0: 4a7b 80bd c4e3 2b3c f60b fa3c a43f 0dbd
000000f0: 2cd2 1bbb 4032 0f3b 9184 81bc ff00 bbbc
00000100: d424 85bd 5563 03bd 9644 83bd 5a11 953d
00000110: a531 173d 78ff 81bc 3557 b23b 6583 76ba
00000120: 2a0f a3bb ce78 233d 178c 933c 1faf 4ebd
00000130: d477 f63c e6cc 5d3d 4c01 543b 4e94 4a3d
00000140: 4023 1d3d 66a7 863d f553 98bd 054e 3bbc
00000150: 2c57 48bc 1429 e73c 6b9d 4fbc 0479 0e3c
00000160: e357 7bbc 5428 05bd 78d1 623d 504c d4bc
00000170: d6fb 723c 4a6a 353a fa1d 083c b025 ae3c
00000180: ac4f 2b3d 6c25 99bb 7d1a 283b bac2 b8bd
00000190: 28cc 1c3d b229 493d 0ee7 2abd fe95 cebb
000001a0: 6754 b6bb ef60 7b3d b293 50bd 33d0 983b
000001b0: 538d 1e3d 80bf d83c 0bcb 0c3c 5c1c 303d
000001c0: 0e38 613d 7c9d 093d 2ce0 c7bd 376c 1c3d
000001d0: e66e 39bd d93c 0b3c 0186 423c 98c2 8bbc
000001e0: 243e 973c 7256 ae3c 30dd 49bb 1ef9 b6bc
000001f0: a08a 8dbc 233f eabd 89cd 14bd 0e9c 8ebc
00000200: efc0 203d cd22 88bd d340 25bc 2c9c 7a3d
00000210: 4b9a 76bc edb6 66bc dcfd 14bc 491e d73d
00000220: c733 1bbd 3c2f 5c3c e791 86bd 9272 8d3c
00000230: 6e16 bcbb b0f8 f1bc 941b 813b 5ee3 893c
00000240: 8137 8a3d dfc1 0cbd 8aac 34bd eb0f 41bc
00000250: c8b6 de39 1e71 fd3c c43c f2bc 0d13 a6bc
00000260: 8095 6ebb 8897 efbc b5b9 c93b 3405 813c
00000270: 4dac 32bc e4f3 0abc 1feb 64bb fb18 58bd
00000280: a7c0 89bb cfd9 503c 0a08 08bd 9e5d 2abc
00000290: 7d21 913b 5c1e b6bd 2c5f 56bb c44e 793c
000002a0: 543d a9bd 8d45 1c3d 1144 103c bd5e e23c
000002b0: bfd8 75ba 1a59 ee3b 1d44 7cbd 44b0 d53c
000002c0: ff0a 28bd e997 9b3c 2a85 f8bc a5ee 0639
000002d0: e9dd 103d 6840 763d cfe2 103d 1b0c 66bd
000002e0: c4d1 83bc ad8d 08bc 7519 d03a 62d3 ae39
000002f0: 49c0 79ba f038 0cbd 7cfd 113d b165 0f3d
00000300: 8ef6 83bd 4bd8 0fbd 95b8 3dbc ba62 c6bc
00000310: fe75 cf3c 2e91 4fbd 3b98 b83c 5f91 693c
00000320: 3680 84ba 5c04 18bd 4a22 3b3d 6989 c8bd
00000330: 471e ad39 3845 003d cac1 5e3d 290d 1d3d
00000340: fac2 88bd 715a 14bc 4410 04bd 59c9 953c
00000350: 8aad 32bd 600c 113d a9b4 c0bc b944 3e3d
00000360: 26bc 70bc c1a2 403d a6ec 14bd 4ff9 683d
00000370: ad64 f83b 4f7a 643d 1e90 723c d2b9 42bd
00000380: daba 483d d50e adbc 7cda d6bc b427 38bc
00000390: 789b c73c 5215 b1bc 711d 853c f517 0abd
000003a0: 9779 c9bc 071b aa3c bac1 d53c c824 333d
000003b0: 0a8c 2a3d f32a 8bbc ed81 b7bc b5dd 003c
000003c0: fced 6c3a 37db 42bd d848 16bd bf1f 813c
000003d0: 33b8 7fbb 828d 223d 9941 233c 3c3d fbbc
000003e0: 2b7f b13c 5688 90bb 383d 103c bd17 3abc
000003f0: fdb4 bb3c 302d 793d be89 5dbd bedb 69bd
