emb_cache_v2/b317b596584d3bc3ebbc49b56f62c4ab.npz (npz, 223189 bytes, 1 tensors)

vectors f4 [65, 768]
000000 0c a2 07 bc 0a f2 0e 3d 51 9f db bb 07 22 49 3d
       -0.008278381 0.034898795 -0.0067023416 0.049104717
000010 6c 36 6d 3b b4 c8 bf bc e9 cd cd 3c 88 d6 a0 bc
       0.0036195768 -0.023411132 0.0251226 -0.019633546
000020 52 c4 01 3e aa 67 12 3c a5 56 00 bd b1 99 fc bc
       0.12672547 0.008935848 -0.03133263 -0.030835005
000030 fe 0a 9d bc cb 87 23 bc 5f 2d a2 3c 82 dc 07 bd
       -0.01917028 -0.009981106 0.019797025 -0.033169277
000040 37 ae 88 ba b7 8c 6f 3c 34 29 db 3c 8d ed 44 3d
       -0.0010427897 0.014620951 0.026753046 0.04807811
000050 84 a7 0a bd 45 e2 8e 3c d2 cb b2 bc c8 bb f6 bc
       -0.03385116 0.017441878 -0.021825705 -0.030118838
000060 69 c2 3e 3d 53 2e d9 3b 6a 70 33 bd 08 18 6d 3c
       0.046572123 0.0066278367 -0.04380838 0.0144710615
000070 46 32 3e bc 01 7b 3a bd 7e 98 f0 39 4c 47 2a bc
       -0.011608666 -0.045527462 0.00045889983 -0.010392975
000080 2a 64 8c 3d 32 71 38 3d f4 f9 f2 39 49 b0 0d 3c
       0.06855042 0.045029826 0.00046344067 0.008647987
000090 fd 0a 18 3d bb fd ae bc d1 d7 53 3c a7 d0 3a 3d
       0.037119854 -0.021361222 0.012929873 0.045609143
0000a0 d3 85 3b 3c 32 15 60 3d 5a e6 0b bd 25 c5 78 3b
       0.01144548 0.054707713 -0.034155227 0.0037959304
0000b0 2a c8 4f bb f8 57 86 3c 8e 9b 2d 3c b6 3f 07 bd
       -0.0031705 0.016399369 0.010596169 -0.033019744
0000c0 69 64 bd bc 32 13 b8 3d bc 17 b6 3b be cb 0f bd
       -0.023119168 0.08988036 0.0055570286 -0.035106413
0000d0 c3 d3 a5 3c d4 50 2b 3c 63 7a fa 3b f7 31 1f 3c
       0.020242577 0.010456283 0.007643984 0.009716502
0000e0 22 b4 45 bc e5 38 87 3d 9c 77 90 3d 9a 94 4e 3b
       -0.012066873 0.06602649 0.07054064 0.003152168
0000f0 e0 00 ea bc 55 b1 28 3b 55 3d 57 bc 31 0e 27 3b
       -0.02856487 0.0025740464 -0.013137181 0.0025490636
000100 1c 98 84 bd 22 04 03 3d 89 3c 78 bd c6 6e 9f bb
       -0.06474325 0.031986363 -0.060604606 -0.0048655
000110 68 f0 dd 3c 37 07 f2 bb 4d 9b a5 3c 03 09 ac bc
       0.027092174 -0.007386114 0.020215655 -0.02100039
000120 c2 c4 f2 3c e9 af 31 3d 54 06 87 bc 48 2d e1 3a
       0.029634837 0.04338065 -0.01648251 0.0017179633
000130 e5 f9 75 3d 13 b4 01 3b fe 9f d7 bc 80 2d 8a 3d
       0.06005277 0.001979117 -0.026321407 0.0674696
000140 61 a1 c5 3d 47 c2 48 3d af 07 02 bd 55 95 9d 39
       0.09649921 0.049013402 -0.03174561 0.00030056635
000150 e3 de c4 bc af f3 27 3d c0 63 c0 b9 3f 7a e9 3b
       -0.024032062 0.04100388 -0.00036695413 0.0071251686
000160 e8 eb 90 bd 29 a1 12 bd ec c6 2e 3d 70 cd 07 bd
       -0.070762455 -0.035798226 0.042670175 -0.033154905
000170 52 dc 1c 3d f4 3d 4e 3a 83 c6 3d bd 50 26 2c 3d
       0.03829605 0.0007867508 -0.046331894 0.042028725
000180 0f a8 67 bc 73 9c cb bc fa d7 5d 3c e1 c9 91 bd
       -0.014139189 -0.024854874 0.013540262 -0.071185835
000190 8d 74 55 bc 07 71 0c bb 02 24 2d bd 59 9b 99 3c
       -0.013028276 -0.0021429674 -0.042270668 0.018750833
0001a0 1f 3c a4 3b 19 1c 26 3d b1 0b be bc e3 71 f5 bb
       0.00501205 0.04055414 -0.023198934 -0.007490383
0001b0 05 cd 90 3d ab e6 cc ba cd 9d 61 3d 84 db 5a bc
       0.07070354 -0.0015632709 0.05508213 -0.013358001
0001c0 3d 68 f0 3c 58 3b 0b bd 3a 77 bd bd ab 0b 6b bc
       0.02934658 -0.03399214 -0.09251256 -0.014346044
0001d0 87 90 05 bd 87 53 40 3d 7f 6f c5 bb 04 92 72 bc
       -0.032608535 0.046954658 -0.0060252543 -0.014805321
0001e0 12 69 9c bd b8 71 0b 3c 68 fb 21 bd 74 b1 76 bd
       -0.07637228 0.008510999 -0.0395464 -0.060227826
0001f0 68 5b 15 3d fa b5 c7 bd 14 7c af bc bc bb cd ba
       0.036464125 -0.09751506 -0.02142147 -0.0015696208
000200 88 15 04 3d 18 79 28 bd 2f 32 b9 3c 71 97 87 3d
       0.032247096 -0.04113111 0.022606937 0.06620682
000210 e2 d7 bf bc 4b 5b e9 3a 69 9d 17 3b fe 56 23 bd
       -0.02341837 0.0017803697 0.0023134595 -0.039877884
000220 f0 13 2a bd 9e 7c 06 bb 17 14 17 bc 06 0f 0e 3d
       -0.04152292 -0.0020521055 -0.009221098 0.034682296
000230 3b a6 85 bd c8 3a 7d bd ef e2 37 bd d8 e4 10 3c
       -0.065258466 -0.061823636 -0.044894155 0.008843623
000240 23 59 27 3d 51 f2 ff bc 4d 04 bf bb db 59 da bd
       0.04085649 -0.031243475 -0.00582937 -0.1066167
000250 35 7c 07 3b bd cb 46 3d 56 8c fc bb 18 8b 2e 3c
       0.0020673398 0.048534144 -0.007707159 0.01065328
000260 d7 f3 88 3d 34 46 24 bd b3 49 64 3c 7c 3b 15 3d
       0.06687134 -0.040106013 0.013933587 0.03643368
000270 4e 0f f3 3d 22 80 fc bb 92 31 a6 3b f4 ef 3a bc
       0.118681535 -0.0077057043 0.005071827 -0.011409748
000280 36 f9 73 3c 63 4c 2d bc 3b 47 be 3c 89 b1 94 bc
       0.0148909595 -0.010577294 0.023227325 -0.018151062
000290 5f 50 cb 3c 65 3b e4 38 ef 6b 24 bd ff 90 7f 3c
       0.024818597 0.0001088295 -0.040141996 0.015598535
0002a0 1e 1a c0 bd ee c5 1f bc ca 36 ec bc c2 e7 bc 3c
       -0.093799815 -0.00975178 -0.02883472 0.02305973
0002b0 2b b8 58 3b 4e 66 76 3c 98 9e 78 bd 0f 02 06 3d
       0.0033068757 0.01503904 -0.06069812 0.032716807
0002c0 b4 10 35 bc d8 bb 62 3d e4 9e a2 bd 5f a9 90 bc
       -0.011051346 0.055354923 -0.07940462 -0.017658887
0002d0 6e 27 de 3c 16 d7 48 3d 43 72 9e ba dd 6c 30 3d
       0.02711841 0.049033247 -0.0012088496 0.04307257
0002e0 13 46 42 bc 6b 2d fb 39 49 d3 e4 3c 10 4f d9 3c
       -0.011857527 0.0004790829 0.02793278 0.026526958
0002f0 d5 13 85 bc e1 77 ef 3a 54 44 b7 bc 04 60 62 3d
       -0.016244808 0.001826998 -0.022371449 0.05526735
000300 14 0e 0f 3c 84 e1 b8 3c f5 a6 1a 3b b9 d7 30 bc
       0.008731384 0.022568472 0.002359805 -0.01079362
000310 dd 32 70 3d 43 a3 78 bd aa 4c 05 3d 59 aa 4a bc
       0.058642257 -0.060702574 0.032543816 -0.012369716
000320 9b 07 1c 3d d5 83 07 bd 85 c9 34 3d 78 ba d9 bd
       0.03809319 -0.03308471 0.044137497 -0.10631269
000330 e3 02 e5 ba 36 0a 5b bc 64 fc ce bc d6 a3 ce 3c
       -0.0017472174 -0.013369134 -0.025266834 0.025224607
000340 92 7d df bc 6e d6 89 3d a3 dd df bc b3 da 97 3c
       -0.027281556 0.06730352 -0.027327364 0.018536901
000350 a1 18 40 bd 99 bd de 3c e8 1d 87 bc 58 b3 40 3b
       -0.046898488 0.027190017 -0.016493753 0.0029403772
000360 60 c2 08 bc 0b 8c 45 3b 89 0c 89 bb bb e6 06 bc
       -0.008347124 0.0030143287 -0.0041824025 -0.008233721
000370 e9 6f 5b 3a c6 84 f9 3c dd 60 21 bd 33 c4 9a 3c
       0.0008370863 0.03045882 -0.039399017 0.018892383
000380 86 18 af 3c 5d 46 77 3c bd 2c a6 bc e7 cc b4 bc
       0.021373998 0.0150924595 -0.020285005 -0.022070361
000390 7a b7 7c 3d bd 24 26 bd 8b 14 4e 3c dd dd ee bc
       0.061698414 -0.04056238 0.01257814 -0.029158527
0003a0 81 40 ff bb df af 3a 3c e2 ff 77 bc 42 85 1b 3d
       -0.007789672 0.01139447 -0.015136691 0.03796888
0003b0 6e d5 ce 3c 83 ba 25 bc 31 c3 53 bd 8b ea 89 bc
       0.025248256 -0.010115269 -0.05169982 -0.016835472
0003c0 ba 98 6a 3d 88 44 9a 3b a5 5f 74 bd cb 12 56 3c
       0.057274558 0.0047078766 -0.059661526 0.013066004
0003d0 8b 83 3a bc e4 24 6c 3d 93 bf f0 bc 41 42 21 bc
       -0.011383901 0.05765237 -0.029388225 -0.009842456
0003e0 3c 0f 9b bc 6c e2 33 3d ec 62 c2 bc d2 1c 88 bc
       -0.018928163 0.043917105 -0.02372881 -0.016615305
0003f0 26 e7 10 bd 1a 0c 4d 3d 98 87 55 bd 1a c7 98 3d
       -0.03537669 0.05006037 -0.052131265 0.074598506
