emb_cache_v2/b3291b8ce3990e1ea377512a37b0faeb.npz (npz, 58533 bytes, 1 tensors)

vectors f4 [17, 768]
000000 57 42 b6 3c a5 33 08 3d e5 16 ab bb 27 d7 65 3d
       0.02224843 0.033252377 -0.005221235 0.05611339
000010 eb 51 ad bc 8a 2e 1d bd be d9 ba ba 36 28 49 3c
       -0.021157226 -0.03837446 -0.0014255566 0.012277653
000020 3f ba 9d bc e3 27 81 3b b4 51 39 bc ac d8 ea bc
       -0.019253848 0.0039415224 -0.011310983 -0.02866777
000030 cd c0 bb 3c c9 27 b6 bc 50 99 18 bb 2d e5 b7 b7
       0.022919083 -0.022235768 -0.002328474 -2.1922018e-05
000040 16 12 b6 bc 3d 17 ac 3c b7 75 24 3c 4c 7d 12 3d
       -0.02222542 0.021007175 0.010037831 0.035764024
000050 c6 88 54 bb 12 96 6b 3b a2 03 07 bd 2d 8f 21 3d
       -0.0032430156 0.0035947603 -0.03296245 0.039443184
000060 71 e5 49 3d 0b 57 5e 3d 27 aa 6d bc b0 f2 16 3d
       0.049291078 0.05428223 -0.0145058995 0.03685254
000070 92 56 9d bd 9f a7 9d bd fb b4 c9 3c e4 1a 9b ba
       -0.076825276 -0.07697987 0.024622431 -0.0011833576
000080 45 12 72 3d 23 b8 97 3b 5f b6 63 bc a7 9c 4a bd
       0.059099454 0.004630105 -0.013898461 -0.0494658
000090 47 03 34 3c 06 4b 73 bc 5c b1 9a bb a8 95 3d 3d
       0.0109871095 -0.01484943 -0.00472085 0.0462853
0000a0 ed bc 06 bc 41 de 63 3d a2 e1 77 bd 62 f7 c1 b9
       -0.008223754 0.05563188 -0.060517915 -0.00036996143
0000b0 e5 2c 3a 3a af 60 1b 3c 57 23 45 bb 0b cc 5f 3b
       0.0007102027 0.0094835 -0.0030080879 0.0034148719
0000c0 20 dc 6b bc 1c 15 af 3d 83 32 2d 3d c1 74 42 bd
       -0.014395744 0.08548948 0.0422845 -0.047474626
0000d0 b9 e0 aa 3c 8e 31 57 bc da 5c bb 3c 35 43 da bc
       0.02085911 -0.013134373 0.022871424 -0.026643375
0000e0 81 1f e1 bc 4a 69 8a 3c cc 1d 8c 3d 4c 21 a4 bc
       -0.027480843 0.016895909 0.06841621 -0.020035408
0000f0 64 10 8a bc c2 eb 3f bc e4 33 9f bc ee 94 0b bc
       -0.016853519 -0.011713924 -0.019433923 -0.008519394
000100 1f 31 fd bd b6 f2 5a 3c fd 6e 9a bc fa 0e 97 3d
       -0.12362885 0.013363531 -0.018851751 0.073759034
000110 a6 70 32 3d 0d 5b 0d 3c 53 81 54 3d 9c 2d a2 3b
       0.04356446 0.008627665 0.051881146 0.0049492847
000120 60 3b d0 3b 98 09 18 3d b8 f9 16 3d 04 70 f1 bc
       0.0063547343 0.037118524 0.036859244 -0.029472359
000130 3a 8f 07 3d 66 35 f0 3c 56 eb 3f 3c 5b 9f 72 3d
       0.033095576 0.029322337 0.011713823 0.059234004
000140 ef b3 a6 3d 92 ad 85 3d b5 5b c3 bd a0 26 99 3c
       0.08139788 0.065272465 -0.09538976 0.018695176
000150 a1 8e 1e bd 1f cf 03 bc 16 b7 e6 bb d6 5b 98 bc
       -0.03871024 -0.008044987 -0.0070408685 -0.018598478
000160 bf 95 77 bd f3 2a 04 bc 47 67 a7 3d ad 59 7f 39
       -0.060445543 -0.0080668805 0.081739955 0.00024352102
000170 d4 db 10 3d e8 42 db bb a2 b3 06 3d c0 49 b9 3b
       0.035365894 -0.0066913255 0.032886155 0.0056545436
000180 42 5b 01 3c 31 57 a9 bd a5 02 f0 3a be 37 a1 bd
       0.007895293 -0.082685836 0.0018311335 -0.0787196
000190 0c 4a a2 3d 1b f8 3d 3d 7d 55 2e bd 74 ba 3f bb
       0.079242796 0.04637919 -0.042561997 -0.0029255422
0001a0 a7 df ca bc 09 27 ab 3d 4c c7 54 bb a3 68 31 3d
       -0.024764849 0.08357055 -0.0032467423 0.04331268
0001b0 d3 06 88 3c 04 41 1b 3d 04 fa 0d 3c b5 05 d2 3c
       0.016604817 0.0379038 0.008665565 0.025637487
0001c0 8a 92 0a 3d cc a6 db bc 12 3a c8 bd 5f a6 17 3d
       0.033831157 -0.026812933 -0.09776701 0.0370239
0001d0 da c6 81 bc 58 f6 8b bb 0a 30 db 3c 89 7e 23 3c
       -0.01584189 -0.00427131 0.026756305 0.009978899
0001e0 44 6e f4 bc 37 b6 27 3c 74 c6 df bc f3 8e d0 ba
       -0.029837735 0.0102363145 -0.02731631 -0.0015911743
0001f0 5e c2 3d bd 4b 76 c3 bd 0a 05 44 bc ff db bf 3b
       -0.04632794 -0.09544047 -0.011964092 0.005855083
000200 77 3d 57 3d 35 b9 8a bd 00 9b 5b bb a7 7e 79 3d
       0.05254885 -0.06773607 -0.0033509135 0.0609118
000210 a7 71 28 bc ba b5 ab 3c 07 b1 2f 3c 9c 8c ae 3d
       -0.010281003 0.020960677 0.010723359 0.08522913
000220 35 7e 53 bc a5 5b df b9 2f 49 14 3c 18 72 bc 3c
       -0.012908508 -0.00042602155 0.009050651 0.023003623
000230 7c c2 85 bc aa 01 69 3b a9 70 15 bd b8 ce 08 3c
       -0.016328089 0.003555397 -0.036484394 0.008350067
000240 54 a2 2d 3d 4d fb f8 bc d7 25 7e bc 85 9e 39 ba
       0.042391136 -0.030393267 -0.015511951 -0.0007080811
000250 5a 55 9e 3c 0a cb 51 3d ef 63 bb bb bb 19 85 bc
       0.019327808 0.051219024 -0.0057187 -0.01624762
000260 c3 8c 9f 3c 43 69 af bc c8 a3 0d 3d 76 e8 cb 3c
       0.0194763 -0.021412497 0.034580022 0.02489112
000270 4a 3e 8f 3d d1 87 5b bd 4d 9f d4 3b ba 36 21 bd
       0.069943026 -0.05359632 0.0064887167 -0.039358832
000280 c1 ef b1 bb 9d 8a 12 3c f0 3e a0 bb 91 e4 13 bc
       -0.005430192 0.008944181 -0.0048903152 -0.009026662
000290 39 ce 2a 3c d6 12 73 bd 37 2a 01 3d a0 6e d6 bb
       0.010425144 -0.059344135 0.0315344 -0.0065439492
0002a0 89 5e d1 bd b7 13 85 3d 46 ff 6c 3a 97 f0 ce 3b
       -0.10223109 0.06497901 0.0009040724 0.0063153016
0002b0 74 eb a7 bb 4b 4d b0 bb aa 01 38 bd 9a 28 a2 bb
       -0.0051245037 -0.005380308 -0.044923462 -0.0049486877
0002c0 94 ac e2 3c 73 e0 ac 3c d3 45 97 bd da 71 f8 bb
       0.027670182 0.02110312 -0.07386365 -0.0075819315
0002d0 6a f2 8f 3c db 59 38 3c ed 09 13 3b 0f d1 d4 bb
       0.017571647 0.011251892 0.0022436336 -0.0064946483
0002e0 07 31 08 bd c5 7b 7a 3c 9e 01 70 3c a6 13 57 ba
       -0.03324988 0.015288298 0.014648823 -0.0008204527
0002f0 a2 95 a4 bc a9 44 12 bd 69 6d ae 3c 75 f0 dd 3c
       -0.020090882 -0.03571001 0.021292405 0.027092198
000300 46 aa 08 bd a5 9f 10 3c 2a 70 eb 3b 60 12 9c bb
       -0.03336551 0.008827125 0.007185002 -0.0047629327
000310 e1 92 80 3d 2e 0d 32 bd ea 27 86 3c 5f 1d 07 3d
       0.06278015 -0.0434696 0.016376454 0.032986995
000320 8a ea fc bb 2e fd 85 bd e2 58 7b 3c 74 6c d4 bd
       -0.007718389 -0.06542431 0.0153410155 -0.10372248
000330 a7 7d d7 3b f9 f1 b2 3a ef 26 8e bc af c2 a6 3c
       0.006576258 0.0013652436 -0.01735255 0.020356504
000340 36 29 b1 bd c0 8b b2 3b 4b b9 3d bd 2c 2b 96 3c
       -0.086504385 0.0054487884 -0.046319287 0.018331133
000350 b7 27 df bc 89 28 16 3c 9d 1c 08 bd a9 a8 8e 3c
       -0.027240617 0.009164938 -0.033230413 0.017414408
000360 4f 93 e6 b9 d1 ea d9 bc 3a 1c 70 ba cb 89 13 3d
       -0.00043978772 -0.026601227 -0.00091594795 0.03602008
000370 4d b9 c0 3c dd 14 23 3d 79 58 27 bd ad 69 8c bc
       0.023525858 0.03981482 -0.04085586 -0.017140234
000380 0c 8a f5 3c b4 6b 22 3c 24 32 13 bd 2c 3f 8d 3c
       0.029973052 0.009913374 -0.03593649 0.017242037
000390 3f ea ec 3c fe 40 20 bd 95 2e 08 bc 35 f4 c5 bb
       0.028920291 -0.03912448 -0.008311887 -0.0060410746
0003a0 d2 e5 dd bc 5e 7e 9f 3a 32 e0 e4 3b 6f 00 f9 3c
       -0.027087126 0.0012168398 0.006984734 0.030395715
0003b0 67 f2 53 3c 7a 8b 91 bd 74 fc 91 bc 4b 9a 44 bc
       0.012936211 -0.07106681 -0.017820574 -0.011999677
0003c0 d9 a7 58 3c d6 e7 5e bd 92 3e 48 bd 39 c0 99 3b
       0.013223612 -0.054420315 -0.048887797 0.004692104
0003d0 e1 3b e7 3c 72 25 05 3d cf cc 2b bd 45 dc 03 bd
       0.028226795 0.032506414 -0.041943368 -0.032192487
0003e0 fc 2e 22 3c 97 36 3a 3d 50 a4 c6 bc cd 13 ee ba
       0.009898897 0.045462217 -0.024248272 -0.001816386
0003f0 d4 b8 40 bc 54 e8 38 3d 9b a1 9b bc cf a5 21 3d
       -0.011762816 0.04514344 -0.018997958 0.039464768
