emb_cache_v2/b38fa869e15b48469c9bad5981d27c7e.npz (npz, 135694 bytes, 1 tensors)

vectors f4 [40, 768]
00000000: 220c bbbc cb77 15bc 2947 4bbb 457b 933c
00000010: 4072 b9bb 2d31 8cbd 5426 18bd 1e6b f6bb
00000020: 5c66 48ba 2b34 f13c 4633 113d 3705 8abd
00000030: cc09 d03b d5e9 1a3d 7bf7 d8bb 10c9 c93c
00000040: 8d4f 23bb c4d2 193c e3c9 c8bc f1a0 d43c
00000050: 4355 fe3c ff17 863b 639e 883a 96b9 283d
00000060: 20cc 1d3d 1fb4 3c3d 7629 153d 24cf 213c
00000070: f62c 96bd b784 81bd 35f9 013d 516e b3bb
00000080: f0dd 863d 0019 bb3c 4254 8b3b 8cca 93bc
00000090: 8bc9 b8bc ec8a a5bc 19c8 273d b996 903d
000000a0: 9e6a 7abc 6ee3 093c 6586 4cbd 38ec 9abc
000000b0: dd7b 31bd a113 8ebd cc3f 153d a1b9 23bd
000000c0: c7d0 0ebc 6296 633d 438d 7e3c 86b7 8bbd
000000d0: 6325 db3c e457 eebc 32ca 883d bc44 d53a
000000e0: 4c27 0cbc 76a4 913b bd63 a03d 41c0 15bc
000000f0: eb90 89bc 5625 e2bc 04a7 a6bc 3836 e73c
00000100: 469c 09bd bc1f 33ba d3c9 403d 76d3 a13d
00000110: 7b30 033d 75d0 f8b9 d5a6 713d 03ed a6bc
00000120: 7572 f63b e61a 693d fe28 32bc 69d3 fb3b
00000130: e791 ba39 3728 093a 55dc 69b9 451c 743d
00000140: c529 d53c acb6 e33c 1fea 48bd 800a 91bb
00000150: 755b 7f3c 329f 653c 1b82 efbc a74f a4bb
00000160: 9e5c 95bd 76b4 1bbd d62a 223c 691e 4c3c
00000170: 6398 43bc 834f bb3b 306e 763d 16fb d13c
00000180: 78f9 543b 225c b83c 6dad 173d 9240 8dbd
00000190: 1c01 923d 4277 ac3c e117 2fbd 2596 2abc
000001a0: 1cd8 61bc 6e1e 993d 2d54 01bd a2f3 1c3d
000001b0: 1b8a 3c3d 580a 1f3c 16bf 843c f018 8e3c
000001c0: f0e0 5b3d 1fee 68bb c181 00be 0d72 573d
000001d0: 27f0 e4bc 90e0 b43b 3a7e 323c f76b 04bc
000001e0: eaf9 0b3d 306c 263c 2581 0dbd c218 84bc
000001f0: b652 35bc e5fa 17be 6962 33bd e429 b7bc
00000200: 978d 0c3d fa70 f7bc 61c2 cfbc 6f5b 273d
00000210: a727 2dbc 8926 4cbc 9e0d c5bc e5e6 d33c
00000220: cf75 61bb 133e ad3b d78d aebd e35b eebb
00000230: b738 b2bd 97a5 99bc 7e74 863d f951 8e3c
00000240: 13ca 1dba 8584 b3bd f136 e93b 58e1 bcbc
00000250: 1a81 3bbd 2927 7f3d 55f0 0d3c 4712 c8bc
00000260: 1978 adbc c56c 313c 2fce 033d a41d ca3c
00000270: 1044 a13d 435e 94bc f14f f2bb e773 afbc
00000280: d113 09bc bcb7 133c 5a92 2f3d 026d 60bb
00000290: 5977 123d dacc 07bd 7449 86bc 0396 b13b
000002a0: 7279 8cbd eadd 873c c2b6 7b3a bc39 f93c
000002b0: 52c2 13bb 8dae 153d c9fe 4ebd 7011 8cbc
000002c0: ade8 12bd 87e7 d3bc c267 efba 05fe 113c
000002d0: 8d9c 953a 4a9f 723c 2ba5 8db9 e97c bd3b
000002e0: d5cf 0cbc 6af2 9c3b 6970 63bd 55f6 56bc
000002f0: 1743 abba 327b 52bc e890 d93c 36d0 103d
00000300: e8ef bcbc 61e1 533b f645 83bc 8714 8abb
00000310: 5ee0 7c3d f42a 30bd 5983 d4b9 4f73 2d3d
00000320: bf47 45bc 60cc 5cbd 4919 213d 2039 babd
00000330: ed7a 2f3c ab27 31bc 8ab4 2a3d e795 423c
00000340: 7b3a df3c 9688 9ebc cf34 e4bc 12d9 493c
00000350: 445b 1cbd 5bd3 943b 3a19 0abc 24a5 c3bb
00000360: 855b 993b e343 d1bc 4b92 df3b ef1c 2b3c
00000370: ab44 533c 2a04 e73b bb24 1bbc 7969 1c3c
00000380: 38e4 993d 1104 a8bc d858 c1bb 7d79 d23a
00000390: 8693 1e3c a0cf 2fbd c291 21bb 053b 84bc
000003a0: 3b56 92bc 5dfb c33c b353 c03c e28e e63c
000003b0: 0a4b edba 92cf c9bc 0a51 9abc a5b3 27b9
000003c0: faa0 9dbc c64e a3bc 6e1b 28bd 5516 c33b
000003d0: 6998 fdbc c9c9 c93b 7a06 7abd 0ab5 69bd
000003e0: d5ce 593a 898d fe3b e6e6 6b3c 9945 b3bb
000003f0: 3016 c9ba 3059 493d 2cd2 2cbc 77d5 663c
-0.022832934 -0.009122799 -0.0031017757 0.018003115 -0.0056593716 -0.06845317 -0.037145928 -0.0075200936
-0.0007644647 0.029443821 0.03544929 -0.06739276 0.006348824 0.037820656 -0.006621299 0.024632007
-0.0024919242 0.009388629 -0.02451033 0.02595565 0.031046515 0.004092216 0.001042318 0.041192614
0.038524747 0.046070214 0.036416493 0.009876046 -0.07332794 -0.063241415 0.031731803 -0.005475797
0.065853 0.02283907 0.0042519877 -0.018040918 -0.02255704 -0.020207845 0.040962312 0.07059998
-0.015284209 0.00841604 -0.049932856 -0.018911466 -0.043331016 -0.06937338 0.036437795 -0.03997195
-0.008716769 0.055563338 0.015536609 -0.06822114 0.026751226 -0.029094644 0.06679191 0.0016271095
-0.008554291 0.004444654 0.078315236 -0.009140075 -0.016792735 -0.027605694 -0.020343311 0.028224096
-0.0335963 -0.0006833037 0.047067475 0.07901661 0.032028656 -0.0004745756 0.058996994 -0.020376688
0.0075209686 0.056910418 -0.010874031 0.007685114 0.0003558539 0.0005232128 -0.00022302692 0.059597272
0.026020894 0.027797066 -0.0490514 -0.0044263005 0.01558577 0.014015006 -0.029236844 -0.005014378
-0.07293056 -0.038013898 0.009897908 0.012458422 -0.011938187 0.0057162656 0.060163677 0.025632422
0.0032497328 0.02250487 0.037030626 -0.068970814 0.07129118 0.02105296 -0.042747382 -0.010411774
-0.013784435 0.07476507 -0.031574417 0.038318284 0.046030145 0.009707056 0.016204398 0.017345876
0.053681314 -0.0035542322 -0.12549497 0.052599 -0.027946545 0.005519934 0.010894353 -0.008082381
0.034173883 0.01015763 -0.03454699 -0.016125087 -0.011067083 -0.14841802 -0.043795023 -0.022358842
0.034314718 -0.030205239 -0.025361242 0.040858682 -0.010568536 -0.012460359 -0.024054345 0.025866935
-0.0034402495 0.005286941 -0.085231476 -0.0072741373 -0.08702224 -0.018755717 0.06565188 0.017373072
-0.0006019186 -0.087655105 0.007117145 -0.023056671 -0.045777418 0.062293205 0.008663257 -0.024422778
-0.021175431 0.010829155 0.032179054 0.024672337 0.0787431 -0.018111354 -0.0073947837 -0.021417571
-0.008366541 0.009015974 0.04286418 -0.0034244661 0.03575835 -0.033154346 -0.016392447 0.005419494
-0.06859101 0.016585309 0.0009602123 0.030423038 -0.0022546244 0.036543418 -0.05053595 -0.017098159
-0.03586643 -0.025867237 -0.0018265175 0.008910661 0.0011414454 0.014808485 -0.00027016675 0.0057827127
-0.008594473 0.00478964 -0.055527125 -0.013120254 -0.0013066259 -0.012846755 0.026558354 0.035354815
-0.023063615 0.0032330381 -0.01602457 -0.004213873 0.06173741 -0.043009713 -0.00040533653 0.042346295
-0.012041031 -0.053905845 0.039330754 -0.09092927 0.01071046 -0.01081268 0.04167608 0.01187656
0.027249565 -0.019352239 -0.027857212 0.01231982 -0.038172975 0.004541797 -0.008428866 -0.005970614
0.0046800994 -0.025545066 0.0068228594 0.01044391 0.01289479 0.007050057 -0.009469206 0.009546631
0.075142324 -0.020509752 -0.0059004836 0.0016057935 0.009678727 -0.042922616 -0.0024653529 -0.016141424
-0.017863384 0.02392357 0.02347741 0.028144304 -0.0018104028 -0.02463511 -0.01883747 -0.00015993284
-0.019241799 -0.019935023 -0.041041784 0.00595359 -0.030956464 0.006158088 -0.061041333 -0.057057418
0.00083087134 0.007768337 0.014398312 -0.005470943 -0.0015341695 0.04915732 -0.010548156 0.01408898
