emb_cache_v2/b3bff596777053ae635599a2bfc047a0.npz (npz, 21065 bytes, 1 tensors)

vectors f4 [6, 768]
0	0x3cfcd350	0.03086248
1	0x3c81752a	0.015802938
2	0xbb6c1052	-0.003602047
3	0x3d4bed62	0.049786933
4	0xbd21d01b	-0.039505105
5	0xbcf7340e	-0.030176189
6	0x3d0c3774	0.03423257
7	0xbca67274	-0.020318247
8	0xbcaecf23	-0.021339005
9	0x3cb2a5c7	0.021807564
10	0xbc94785c	-0.018123798
11	0xbd8424b8	-0.06452316
12	0x3cf55e94	0.029952325
13	0xbb72d452	-0.0037052822
14	0x3ba6ec5e	0.005094095
15	0x3cede829	0.029041367
16	0xbc267933	-0.010160732
17	0xbb87f529	-0.0041490984
18	0x3ca9b70e	0.02071717
19	0x3d1cb806	0.038261436
20	0xbcede399	-0.029039191
21	0x3ca5fd39	0.020262348
22	0xbd4bb790	-0.049735606
23	0x3b81348d	0.003943032
24	0x3c7d3666	0.015454864
25	0x3d8d5657	0.06901234
26	0x3cac9d26	0.021071028
27	0x3bcad200	0.0061895847
28	0xbd97f99c	-0.07420656
29	0xbd3dac0a	-0.046306647
30	0x3d13cfee	0.03608697
31	0xbc5eea63	-0.013605687
32	0x3d2804b5	0.041020114
33	0x3b8c3032	0.0042782063
34	0xbc8aea2b	-0.016957363
35	0xbd09b9c4	-0.033624426
36	0x3d138767	0.0360178
37	0xbcf77437	-0.030206783
38	0xbcb0067b	-0.021487465
39	0x3cdc902e	0.026924219
40	0x3bf3ce4d	0.0074403645
41	0x3d965efa	0.07342334
42	0xbccfb553	-0.025355017
43	0x3c05b23a	0.008160168
44	0xbd6a3e95	-0.05718859
45	0xbd990920	-0.074724436
46	0x3cdda88d	0.02705791
47	0xbbbf89d5	-0.0058452883
48	0xbca9f887	-0.02074839
49	0x3daa9a0d	0.08330164
50	0x3d06e55e	0.032933585
51	0xbd4b6de5	-0.04966535
52	0x3d1411e1	0.036149863
53	0xbccb7206	-0.024834644
54	0xbc00dcd4	-0.0078651495
55	0xbcac92c0	-0.02106607
56	0xbcad0649	-0.021121161
57	0x3ca96a07	0.02068044
58	0x3d32952e	0.0435993
59	0x3ccb4b48	0.02481617
60	0xbd2582ac	-0.04040782
61	0xbad038e5	-0.0015886097
62	0xbc97e037	-0.018539531
63	0x3b8e67de	0.004345878
64	0xbdaee7d0	-0.085403085
65	0xbc67c7e3	-0.014146778
66	0xbc618f12	-0.013767021
67	0x3d7d1d73	0.061795663
68	0x3d89a4a2	0.06720854
69	0xbca82257	-0.020524187
70	0x3d2ed432	0.042682834
71	0x3b444f9f	0.0029954684
72	0x3cab7720	0.020930827
73	0x3cfb72cb	0.030694386
74	0x3d641449	0.055683408
75	0xbcc5a60d	-0.02412703
76	0x3a225dec	0.0006193805
77	0x3d66b210	0.056322157
78	0x3b8536b4	0.004065359
79	0x3d13f60b	0.036123317
80	0x3d22c570	0.039739072
81	0x3da2fc0a	0.07958229
82	0xbd81872d	-0.06324611
83	0xbc4ea615	-0.012612839
84	0xbb26fbc9	-0.0025479665
85	0x3aa934bd	0.0012909394
86	0xbc9577ca	-0.018245596
87	0x3cf36759	0.029712366
88	0xbc9c60f0	-0.019089192
89	0xbc91b778	-0.01778768
90	0x3cba0a73	0.02271006
91	0x3b536489	0.0032255969
92	0x3daa1c83	0.083062194
93	0xbb5374e3	-0.0032265715
94	0x3bb59332	0.0055412287
95	0x3cce57b3	0.025188303
96	0x3d1dec82	0.03855563
97	0xbd2c002b	-0.041992348
98	0x3c917815	0.017757455
99	0xbdb5396e	-0.088488445
100	0x3d067502	0.03282643
101	0x3c902bf9	0.017599093
102	0xbd92e27a	-0.07172103
103	0x3b1e6ee9	0.0024174994
104	0xbcea6572	-0.028612826
105	0x3d084d13	0.03327663
106	0x3d24b63f	0.040212866
107	0xbd3e30a1	-0.046433095
108	0x3d7d924b	0.061907094
109	0x3d704f12	0.058669157
110	0x3c6dd83b	0.014516885
111	0x3d32b7f5	0.043632466
112	0x3cb9c25a	0.022675682
113	0x3c836c7b	0.016042938
114	0xbd71a672	-0.058996625
115	0x3cf61868	0.030040935
116	0xbd3ac506	-0.045598052
117	0xbb4b0ec6	-0.0030984147
118	0x3cca29c7	0.024678124
119	0x3c40d22b	0.011768858
120	0xbb1d0640	-0.0023960024
121	0x3c13c6e0	0.009019583
122	0xbd630ab4	-0.05543013
123	0x3d0e14ea	0.034687914
124	0xbc87bfac	-0.016570888
125	0xbdf1821f	-0.11792397
126	0xbc4cb26c	-0.012493711
127	0xbc4a285c	-0.012338724
128	0x3ced049c	0.028932862
129	0xbc944d3e	-0.018103238
130	0x3bed96a5	0.0072506242
131	0x3cd5fabc	0.026120536
132	0xbc4de579	-0.012566918
133	0xbc468ef5	-0.012119045
134	0x3cb52955	0.022114435
135	0x3da8d6ac	0.082440704
136	0x3cb3945d	0.021921331
137	0xbc70029a	-0.014649058
138	0x3ca78aa5	0.020451853
139	0x3ce7ded5	0.028304497
140	0xb952578f	-0.00020059779
141	0xbc176382	-0.009240033
142	0xbca275f5	-0.019831637
143	0x3ce6be15	0.02816681
144	0x3c1223a6	0.008919632
145	0xbd3acf1c	-0.04560767
146	0xbd47d1d7	-0.048784103
147	0xbc9810ff	-0.018562792
148	0x3c150584	0.009095553
149	0x3d6dd8bc	0.058068022
150	0x3ced6632	0.028979395
151	0xbc98ba37	-0.018643482
152	0x3cbf5e84	0.023360498
153	0xbbeaf430	-0.0071702227
154	0x3d04c8fd	0.03241824
155	0x3bdacf71	0.006677561
156	0xbb96152c	-0.0045801606
157	0xbc2037d7	-0.009778938
158	0x3cb89e2c	0.02253636
159	0xbd0c5cde	-0.034268253
160	0x3c6c79ae	0.014433308
161	0x3d296d94	0.041364267
162	0x3d65b053	0.05607636
163	0xbcafd2dd	-0.021462852
164	0x3d4239fc	0.04741858
165	0xbda09fd3	-0.07842984
166	0x3d8aa879	0.06770415
167	0xbbeeab2c	-0.007283589
168	0xbda70ecf	-0.081571214
169	0x3d90bd49	0.07067353
170	0xbcb78a7d	-0.022404904
171	0xbd198fb9	-0.03749058
172	0xbcbac9ca	-0.022801299
173	0x3c2ec1c0	0.010666311
174	0xbd4ffa9a	-0.0507761
175	0x3c395a75	0.011313071
176	0xbd9b666e	-0.07587896
177	0x3ce5222c	0.027970396
178	0xbd23f71e	-0.04003059
179	0xbd98874e	-0.07447682
180	0x3d75ccec	0.06000988
181	0x3d309911	0.043114726
182	0xbcdbe062	-0.026840393
183	0x3983ea98	0.00025161053
184	0x3c9b2422	0.018938128
185	0x3cd03a29	0.025418358
186	0x3c8c0995	0.017094413
187	0xbb812c70	-0.003942065
188	0xbbaa29c8	-0.005192969
189	0xbca8d764	-0.020610519
190	0x3d13cb48	0.036082536
191	0xbb1e14b2	-0.0024121222
192	0xbd69c10e	-0.057068877
193	0x3ba98aba	0.005174008
194	0x3c42964e	0.011876656
195	0xbcd03f70	-0.025420874
196	0x3d2ae299	0.041720007
197	0xbd1744b9	-0.036930773
198	0xbc6c2646	-0.014413422
199	0xbceb5f22	-0.028731886
200	0xbbc167ee	-0.005902282
201	0xbd8330c7	-0.06405788
202	0xbc87a035	-0.016555885
203	0xbe16a4f8	-0.14711368
204	0x3cbbd329	0.022927837
205	0xbca292a3	-0.019845312
206	0xbc903d17	-0.017607255
207	0x3d38e90d	0.04514413
208	0xbd267def	-0.040647443
209	0x3c6f6ba4	0.014613066
210	0xbdac0b37	-0.084005766
211	0x3d2f3449	0.042774472
212	0xbc52df1d	-0.012870577
213	0x3c0c5da8	0.008567251
214	0xbc9c3fcf	-0.019073395
215	0xbc00e3d6	-0.00786682
216	0x3d0fd580	0.03511572
217	0xbc1ffb9c	-0.009764578
218	0xbca0aefd	-0.01961469
219	0x3d35c536	0.044377528
220	0x3c8696b7	0.016429288
221	0x3ce70e11	0.02820495
222	0xb9e4a504	-0.00043610495
223	0xbc5ebe0b	-0.013595114
224	0x3c0920c7	0.008369631
225	0xbcc2a14c	-0.023758553
226	0xbd38ee03	-0.04514886
227	0xbc8e5a03	-0.017376905
228	0x3cd1c1f3	0.025605178
229	0xbcdfa6d9	-0.027301239
230	0xba9d101a	-0.0011982948
231	0xbca5bc3c	-0.020231359
232	0xbcccc2a5	-0.024995157
233	0x3bf5c50e	0.0075002974
234	0xbbd9d657	-0.0066478658
235	0x3bbb9fa6	0.0057258187
236	0xbd1d4dcf	-0.038404282
237	0xbc73097f	-0.014833807
238	0xbc93c4a4	-0.018038101
239	0xbb9941c7	-0.0046770307
240	0x3cbc6f8a	0.023002405
241	0x3c8d3e6b	0.017241677
242	0xbd900c5e	-0.07033609
243	0xbcdafa0c	-0.02673056
244	0x3cd50530	0.02600345
245	0x3d8bdc73	0.06829157
246	0xbce7d907	-0.028301729
247	0xbc8eb87b	-0.017421952
248	0x3cf492a5	0.029855082
249	0x3bfbfefd	0.007690309
250	0x3bb85b3f	0.0056261118
251	0x3cf6abbe	0.03011119
252	0x3c225086	0.009906894
253	0x3d0d7b7a	0.034541585
254	0xbd349952	-0.04409153
255	0xbdb5219b	-0.088443
