emb_cache_v2/b51521300948727c04d477823eaa6a4d.npz (npz, 80597 bytes, 1 tensors)

vectors f4 [24, 768]
000000 c0 96 3d 3c 43 71 3f bd bb ba 9b 3b 7a 8e 80 3d
       0.011571586 -0.046738874 0.0047524846 0.06277175
000010 18 5d 0e bd 1a 99 ae bc 6b 65 6a 3c 4e 10 84 bb
       -0.03475675 -0.021313239 0.0143064065 -0.004030264
000020 40 ed 0b bd 35 42 f9 3c 0e d7 f2 3c c3 44 42 bd
       -0.034161806 0.030427078 0.029643562 -0.047428858
000030 cc 5c 0c bc fb 20 a3 bc e9 2d eb bc b3 df 93 b9
       -0.008567046 -0.019913187 -0.028708415 -0.00028204694
000040 08 bc 84 bc 86 ed ca 3c e4 ce d4 3b fa fd d2 3c
       -0.016202942 0.024771463 0.00649439 0.025755871
000050 bd b3 c1 3b d7 ce a7 3c 37 40 64 bc 78 2f 7e 3c
       0.005911319 0.020484371 -0.013931326 0.015514247
000060 01 7b 30 3d 04 11 59 3d 70 11 6f 3c 12 7c 1f 3d
       0.043086056 0.052994743 0.01459156 0.038936682
000070 61 14 8b bd 8e be 64 bd de 24 35 3d 24 7a ec 3b
       -0.06790996 -0.05584579 0.044224612 0.0072167087
000080 40 4a b7 3d 10 a0 8e bc 6d aa e1 bb b8 e7 63 bd
       0.08949709 -0.017410308 -0.0068867714 -0.055640906
000090 eb 89 fd 3c 1b 80 b7 bc bf bd f0 bc 74 64 04 3d
       0.030949553 -0.022399953 -0.029387353 0.032322362
0000a0 26 33 5b bd 31 a7 55 3d e3 a3 2c bc 70 e3 03 ba
       -0.053515576 0.0521614 -0.0105371205 -0.0005031144
0000b0 61 f6 1f bd 6d b8 b8 3c 97 08 49 bc 32 fb 57 3c
       -0.039053325 0.022548879 -0.012270114 0.013182448
0000c0 55 30 af bc a9 0b 4f 3d 04 a5 1c 3d 92 69 c1 bb
       -0.021385351 0.05054823 0.03824331 -0.0059024775
0000d0 31 47 da 3c ba 29 58 bc e8 a7 86 3d 28 a6 21 bd
       0.026645275 -0.013193542 0.06574994 -0.0394651
0000e0 7b 8f 0b bd 41 2c 58 bd 2f f5 40 3d e9 9b 05 bc
       -0.03407238 -0.05277658 0.047108825 -0.008154848
0000f0 73 62 28 3d ea a8 e8 bb 7f 0a ed 39 49 90 9d bb
       0.041109513 -0.0071002143 0.00045211983 -0.00480846
000100 18 ef 73 bd 6c 12 b6 bb 8c 55 47 bc a9 cb 8c 3d
       -0.05955419 -0.0055563953 -0.012166392 0.068747826
000110 bb 20 45 3c 9e 3f 06 bd 10 05 1a 3c 72 ac a9 3c
       0.012031729 -0.032775514 0.009400621 0.020712111
000120 ad 4d c3 3a ff ab f0 3c aa 50 7a 3c 1c ee 35 bd
       0.0014900469 0.02937889 0.015278021 -0.044416532
000130 ec f7 18 3d 33 f1 a3 bc 82 e2 98 bb b5 f4 1d 3d
       0.03734581 -0.020012474 -0.0046656737 0.03856345
000140 ff 46 c7 3d 84 aa 93 3d 9e db 92 bd 00 d4 fe b9
       0.09730338 0.07210258 -0.07170795 -0.00048604608
000150 ec d0 97 bc 24 e8 14 bc b7 d6 1c bd b7 c8 45 bc
       -0.018532239 -0.00908855 -0.038290706 -0.01207178
000160 2e fc 3c bc 09 60 22 bd 48 b8 68 3d e3 7e 3c bc
       -0.011534734 -0.039642368 0.05681637 -0.0115048615
000170 04 44 27 3d d8 54 0c bd 23 5d 31 3d af 35 f7 bb
       0.04083635 -0.0342606 0.043301713 -0.0075442414
000180 a2 20 4f 3d e9 56 e2 bd 4e 6d c8 bc 16 29 7e bd
       0.05056823 -0.11051733 -0.024466183 -0.0620509
000190 be 99 a7 3d 2b 28 0e 3c 79 af 39 bd 7b 6d 89 bb
       0.08183621 0.008676569 -0.04533336 -0.0041939593
0001a0 8a 75 ae bc c5 ed b3 3d 86 bc 63 39 8d bf 1c bd
       -0.021296281 0.08785585 0.00021718637 -0.038268615
0001b0 c3 77 a9 bb a6 e5 3f 3d 1d 8b 12 3d 5f ac ef 3c
       -0.0051717474 0.04684987 0.0357772 0.029256998
0001c0 5e f7 df 3b b6 0e 89 3b 28 99 ee bd e1 4d 5d 3d
       0.0068349084 0.004182662 -0.11650306 0.05402935
0001d0 03 5a 09 bd 3b c8 3d bb 5f 91 af 3c a9 45 6a 3c
       -0.033533107 -0.0028958458 0.021431623 0.014298835
0001e0 8d 31 9a 3d 54 25 8f 3b ef 81 77 bd d3 1f be 3c
       0.07528982 0.0043684635 -0.06042665 0.023208534
0001f0 a2 bc 4d ba 1c 18 da bd e8 04 ab bc f0 83 47 bb
       -0.0007848238 -0.1064913 -0.020876363 -0.003044363
000200 2d 34 80 3d 48 d2 79 bd 29 e5 38 3c 63 b0 51 3d
       0.06259952 -0.060991555 0.011285105 0.051193606
000210 60 5c 84 3c a8 78 1d bd 6d fa 38 bd 4c b3 bf 3d
       0.01615733 -0.038445145 -0.0451607 0.0936037
000220 af f0 5f bc e5 83 0f bd 41 ac 2f bb e0 b7 98 3c
       -0.013668223 -0.035037894 -0.0026805552 0.018642366
000230 9b 75 e5 bc 83 5c a1 bc 6b 4d 10 bc 75 f9 28 ba
       -0.02801018 -0.019697433 -0.00880752 -0.00064458634
000240 31 4b b3 3c 29 fb fd bc 2e 34 43 bd ba 61 2d bd
       0.02188644 -0.031003552 -0.047657184 -0.042329527
000250 fc 56 40 3b 34 c2 0f 3d 89 d1 2f 3c e2 ae 12 bd
       0.0029348722 0.035097316 0.010731109 -0.035811312
000260 87 19 89 3c c6 ab f1 bc 28 b2 c0 3c 65 77 02 3d
       0.016735805 -0.029500853 0.023522452 0.031852145
000270 27 f4 36 3d 3f 32 c0 bc cc 85 11 3d ac a4 05 bd
       0.044666436 -0.02346146 0.03552799 -0.032627746
000280 74 b7 10 3d 41 99 fd bb ee 2c 04 3c 40 6c 3e 3c
       0.035331205 -0.0077392166 0.008067353 0.0116224885
000290 a6 5e 19 3d bb 45 51 bd 29 f3 8c 3d b1 0e 12 bc
       0.03744378 -0.05109189 0.068823166 -0.0089146355
0002a0 69 20 c8 bd f7 c8 6d 3d 30 15 ce bc db 02 f0 3b
       -0.09771807 0.058052983 -0.025156587 0.007324559
0002b0 bb a8 55 bc b9 61 09 bc 4d 66 3f bd 31 eb 24 3d
       -0.013040717 -0.008385115 -0.04672842 0.04026336
0002c0 b0 98 4a 3b a9 84 a7 3b 94 4e 25 3d ac 38 74 bd
       0.0030913763 0.00511225 0.04035814 -0.05962436
0002d0 3c 2c 81 bc 1f 58 7a 3d 6c 40 21 3d 4d 6a 31 bd
       -0.015768163 0.061119195 0.039368078 -0.043314267
0002e0 9e 25 15 bd 0b 30 a2 bc 35 de cc bc 3c 9d 20 bb
       -0.036412828 -0.0197983 -0.0250083 -0.0024507781
0002f0 68 d9 fb bb c5 58 6b bd 2d 2e 6e 3c 51 f4 1b 3b
       -0.007685829 -0.057457704 0.014537376 0.0023796747
000300 f9 26 30 bd e0 03 02 bc 89 06 c3 3b 99 09 1d bc
       -0.043005917 -0.007935494 0.005951707 -0.009584808
000310 15 80 5b 3d 20 65 ed 3b ec eb fa ba 50 25 1f bc
       0.053588945 0.007244721 -0.0019143797 -0.009713486
000320 7c 8e d3 3b 07 33 1a bd 4f 01 09 3d dc 14 9f bd
       0.0064561944 -0.03764632 0.033448514 -0.077676505
000330 a2 43 c2 bb ae bf b8 bb 7f 11 0f 3d 7b 91 f9 3c
       -0.0059284726 -0.0056380844 0.034928795 0.030464878
000340 27 a4 50 bc c8 6c bc 3c 8d a7 da bc 8e 5e f9 3c
       -0.0127344495 0.02300109 -0.026691223 0.030440595
000350 29 92 bb bc d9 d2 d6 3b aa cf 52 bc 08 3c 8c 3c
       -0.022896843 0.0065558967 -0.012866894 0.017118469
000360 a4 4b e0 3b 77 a1 b2 3c ef 15 24 bc 9e d7 63 3c
       0.0068449546 0.021805508 -0.010014995 0.013906388
000370 39 a3 81 3b df d1 16 bd d3 ed 69 3b 96 a9 63 bc
       0.0039562252 -0.036821242 0.0035694733 -0.013895413
000380 8c 0c c7 bc 7b f8 ea bc bc 6c 31 bd 43 dc 81 bb
       -0.024297975 -0.028682938 -0.043316588 -0.003963025
000390 53 4b e3 3c b6 a8 a0 3c c7 36 b8 3c 53 c8 32 bd
       0.027745878 0.019611698 0.022487057 -0.043648075
0003a0 c4 ad 84 3b a5 57 9a 3b 50 20 4f 3d 1d 24 86 3c
       0.004049035 0.004710155 0.050567925 0.016374642
0003b0 91 cf 1b bd a5 a4 05 bd c1 60 58 bd 23 06 30 3a
       -0.038039748 -0.03262772 -0.052826647 0.00067147816
0003c0 db a0 ad bb 1a 93 eb bc c7 58 74 bd 7e 66 cc 3b
       -0.0052987165 -0.028756667 -0.059654977 0.006237804
0003d0 dd 77 e5 bc 33 f8 d6 3c 4a f8 3e bd 3b ed 60 bc
       -0.028011257 0.026241397 -0.046623506 -0.013728435
0003e0 ee 84 0c 3c 56 3b f9 3c a6 76 d0 3b 81 84 ad bc
       0.008576615 0.030423801 0.0063618002 -0.021181347
0003f0 3f 3f 5e 3c b5 63 c4 3b 6a ff 42 bd 29 1d 16 bc
       0.013564884 0.0059933313 -0.047606863 -0.009162226
