emb_cache_v2/b5eed6e17ad3ef87a8ec4a5b446abd8b.npz (npz, 51506 bytes, 1 tensors)

vectors f4 [15, 768]
000000 cf b4 43 3c bd 42 05 3c db 08 aa bb 5a 92 80 3d
       0.011944964 0.008133587 -0.005189044 0.06277914
000010 46 85 b3 bc 2a b1 d1 bc b3 b3 0f bc 2f 83 00 3c
       -0.021914136 -0.025597174 -0.008770871 0.007843777
000020 9a 98 13 bd 84 72 7c 3c 3e 06 7c 3c c7 b3 08 bc
       -0.036034204 0.015408162 0.015382348 -0.0083436435
000030 0a 96 f2 3b c4 e2 6e bc c2 3e ac bb ba 87 9f bb
       0.00740314 -0.014580432 -0.0052565048 -0.004868475
000040 2c af 30 bd 5e e7 3e 3d 7a c6 a7 bc 10 9c 49 3d
       -0.043135807 0.046607368 -0.020480383 0.0492211
000050 95 40 75 bc 3b 3f 82 bc af ad 31 bc e8 11 47 3b
       -0.014969011 -0.015899291 -0.010844632 0.0030375663
000060 10 78 69 3b db e2 42 3d 56 29 4a bc 3e 88 1e 3d
       0.0035624541 0.047579627 -0.012338957 0.03870415
000070 08 00 82 bd 7f 20 e3 bd db b7 cc 3c 1d 84 e0 ba
       -0.06347662 -0.110901825 0.024990013 -0.0017129217
000080 52 97 8c 3d a3 bf 35 bc 1c c1 3a bc 49 02 89 bd
       0.068647996 -0.011093053 -0.01139858 -0.06689889
000090 50 d0 c3 3c 07 d9 42 bc d2 94 8d bb 3d ba 81 3d
       0.023903042 -0.011892564 -0.0043207193 0.0633435
0000a0 74 60 70 bc 56 d5 1e 3d 27 a2 05 bd db 2d 84 bb
       -0.014671434 0.03877767 -0.032625344 -0.0040337867
0000b0 c6 f2 2e bd 3e df ad bb 7b 91 0b bb 8c 58 c4 bc
       -0.042711996 -0.0053061536 -0.002129643 -0.023968004
0000c0 80 d3 40 bd c7 dd 8e 3d 35 2f e4 3c 15 e4 d2 bc
       -0.047076702 0.069758944 0.027854541 -0.025743524
0000d0 fa 81 e5 3c da d2 1a bd d7 3a 28 3d 39 dd f1 bc
       0.02801608 -0.03779874 0.04107174 -0.029524432
0000e0 83 39 03 bd e9 77 97 3b 94 c5 40 3d 20 5a 19 bd
       -0.03203727 0.0046224487 0.047063425 -0.037439466
0000f0 db 5e 91 3c 11 d5 04 3c 67 f6 a9 bc 61 c2 3d bc
       0.017745426 0.00810744 -0.020747377 -0.011581988
000100 84 90 ec bd c1 5c 76 bb 32 10 80 bd 8b 47 6c 3d
       -0.11551002 -0.0037591907 -0.06253089 0.057685416
000110 fd 95 2d 3d cb e3 c7 3c ad 0a 9a 3d e5 31 bd bc
       0.042379368 0.024400612 0.075215675 -0.02309508
000120 9a bb 7e 3c e3 bf 4a 3d 24 12 25 3d 67 78 6e bd
       0.015547657 0.049499404 0.040300503 -0.058220293
000130 32 bf 74 3c ce 99 2c 3c b6 70 f5 3b 39 b3 2d 3d
       0.014938163 0.010534717 0.007490243 0.04240725
000140 a0 a3 86 3d c8 62 9b 3d 56 0f 97 bd bf e3 50 3c
       0.06574178 0.075872004 -0.07375972 0.012749611
000150 6d cc ce bc 13 b0 6e 3b fe e3 12 bc 3d c7 81 bc
       -0.025243962 0.0036420866 -0.00896549 -0.015842075
000160 b1 51 96 bc 05 37 09 bd 0e 1c d7 3d 34 3b bd 3a
       -0.0183495 -0.033499736 0.10503398 0.00144372
000170 37 32 ff 3c 13 37 70 3b 6a 2e 0b 3d f2 15 bd 3c
       0.031151874 0.003665392 0.03397981 0.023081753
000180 fa b9 d2 3c eb 20 0f bd 2b b4 da 3a b3 61 94 bd
       0.025723446 -0.034943502 0.0016685774 -0.07245197
000190 15 93 c8 3c 73 2b 8c 3b 26 d0 cf bc 3f 66 b5 bc
       0.024484197 0.0042776405 -0.025367808 -0.022143481
0001a0 22 1d 3b bd cf dd 87 3d bc d4 ad bc f6 a4 e8 ba
       -0.04568208 0.066341035 -0.021219604 -0.0017749358
0001b0 40 68 12 3d 97 36 52 3c 72 50 1b 3d a9 52 00 3d
       0.03574395 0.012830398 0.037918516 0.03132883
0001c0 75 54 f9 3c 16 33 4b bb 1e 32 ad bd 3f 9a 9a 3d
       0.03043578 -0.0031005791 -0.08456825 0.07548951
0001d0 c1 88 f0 bc d0 6e c5 3c 4c 0e 86 37 f7 9a 26 3c
       -0.029362084 0.024100691 1.5980702e-05 0.010168782
0001e0 7a de 88 bd c1 1f 7f 3c bb 06 98 bc 2a a3 27 bb
       -0.06683059 0.015571536 -0.018557897 -0.002557943
0001f0 06 17 81 bc c0 02 f2 bd 2c 21 9b bc 49 49 50 3a
       -0.015758049 -0.11816931 -0.018936716 0.00079454907
000200 a8 02 49 3d c3 84 97 bd f5 e3 a5 bc a8 ce 1e 3d
       0.0490748 -0.07398369 -0.0202503 0.0387713
000210 df 87 24 bc 83 df 26 3c ef 97 51 3c 17 df 61 3d
       -0.01004216 0.010185125 0.012792571 0.055144396
000220 9e 40 27 3a aa 8c 2a bb fd 2f d1 bc bd c8 a2 3c
       0.0006380173 -0.0026023784 -0.025535578 0.01987111
000230 f5 00 08 bd c3 ea fb bc df 56 9d bc 3b 68 aa 3b
       -0.033204038 -0.030751592 -0.019206462 0.0052004135
000240 1f f1 e1 3c e7 b6 20 bd 12 13 61 bc 78 4d c3 bc
       0.027580796 -0.03923693 -0.013737457 -0.02384065
000250 44 3f 99 3c a8 6d d2 3c 2a d5 b2 3c 22 91 ea bb
       0.018706925 0.025687054 0.02183016 -0.0071584145
000260 3d 2f 18 3d a6 be da bc 49 85 58 3c fe 70 2f 3c
       0.037154425 -0.026702236 0.013215371 0.010708092
000270 84 ed 74 3d d2 e1 0c bd 7b 06 0f 3d 57 1e aa bc
       0.059796825 -0.034395047 0.03491829 -0.02076642
000280 ab 37 5f 3b 3c f9 a8 39 a4 9c 4b 3c bf 08 7b bc
       0.003406028 0.0003222915 0.012427483 -0.015321909
000290 2b 55 2c 3d 64 6c a7 bc 39 16 24 bd 91 16 3d 3c
       0.04207341 -0.020437427 -0.040060256 0.011541025
0002a0 7a 5e e7 bd ab c7 7c 3d c8 30 0b bd 35 8d 75 bc
       -0.11297317 0.061713856 -0.03398207 -0.01498728
0002b0 5b 96 b6 3a f0 72 77 bb 68 8b 3d bd aa 40 03 3d
       0.0013930307 -0.0037757717 -0.046275526 0.03204409
0002c0 aa cc 35 bd f8 0f 99 3a b6 4d 4b bd b6 e3 fe bc
       -0.044384636 0.0011677733 -0.049634658 -0.03111444
0002d0 29 d5 0c 3c c9 44 ce 3c 56 40 94 bb 10 1a 2c bd
       0.008595743 0.025179284 -0.004524271 -0.042017043
0002e0 ea 4e b7 bc b9 4b e1 3b 80 6e 23 3c a9 93 0d bd
       -0.022376496 0.006875482 0.009975076 -0.034564648
0002f0 93 4a a3 bc 20 19 6b bd c9 e2 f9 3c 9c 97 3d bc
       -0.01993302 -0.057397008 0.030503647 -0.011571791
000300 fe 52 63 bd 3e 89 42 3c b4 a5 eb bb 20 b5 cc bc
       -0.05549907 0.011873541 -0.007191384 -0.02498871
000310 f6 14 60 3d d0 8c 63 bd 66 f3 c9 3c a1 1a 61 bc
       0.05470749 -0.05555421 0.024652194 -0.013739259
000320 1c 0b e1 ba 17 2c 9a bd ef 41 24 3d 45 71 bb bd
       -0.0017169449 -0.07527941 0.04010194 -0.09152464
000330 a3 c9 14 3c 58 b4 24 3c e6 54 ae bc 3a e8 b2 3c
       0.009081277 0.010052763 -0.021280717 0.02183925
000340 19 20 c7 bc 94 f5 a1 3c 58 b8 ad bd 39 4e 05 3c
       -0.024307298 0.019770421 -0.084824264 0.0081363255
000350 d1 ca f1 bc 9b a3 bc 3c 89 65 bb bc 94 ac e3 3c
       -0.029515656 0.023027232 -0.022875564 0.027792253
000360 95 b5 69 3b a9 b6 eb bb 7a 94 9e bc 2b fc 25 3d
       0.003566121 -0.0071934056 -0.019357909 0.04052369
000370 70 a7 e8 3c c3 c3 1d 3d c5 d8 e1 bc 6f a3 c9 bc
       0.028400153 0.03851677 -0.027569184 -0.024614064
000380 de 9b 9b 3d 3c 25 25 3c a5 70 c2 bc 8e 30 43 3c
       0.07598089 0.010079678 -0.023735354 0.011913432
000390 98 3c 94 3c 06 8c bf bc ec 43 f3 3c 4c 39 c9 bc
       0.0180953 -0.023382198 0.029695474 -0.024563454
0003a0 0c ea 3a bc 54 6a 60 3c 8b e5 43 3d d3 ca f1 3c
       -0.01140834 0.013697226 0.04782633 0.02951566
0003b0 32 5d 4e 3c 80 54 40 bd e2 78 73 bb 45 7c 6b bd
       0.012595462 -0.046955585 -0.003715091 -0.05749156
0003c0 e2 01 ce 3c 60 8c 3c 3b 64 33 f3 bc 22 70 09 3c
       0.025147382 0.0028770193 -0.02968759 0.008388551
0003d0 b8 d9 77 b9 0a 14 fd 3c 06 9e 5d 3c 76 d9 72 bc
       -0.00023636862 0.030893344 0.013526445 -0.014822355
0003e0 c7 7c d2 3c 28 d9 ed 3c c9 39 96 3c ce ca 94 bc
       0.025694264 0.029034212 0.018338101 -0.018163111
0003f0 c5 22 f1 bb 9a d5 57 3d 88 ed e2 bc d0 16 ea 3c
       -0.007358881 0.05269394 -0.027701154 0.028575331
