emb_cache_v2/b6d19bfe803436ffd11c2a2388a4b56a.npz (npz, 64865 bytes, 1 tensors)

vectors f4 [19, 768]
0.035166726 -0.01091976 0.015896676 0.048218075 -0.08359649 -0.05985587 0.018985998 -0.014309566
0.06293771 0.038886946 -0.01643349 0.10239443 0.021151291 -0.038228717 -0.008731139 -0.013640594
-0.0008400237 0.037276212 0.0710648 0.04035039 0.012488422 0.012995708 -0.053139314 0.029460605
-0.06835384 0.021314016 0.011324194 0.024506975 -0.05192068 -0.106848165 -0.029236061 -0.004922601
0.06003899 0.0017684506 -0.007165048 -0.011563852 0.014795951 -0.004637492 -0.009468417 0.048041865
0.018466417 0.03884217 -0.025036601 -0.009249362 0.026631966 0.015255447 -0.0018397077 0.029378694
-0.018285971 0.04392381 0.019582544 -0.054108527 0.026195632 0.027288085 0.018469011 -0.023949867
-0.021447606 0.039770693 0.08796757 -0.005246115 -0.053158578 0.015585064 -0.0010649798 -0.058140725
-0.075821504 0.0009216019 -0.044883937 0.016801836 0.069383316 -0.02682172 0.006591469 -0.032688968
0.034016483 0.011109489 0.04071117 0.006294865 0.061539702 0.012237344 -0.01601603 0.013579864
0.053986948 0.07850616 -0.063670225 -0.033758625 0.020878147 0.03944192 0.010666956 -0.010060365
0.0068981 -0.028306777 0.06412858 0.0025010845 0.0157569 -0.008932806 0.04260774 0.00981382
0.02278191 -0.06526224 0.008543964 -0.116918735 -0.008064398 0.0025198844 -0.05637854 -0.0030141461
0.0018496432 0.0799479 0.042868014 -0.011870383 0.014476544 0.017034693 0.0035851086 0.019137379
-0.0047637196 -0.010551727 -0.09457232 0.033163805 -0.009930317 0.034877613 0.0004526585 0.007341037
0.03383266 0.025371198 -0.009608398 0.0024179781 0.005674904 -0.083812885 -0.031046413 -0.031286947
0.018670242 -0.032638438 -0.021184158 0.08082174 -0.008780654 -0.03270807 -0.013803756 0.06491987
-0.021222468 0.018757932 -0.011148269 0.0010885072 -0.05736471 -0.0051752767 -0.040297125 -0.010220382
0.022827607 -0.043735687 -0.039210793 -0.022891397 0.002106361 0.050508857 -0.0153705515 -0.004259204
0.04366197 -0.028402638 0.012231203 -0.000854224 0.02059782 -0.005267295 -0.003392396 -0.048322476
0.02212649 -0.015639672 0.06509168 0.0034076301 0.013295902 -0.0719676 -0.01417502 0.0067750667
-0.027186409 0.03272685 -0.0073127504 -0.037195064 -0.018717136 0.037209656 -0.036008697 0.025721727
-0.019999636 -0.036632895 -0.0264187 -0.0040146746 -0.018658835 0.046205938 -0.028152015 -0.032572657
-0.07539891 0.022648241 -0.0025358058 -0.038855385 -0.024724169 0.034577858 0.028742496 0.0038568438
-0.018643452 0.009595441 -0.006464169 -0.0076384787 0.030972585 0.0017907682 0.019907776 0.012029129
0.009992255 -0.059877887 0.00093221193 -0.11773603 0.0049012424 -0.005375673 -0.021600911 0.03332327
-0.020198157 -0.026865408 -0.05261602 -0.004480811 0.0012899591 0.045924053 -0.017114466 0.020651447
0.031067798 -0.0045632925 -0.030562043 0.018184254 0.0002229401 -0.037339237 -0.00417508 -0.030746859
0.0052270703 -0.030659493 -0.018847898 -0.03940447 0.026663749 -0.03935911 -0.0034675475 -0.0058622165
-0.011207697 0.024664689 0.047714 0.065366276 0.019324893 -0.1097391 -0.06790515 -0.03278142
0.02342743 -0.02524737 -0.06727096 -0.026257776 -0.023024015 0.025582664 -0.07574773 -0.025885632
-0.0057183853 -0.002981551 -0.05450212 0.005128634 0.024545107 0.069221385 -0.03168355 -0.06394813
00000000: fc0a 103d cbe8 32bc bf39 823c 5180 453d
00000010: a334 abbd 6e2b 75bd 8688 9b3c ab72 6abc
00000020: 7ce5 803d eb47 1f3d 879f 86bc 2cb4 d13d
00000030: 7945 ad3c b795 1cbd 0d0d 0fbc cc7c 5fbc
00000040: 0935 5cba f1ae 183d 6c8a 913d 7346 253d
00000050: 3d9c 4c3c f3eb 543c 9ca8 59bd 5e57 f13c
00000060: 19fd 8bbd bb9a ae3c 1d89 393c dac2 c83c
00000070: c7aa 54bd 36d3 dabd 7780 efbc c54d a1bb
00000080: 72eb 753d 5bcb e73a c7c8 eabb 5076 3dbc
00000090: b76a 723c 1af6 97bb 6b21 1bbc 8cc7 443d
000000a0: e246 973c f818 1f3d 8f19 cdbc a38a 17bc
000000b0: 482b da3c fbf1 793c 5922 f1ba 96ab f03c
000000c0: 76cc 95bc 74e9 333d 926b a03c e7a0 5dbd
000000d0: 3998 d63c 438b df3c 534c 973c 8332 c4bc
000000e0: e4b2 afbc 98e6 223d 5728 b43d 9ae7 abbb
000000f0: cfbc 59bd 7f58 7f3c cb96 8bba f824 6ebd
00000100: 4e48 9bbd a897 713a 38d8 37bd 01a4 893c
00000110: d718 8e3d 39b9 dbbc 40fd d73b dee4 05bd
00000120: de54 0b3d 9304 363c c1c0 263d 2845 ce3b
00000130: 0e11 7c3d 247f 483c 0d34 83bc 147e 5e3c
00000140: 6b21 5d3d d6c7 a03d 8965 82bd 7c46 0abd
00000150: a608 ab3c da8d 213d 75c4 2e3c 3bd4 24bc
00000160: 7509 e23b 9de3 e7bc d855 833d 3ce9 233b
00000170: 9d14 813c e75a 12bc 7485 2e3d 25ca 203c
00000180: 21a1 ba3c 36a8 85bd fbfb 0b3c 1773 efbd
00000190: 8920 04bc a524 253b 2fed 66bd fb88 45bb
000001a0: ba6f f23a b9bb a33d 5f96 2f3d ff7b 42bc
000001b0: 072f 6d3c 578c 8b3c 24f4 6a3b fec5 9c3c
000001c0: fa18 9cbb 27e1 2cbc 22af c1bd c5d6 073d
000001d0: c5b2 22bc d4db 0e3d cc52 ed39 158d f03b
000001e0: 1e94 0a3d 42d7 cf3c 8b6c 1dbc f176 1e3b
000001f0: 8cf4 b93b 17a6 abbd 0c55 febc be26 00bd
00000200: 56f2 983c e2af 05bd 668a adbc de85 a53d
00000210: bbdc 0fbc e6f8 05bd 2629 62bc b5f4 843d
00000220: beda adbc 3caa 993c 3ba7 36bc 3eac 8e3a
00000230: 42f7 6abd 5e95 a9bb 990e 25bd 6473 27bc
00000240: f600 bb3c 3124 33bd 7f9b 20bd bd86 bbbc
00000250: e00a 0a3b 60e2 4e3d c4d4 7bbc cb90 8bbb
00000260: e5d6 323d a6ac e8bc 6265 483c 01ee 5fba
00000270: c2bc a83c 4699 acbb f652 5ebb caed 45bd
00000280: 9d42 b53c c51e 80bc c94e 853d 8c52 5f3b
00000290: 0ed7 593c c063 93bd 583e 68bc 6101 de3b
000002a0: 08b6 debc 970c 063d cc9f efbb da59 18bd
000002b0: ae54 99bc 2769 183d db7d 13bd 5fb6 d23c
000002c0: 47d6 a3bc 600c 16bd 086c d8bc 888d 83bb
000002d0: 6ada 98bc 7042 3d3d 0e9f e6bc e86a 05bd
000002e0: be6a 9abd ce88 b93c c32f 26bb d326 1fbd
000002f0: 578a cabc 83a1 0d3d 6275 eb3c 1ac3 7c3b
00000300: 27ba 98bc 3236 1d3c 61d1 d3bb 344c fabb
00000310: 38ba fd3c 36b8 ea3a a215 a33c d315 453c
00000320: 8eb6 233c 8442 75bd af5f 743a 961f f1bd
00000330: 9a9a a03b 6a26 b0bb 65f4 b0bc fb7d 083d
00000340: 9b76 a5bc d814 dcbc e583 57bd c4d3 92bb
00000350: d813 a93a dc1a 3c3d a333 8cbc 392d a93c
00000360: e581 fe3c ac87 95bb 405d fabc 25f7 943c
00000370: 07c5 6939 07f1 18bd 1ccf 88bb d6e0 fbbc
00000380: d847 ab3b 9e29 fbbc e866 9abc 9566 21bd
00000390: ef6d da3c 0537 21bd cb3f 63bb d617 c0bb
000003a0: 7da0 37bc 9a0d ca3c c16f 433d c1de 853d
000003b0: 3d4f 9e3c e5be e0bd db11 8bbd cf45 06bd
000003c0: e2ea bf3c 93d3 cebc 5bc5 89bd 8c1a d7bc
000003d0: dc9c bcbc bc92 d13c a021 9bbd 1b0e d4bc
000003e0: 4b61 bbbb 2066 43bb 9d3d 5fbd 1a0e a83b
000003f0: d212 c93c f1c3 8d3d 9cc6 01bd 3df7 82bd
