emb_cache_v2/b6dadbeeabf993daec1495d3a503e679.npz (npz, 196286 bytes, 1 tensors)

vectors f4 [58, 768]
0.025460195 -0.00219841 -0.005967539 0.035680946 -0.080377184 -0.029846761 0.044941746 -0.008284909
0.018960454 0.0014950992 -0.021727972 -0.01599064 0.003007094 -0.009150727 0.014735069 0.049749024
-0.0031739362 0.029821582 -0.038523365 0.015340882 -0.010670118 0.024849417 -0.050373532 0.038030483
-0.040701587 0.020796485 -0.019018592 0.013648738 -0.06156789 -0.05544886 0.046404183 0.026587324
0.08984089 -0.015518201 0.00825794 -0.027560258 0.03933689 -0.0062101693 0.0004697729 0.07071444
0.03834178 0.054565318 -0.031692363 0.0063345325 0.003181562 0.039780594 0.01315316 -0.011736485
-0.006599973 0.07328203 0.028669724 -0.024447607 -0.006442694 -0.014176912 -0.030189207 -0.037091084
-0.008593288 0.08326059 0.05611654 -0.054834872 -0.020029306 -0.0656064 0.015786234 -0.023877922
-0.090430014 0.0044434587 -0.06358472 -0.0020874522 0.055528417 -0.0074076857 0.046518955 -0.023420742
-0.009012594 0.031245606 -0.002968034 0.0048226593 0.045698307 0.0073041306 -0.0057519157 0.06895241
0.07629118 0.08056231 -0.014202917 -0.02455786 0.04336716 -0.007921542 -0.010996021 -0.0014720166
-0.01677979 -0.018340891 0.023099927 -0.033692177 0.04074644 0.0085860975 -0.0063872426 0.01848119
-0.028187979 -0.06591896 0.0058751036 -0.049209297 -0.02441741 0.021828165 -0.03187523 0.0053497087
0.023488563 0.053892512 0.019348316 0.044709977 0.012455937 3.7671653e-05 0.05623645 0.0114221135
0.047174275 0.032229714 -0.092657164 0.010221475 -0.05568915 -0.014925754 0.010242118 -0.014866724
0.029369878 0.011687347 -0.028882928 -0.006302622 0.031370465 -0.08396683 -0.05124809 0.014681716
0.07970194 -0.031589936 0.0055019185 0.042855483 -0.046894938 0.003528263 -0.03840455 0.07874219
-0.03125039 0.012048668 0.017346667 0.007819549 -0.012757138 -0.0104787825 -0.008091255 -0.053798873
0.073318064 -0.04498624 -0.0036015916 -0.073636115 0.007351633 0.03092667 -0.026657784 -0.011250944
-0.012040217 -0.02098688 -0.0036649986 0.031041492 0.020591304 -0.009075477 -0.0014070333 -0.014808746
0.01861358 -0.013481055 0.030962054 0.01695694 -0.02011623 -0.054444905 0.014677759 -0.005017117
-0.120118015 -0.01144268 -0.015136379 -0.009159504 -0.010414181 -0.007769962 -0.0868469 0.03632976
0.057205822 0.00081002404 -0.06681794 -0.0053414744 -0.0074420725 0.020588415 0.014906622 0.005249037
-0.020237423 -0.0008348461 0.0044965176 -0.033941977 -0.006491711 -0.02675511 0.00287663 0.011029496
-0.059656184 0.005821759 1.2721037e-05 0.0082073035 0.07273444 -0.047060795 0.060068164 0.016961427
0.020277604 -0.019258764 0.015774088 -0.12718481 -0.013737454 -0.021404356 -0.0011034431 0.04712961
-0.03075727 0.025968922 0.024756448 -0.007951684 -0.023178324 0.041825853 -0.014723696 0.007473667
0.00873596 0.012256326 -0.025915798 -0.008505477 -0.003868043 -0.017222213 -0.0037937867 -0.004985874
0.0019232315 0.015126415 -0.019928591 -0.030556208 0.018033355 -0.018937308 -0.02149051 -0.012639497
-0.0069980817 0.0012721582 -0.03709126 -0.00027968307 0.051450223 -0.06485485 -0.061295737 -0.03571097
-0.01336992 -0.02644816 -0.05329955 0.030640125 -0.0019200479 0.060561176 -0.01802054 -0.03487432
-0.0037590857 0.040888514 -0.022834452 -0.015933763 0.0026179487 0.02964376 -0.023273718 0.048839573
00000000: e691 d03c 3313 10bb 588b c3bb 2f26 123d
00000010: cb9c a4bd 3281 f4bc d614 383d 6dbd 07bc
00000020: f452 9b3c 34f7 c33a dcfe b1bc cdfe 82bc
00000030: aa12 453b eeec 15bc 5c6b 713c a2c5 4b3d
00000040: d001 50bb 644c f43c adca 1dbd 5358 7b3c
00000050: b8d1 2ebc 0191 cb3c 7a54 4ebd dac5 1b3d
00000060: b5b6 26bd 645d aa3c e1cc 9bbc f59e 5f3c
00000070: 9d2e 7cbd 581e 63bd 5012 3e3d a9cd d93c
00000080: 80fe b73d 0d40 7ebc 504c 073c 0dc6 e1bc
00000090: b81f 213d ad7e cbbb da4b f639 bbd2 903d
000000a0: 450c 1d3d e27f 5f3d dacf 01bd e991 cf3b
000000b0: c181 503b faf0 223d 5a80 573c 634a 40bc
000000c0: 9644 d8bb e414 963d c5dc ea3c 5946 c8bc
000000d0: 3c1d d3bb 4746 68bc 5b4f f7bc d2ec 17bd
000000e0: ddca 0cbc 8784 aa3d 75da 653d 889a 60bd
000000f0: 8014 a4bc a65c 86bd 2252 813c a29b c3bc
00000100: 5f33 b9bd 6f9a 913b b538 82bd a3cd 08bb
00000110: c471 633d 2cbc f2bb a98a 3e3d dbdc bfbc
00000120: 8fa9 13bc c9f6 ff3c 5983 42bb 6607 9e3b
00000130: 262e 3b3d 7d57 ef3b 917a bcbb ec36 8d3d
00000140: 8d3e 9c3d dafd a43d 5ab3 68bc 912d c9bc
00000150: c3a1 313d 5bc9 01bc a828 34bc aef0 c0ba
00000160: c575 89bc a33f 96bc 0f3c bd3c cf00 0abd
00000170: bde5 263d b4ac 0c3c 134c d1bb dd65 973c
00000180: 7aea e6bc 8500 87bd f183 c03b b08f 49bd
00000190: 0507 c8bc fbd0 b23c 9a8f 02bd 9c4c af3b
000001a0: 166b c03c 65be 5c3d 5c80 9e3c cf21 373d
000001b0: fd13 4c3c a101 1e38 3158 663d d123 3b3c
000001c0: d039 413d 4e03 043d 0ac3 bdbd f977 273c
000001d0: 4e1a 64bd 268b 74bc 8ece 273c 8f93 73bc
000001e0: 1999 f03c 497c 3f3c e49b ecbc 3a86 cebb
000001f0: 517e 003d cdf6 abbd 84e9 51bd 958b 703c
00000200: c53a a33d 7364 01bd 7049 b43b 3b89 2f3d
00000210: e814 40bd 6e3a 673b 174e 1dbd 9643 a13d
00000220: 6900 00bd c767 453c 991a 8e3c 911d 003c
00000230: 5103 51bc 33af 2bbc 2f91 04bc 355c 5cbd
00000240: c827 963d 7e43 38bd ae08 6cbb 88ce 96bd
00000250: f8e5 f03b ee59 fd3c 6d61 dabc e155 38bc
00000260: 5544 45bc adec abbc 7930 70bb ba4a fe3c
00000270: 18af a83c 4fb1 14bc 346c b8ba 62a0 72bc
00000280: 827b 983c a5df 5cbc 22a4 fd3c 48e9 8a3c
00000290: cbca a4bc 9f01 5fbd fc7a 703c a166 a4bb
000002a0: 6f00 f6bd 147a 3bbc 93fe 77bc bf11 16bc
000002b0: 3ea0 2abc 2a9b febb cadc b1bd 84ce 143d
000002c0: a750 6a3d cb57 543a d8d7 88bd 8907 afbb
000002d0: a1dc f3bb 09a9 a83c e73a 743c 1d00 ac3b
000002e0: f4c8 a5bc 93d9 5aba 8657 933b be06 0bbd
000002f0: 6bb8 d4bb 882d dbbc d885 3c3b 0fb5 343c
00000300: 0b5a 74bd 74c4 be3b 706c 5537 ed77 063c
00000310: cbf5 943d d2c2 40bd 090a 763d b1f2 8a3c
00000320: 381d a63c 8ec4 9dbc a938 813c bc3c 02be
00000330: 0f13 61bc 3058 afbc 68a1 90ba fa0a 413d
00000340: acf6 fbbc c7bc d43c 09ce ca3c c847 02bc
00000350: 78e0 bdbc 9651 2b3d a83b 71bc aae5 f43b
00000360: 4621 0f3c c2ce 483c 5e4d d4bc 8e5a 0bbc
00000370: fe7e 7dbb 9915 8dbc 2ea1 78bb 8b60 a3bb
00000380: f114 fc3a c8d4 773c 4941 a3bc 0351 fabc
00000390: b0ba 933c 6a22 9bbc de0c b0bc e515 4fbc
000003a0: 2a50 e5bb 8cbe a63a 01ed 17bd 6da2 92b9
000003b0: 78bd 523d 9fd2 84bd 3d11 7bbd ab45 12bd
000003c0: 820d 5bbc d0a9 d8bc a150 5abd 0001 fb3c
000003d0: 1eaa fbba ff0e 783d d09f 93bc 60d8 0ebd
000003e0: fe5a 76bb b77a 273d 510f bbbc 8687 82bc
000003f0: e491 2b3b 78d7 f23c 86a8 bebc 010c 483d
