emb_cache_v2/b6faf9b25fa873f1b36dde85ac640f39.npz (npz, 233646 bytes, 1 tensors)

vectors f4 [68, 768]
000000 a2 e5 6b 3d 89 be 78 bb 7c 59 8b 3c 58 92 ab 3c
       0.05759204 -0.0037955365 0.017010443 0.020943806
000010 ac 7b 81 bd a9 19 49 bd a7 4e 78 3c 7f 85 ee 3b
       -0.06322417 -0.049096737 0.015155471 0.0072790976
000020 a6 d8 1d 3d c1 7b f3 3c 50 ba b3 3c 8a 47 ed bc
       0.03853669 0.029722096 0.021939427 -0.028964777
000030 85 a4 01 3c 05 c1 2e bd 1a 9c d2 3b f3 a5 d3 bc
       0.00791276 -0.042664547 0.0064273 -0.025835967
000040 2a ce 8f bc 91 77 1b 3d ce 5e 74 3c 86 e7 43 3d
       -0.017554361 0.037955824 0.014915181 0.04782822
000050 b9 2c f9 3b 3c 6d 09 3c 46 51 45 bd bc af 35 3d
       0.0076042083 0.00838786 -0.04817321 0.044357046
000060 3c 6b ba 3b 3b 07 53 3d 17 9a bd bb 4a f0 2b 3c
       0.005689053 0.051520567 -0.005786191 0.010494301
000070 a3 c3 9b bd e1 1d 90 bd ae ba 0c 3d 94 00 25 3d
       -0.07605674 -0.07036949 0.03435772 0.040283754
000080 25 9b 6c 3d 30 24 13 3d 3f fe a3 bb 79 b7 15 bd
       0.057765145 0.035923183 -0.0050046737 -0.036551926
000090 cc 1d bd bb 54 d6 ea bc ee ba bd 3b 4a 70 e9 3c
       -0.0057713743 -0.028666653 0.005790106 0.028495926
0000a0 61 69 fe 3b 5a 75 c8 3c 0e cf 2b bd f6 1e 0b bc
       0.007764027 0.02447002 -0.04194551 -0.008491268
0000b0 23 fe fa bc 6a a7 dd bb 5c c5 07 3d f5 03 c4 3c
       -0.03063876 -0.006764342 0.0331472 0.023927668
0000c0 be 02 79 bc 07 e7 1a 3d 42 65 24 3d 68 79 42 3c
       -0.015198408 0.03781798 0.04013563 0.011869766
0000d0 9d 5a 55 3d ba c0 dc bc 0c 91 08 3d ee 5e f7 bc
       0.05208837 -0.026947368 0.033341452 -0.030196633
0000e0 2a 1b 2a bd 58 30 0e 3c c6 a5 48 3d ef 97 2e bc
       -0.041529812 0.008678518 0.04898622 -0.010656341
0000f0 c8 ff cc 3c d3 90 4d bc 44 1e 0c bc a2 14 fd bc
       0.02502431 -0.012546736 -0.008552138 -0.030893628
000100 07 1d b4 bd d4 78 fb ba c8 d7 ca bd 96 0f 7b 3d
       -0.08794599 -0.001918579 -0.09904438 0.06129416
000110 08 9a 73 3d e7 86 92 3c f8 7e 39 3c 71 bb a5 bc
       0.059473068 0.017886592 0.011321776 -0.02023098
000120 e9 74 3e bb 08 4c 81 3c ac 3b fa 3c 65 c6 22 bd
       -0.0029061383 0.015783325 0.030546032 -0.039739985
000130 98 33 15 3d a1 6a d5 3c e8 2e c5 3c 1b fc c3 3c
       0.036426157 0.026051821 0.024070218 0.023923924
000140 80 6a 47 3d b3 c5 cb 3d 34 1b 7a bd 6c c1 91 bc
       0.04868555 0.099498175 -0.0610611 -0.017792426
000150 2e dd 0b 3d 09 63 08 bd 84 d8 c2 ba 9c 38 a2 3b
       0.03414648 -0.033297572 -0.0014865552 0.004950596
000160 9f 52 cc bc 73 cc be bc 18 14 ab 3d a8 ac 46 bc
       -0.02494174 -0.023290848 0.08353442 -0.012126125
000170 ed 40 f6 3b 4e 68 92 bc 37 72 47 3d 74 08 8b 3b
       0.007515064 -0.017872002 0.04869291 0.004242951
000180 13 bc a0 3c c8 1a c2 bd 66 50 33 3c e8 28 67 bd
       0.01962093 -0.09477764 0.010944461 -0.056435496
000190 04 9e 13 3d 40 be c3 3c 4d 3f 94 bd de 0f 06 3c
       0.036039367 0.02389443 -0.07238636 0.008182494
0001a0 93 01 b6 bb 9e 9d e2 3d 0d fe 4c 3c 38 bc 2f 3d
       -0.005554387 0.11065219 0.012511742 0.04290411
0001b0 4c c9 95 3c f4 3e d3 3c d8 d0 f9 3c 2d aa ea 3c
       0.018284462 0.025786854 0.030495092 0.0286456
0001c0 78 c9 e5 3c 17 8e 05 bc 79 9c e1 bd 41 23 9f 3c
       0.02805017 -0.008151553 -0.11016173 0.01942599
0001d0 31 32 42 bd 66 67 a2 3b 00 c1 fb 3c da 78 b4 b9
       -0.047411148 0.0049561737 0.030731678 -0.00034422317
0001e0 85 5a 79 3d 49 2d e5 3c a2 41 69 bd f5 a7 6d bb
       0.06087734 0.027975695 -0.056947358 -0.003626344
0001f0 b7 00 22 3b 05 4e 9c bd ea 83 2c bd f1 0c 89 bc
       0.0024719664 -0.076320685 -0.04211799 -0.016729804
000200 ec d9 35 3d fc a0 2d bd da 8d 39 3b 41 a8 84 3d
       0.04439728 -0.042389855 0.002831331 0.064774044
000210 0f f4 b4 bc ac 59 6f bc e3 f7 f7 bb 59 d4 29 3d
       -0.022089032 -0.014608782 -0.007567392 0.041462276
000220 c0 b8 20 ba 3c a0 29 bc 16 36 1f bd d9 23 2e bc
       -0.00061310455 -0.010353144 -0.03886994 -0.010628664
000230 a2 cb f3 bc 1e 57 83 bc a3 e8 cd bc 49 2b b4 3c
       -0.029760186 -0.016032752 -0.025135344 0.021993296
000240 c7 a9 4f 3d 6c 7a 96 bd 61 65 9b bc de 97 12 3b
       0.05069902 -0.07347569 -0.01896924 0.0022368352
000250 34 ee 40 3c 7d a9 47 3d c5 18 9e bc dd 6c 21 3c
       0.011775542 0.04874562 -0.01929892 0.009852615
000260 f7 84 26 3d 69 e5 ee bc a7 7c 00 ba 12 4d 4c bb
       0.04065415 -0.029162126 -0.0004901387 -0.0031173867
000270 33 e6 ee 3c 05 31 3c 3a 94 37 05 bd d1 6d bc bd
       0.029162502 0.00071789353 -0.032523707 -0.09200633
000280 50 5b d9 bb 37 af cf ba 60 5f ba 3a fd 4e 82 3c
       -0.0066331998 -0.0015845065 0.0014219098 0.015906805
000290 8e 88 00 3c 49 16 b1 bd cb a5 48 3c 36 1f 84 bc
       0.007845057 -0.08646829 0.012246559 -0.016128164
0002a0 b3 26 4c bd 8c 04 12 3d 2a f3 8d bb 35 2f 09 3d
       -0.049841594 0.035648867 -0.004331966 0.033492286
0002b0 6d b9 6b 3c a4 12 c6 bc 90 0a 71 bd 41 9f 13 3d
       0.014387471 -0.02417881 -0.058847964 0.03604055
0002c0 67 62 18 bd 62 4d 0b bd 5a ab 06 bd 88 d0 fc bc
       -0.03720322 -0.034009345 -0.032878257 -0.030861154
0002d0 94 0f 24 3d 15 dc 0e 3d eb 38 b0 bc b4 30 7e bb
       0.04005392 0.034877855 -0.021511516 -0.0038786354
0002e0 15 ab 23 bc 08 11 a7 bb 83 1f 64 bd 16 1e 1d bd
       -0.00998952 -0.005098466 -0.055694114 -0.03835877
0002f0 96 d8 8e bb 44 c6 c7 bc 5c ba ad 3c 78 cd 68 3c
       -0.004359315 -0.024386533 0.021207027 0.014209144
000300 f5 9f 17 3c 6f 21 b6 bc 78 12 fd bb 5d 2e a1 bc
       0.009254445 -0.02223274 -0.007723149 -0.019675428
000310 4f e9 b2 3c 23 1e 36 bd 38 d5 14 3d 51 a5 9c bc
       0.021839766 -0.044462334 0.036336154 -0.019121798
000320 86 78 c7 bc 2b 5f 42 bd 52 bc 01 3d a2 b0 b4 bd
       -0.024349462 -0.04745404 0.031673737 -0.088227525
000330 44 cd a8 39 3b 6b 49 3c c4 f4 2b 3c 5d ea 32 3d
       0.00032196392 0.012293632 0.010495368 0.043680537
000340 c8 74 52 bd 6f df 86 bc d8 24 0d bd 2a cd b3 3c
       -0.051380903 -0.016463963 -0.034458965 0.021948416
000350 88 ad 73 bb f4 0c 36 3d 0b da 1f bd b9 32 19 3d
       -0.003718229 0.044445947 -0.0390263 0.03740189
000360 1d c1 a6 bb 2d 45 ea bc 11 a4 6e 3c bf d6 62 3c
       -0.005088939 -0.028597439 0.014565484 0.013845145
000370 69 e0 79 3c b5 d3 03 bd 3c d0 a2 bc cd 3f 8b bc
       0.015251257 -0.03218432 -0.019874685 -0.016998196
000380 fc 62 71 3c e3 72 9b 3c 1c 09 16 bc bd 7d a6 bb
       0.014733072 0.01897568 -0.009157445 -0.005080907
000390 05 da e1 3c 41 48 ee bc e9 41 7a 3b 82 e3 80 bc
       0.02756978 -0.029087188 0.0038186258 -0.015733484
0003a0 c6 f3 cc bb 70 40 4a 3c 7b ee 8f 3c 60 57 95 3d
       -0.006254646 0.012344465 0.017569771 0.07292056
0003b0 40 df 15 3c c8 a0 8e bd ef be 8f bc a5 b6 65 bd
       0.009147465 -0.0696426 -0.017547099 -0.056082387
0003c0 c3 f7 a8 3c 47 ee 3d bd da 8b 42 bd c1 48 1d ba
       0.020625954 -0.046369817 -0.047496654 -0.0005999916
0003d0 f5 7a 0b bd ca 6d 77 3d f2 c1 61 bc 2b fd fb bc
       -0.034052808 0.060407437 -0.01377915 -0.030760368
0003e0 f8 76 b4 3c d4 86 9a 3c c7 6f 06 bd d4 23 d7 ba
       0.022029385 0.01886312 -0.032821443 -0.0016413876
0003f0 51 ac 67 bc ab 1e 14 3d 9c 90 36 bd ee 9f 9f 3c
       -0.0141402045 0.03616206 -0.044571504 0.01948544
