emb_cache_v2/b7b8ba98850bba7b539a5fe05b5151df.npz (npz, 66755 bytes, 1 tensors)

vectors f4 [20, 768]
00000000: 6793 0d3c fa92 0039 5dbf 643a 6e9b 633d
00000010: 039a 21bd 51a3 6bbd 231a 103b e406 2dbc
00000020: 2ffa ac3c fae2 fe3c 80e0 3b3d 5242 c93c
00000030: 97ff 5abd 7780 4fbb d93d dfbc a3f5 37b9
00000040: 3d7b 92bc 8a4c 15bc fd00 41bc d65e d93c
00000050: e5dc 0fbb b00b 843c fc4d 3cbd befd 053c
00000060: d48d 7e3c 332f 293d e407 82bc 405e 3d3b
00000070: 2f3d 82bd 50b5 9abd 34d0 1b3d 2c00 523c
00000080: 6a77 5f3d 623e 17bc 7c38 00bc d7ca cfbc
00000090: 75e1 853b 0e9c 79bc c056 7cbc edfa b13c
000000a0: c270 70bd 0dce 843c 6671 f4bc fcc9 2f3b
000000b0: 964f 86bd 4db0 543c d540 ee3c 040c 1c3d
000000c0: caaa 0ebd 1b39 bf3d d6dc 133d 0219 99bc
000000d0: 91b5 c7bb 5afa 1cbd f458 d2bc 609e bb3c
000000e0: 320b 01bd 0bae 623b f189 753d 8807 e8bc
000000f0: d9ad bb3a 13a7 59bd 73fe 51bc 0b17 6cbc
00000100: f907 8bbd df3f 62b9 8b94 663a c8f2 d13c
00000110: 6320 9c3d 3645 18bd f4a8 47bc 76d7 e4ba
00000120: ac64 a6bb f673 3c3c e7b6 b1bb 407c 31bc
00000130: 0390 323d 3074 433d 0ae1 85bb bf91 1c3d
00000140: 6822 c13d 46cb d53d d064 7fbd 3f31 e3b9
00000150: 1b70 47bc b5cc 8a3c b87b e8bc f4f4 1ebc
00000160: dab6 5839 6137 0cbd 7a23 5f3d 3a11 2dba
00000170: bbf2 d63c 5acf 43bc 93c2 5d3d e842 0ebb
00000180: 7398 513c 8c31 b3bd ef85 57bc 5d4f 13bd
00000190: 5d7d aebc 4017 8f3c 7390 45bd 1e19 493b
000001a0: d3fa 903b 1e4e a83d 312a babc f2ff 8c3d
000001b0: 90f3 3c3c 7ae7 783c 5a10 233d ff5d 953c
000001c0: 53a7 323d 3d4f eebc dcfb a6bd 550b 633d
000001d0: f738 11bd e3c9 103d 29fe db3c 5988 fbbb
000001e0: 465f 983d f21b 3bbc fd80 1bbd bfc0 2bbc
000001f0: aff8 05bd 1497 83bd 2622 adbc 8804 093d
00000200: c7fd 903d e9d7 40bd 5739 0abd 7496 723d
00000210: 7957 4cbc 3090 dd3b 48a1 7a3a 6800 e53d
00000220: c6bf b8bc 87e7 3dbc dc0a 9ebd 256c e6bc
00000230: e9ab 24bd b62a a6bc c4cb 29bc 3044 473c
00000240: bd20 d33c 47e5 34bd a45c 15bd 4b98 80bd
00000250: 89de 8fbc 509e 8a3d 8e9a 8ebc dfd2 0fbd
00000260: ca2d 89bc 55c0 58bd f033 acbb 80e4 823d
00000270: 9d62 66bb 0f3c d2bb 8c9c 033d 7860 db3b
00000280: ebbb a03b 02be 0dbc 9850 46bc 34d1 343c
00000290: de1a 0bbc 8b49 18bd 089c 823c e3ae ecbc
000002a0: caf2 06bd d2fb f43b fddd d83c c388 853c
000002b0: 063b ae3b 47cd a1bc 8fe0 babd 1acc 263d
000002c0: 0ccd 663b 5874 0f3d f136 92bc 2690 62bd
000002d0: fb3e 8e39 8187 043c d1cd 643d a136 25bc
000002e0: 6c24 0d3d 1283 0a3a fbbb d73c 19b7 9dbc
000002f0: c70f 2f3c 93f1 cdbc 88a7 ee3c fec9 6f3c
00000300: f9af 1cbd 3896 13bb b7ad 8b3c f5d2 063c
00000310: 80ae 6c3d 4342 e4bc edbf 9f3c 5a81 ff39
00000320: 5972 22bb 2344 52bd b318 ec3c 9d20 60bd
00000330: 6a6d 9fbc de45 04bd ac7c 7d3d 5616 123d
00000340: 72ba dbbc 1319 f23c 306f 90bd 2db2 df3b
00000350: 0666 70bc 4d8d 163c db2d 63bd 1e59 473d
00000360: 7241 7abc 27ea d63c 467a c3bc e16b da3c
00000370: 849b 6eba 1219 b1bc 546e b4bc f344 e3ba
00000380: a244 00bd d0dc a63b 0699 1abd 2046 63bc
00000390: c677 8c3c 7354 0c3c 0b0c f73b 5238 01bd
000003a0: 1b81 a63c 9df9 36bc 9956 b53c e3e1 843d
000003b0: 27dd 103c 2cc1 47bd a36d 6dbc 3173 5ebd
000003c0: 1428 043c e85f 8dbc b177 88bd 3075 b1bb
000003d0: f893 a13c fc23 613d 876c 91bc 5eee 5dbd
000003e0: 512c e9bb a508 a83c 8d1a 033d 9504 2abd
000003f0: 0ff8 fabc 4844 7e3d 8464 5bbd bd88 1ebc
0.0086411005 0.00012261784 0.0008726025 0.05556815 -0.039453518 -0.057528798 0.0021988235 -0.010560725
0.02111539 0.03111409 0.045868397 0.024567757 -0.053466406 -0.0031662264 -0.027251171 -0.00017543747
-0.01788103 -0.009112487 -0.011780021 0.02653448 -0.0021951732 0.016118854 -0.04597281 0.008178173
0.015536744 0.04130478 -0.015872903 0.0028895289 -0.06359326 -0.07554114 0.038040355 0.012817424
0.05455724 -0.009231182 -0.007825967 -0.025365276 0.0040857145 -0.01523496 -0.015401542 0.021726096
-0.058701284 0.016211534 -0.029839229 0.0026823273 -0.065581486 0.0129814865 0.029083649 0.038097396
-0.034830846 0.09337064 0.036099277 -0.018688682 -0.0060946424 -0.03832469 -0.025677182 0.022902668
-0.031504817 0.00345886 0.059946004 -0.028323904 0.0014318778 -0.05313785 -0.012817013 -0.014409791
-0.0678863 -0.00021576833 0.00087959383 0.025628462 0.07623365 -0.03717538 -0.012186278 -0.0017459232
-0.005077919 0.011502257 -0.005423415 -0.010832846 0.04359437 0.047718227 -0.0040856646 0.03822493
0.094303906 0.10439162 -0.062352 -0.00043333505 -0.012172724 0.016943315 -0.028379306 -0.009701956
0.00020667483 -0.0342325 0.054477192 -0.0006601993 0.02623879 -0.011951292 0.05414064 -0.002170736
0.012792694 -0.08749685 -0.013154491 -0.03596436 -0.021300012 0.017467141 -0.04823346 0.0030685137
0.004424432 0.08218025 -0.022725197 0.06884755 0.011532679 0.015191907 0.039810516 0.018233297
0.043616604 -0.029090518 -0.08153507 0.05543073 -0.035454717 0.035348784 0.026854591 -0.007676166
0.07440047 -0.011420237 -0.03796481 -0.010482966 -0.032707866 -0.064253 -0.021134447 0.033451587
0.07079654 -0.047080908 -0.03374609 0.059225515 -0.012472027 0.0067615733 0.0009560776 0.11181718
-0.022552382 -0.011590845 -0.07716915 -0.02812774 -0.04020301 -0.020284038 -0.010363523 0.012162253
0.025772447 -0.04416397 -0.036465302 -0.062790476 -0.017562168 0.06768477 -0.017407682 -0.03511321
-0.016745467 -0.052917797 -0.005255215 0.06391239 -0.0035153993 -0.006415851 0.032131717 0.0066948496
0.004905214 -0.008651258 -0.012104176 0.011036206 -0.008490292 -0.03717951 0.015943542 -0.028891986
-0.032946385 0.0074763084 0.02647304 0.016300565 0.0053170947 -0.019751204 -0.091248624 0.04072199
0.0035217432 0.035023063 -0.017848464 -0.055313252 0.00027131275 0.008088947 0.055860344 -0.010083825
0.034458563 0.0005283813 0.026334753 -0.019252347 0.010684914 -0.025139606 0.02913262 0.014635561
-0.038253758 -0.0022519957 0.017050607 0.008229007 0.057783604 -0.027863627 0.019500697 0.00048733765
-0.0024787395 -0.05133451 0.028820371 -0.054718602 -0.019461352 -0.032293193 0.061886474 0.035665832
-0.026822302 0.029552972 -0.07052457 0.00682666 -0.014672762 0.009188962 -0.055463653 0.048668973
-0.015274392 0.0262347 -0.023862015 0.026662769 -0.0009102153 -0.0216184 -0.022025265 -0.0017339274
-0.031315453 0.005092241 -0.03774359 -0.0138717 0.017146956 0.008565056 0.0075392774 -0.03154785
0.020325234 -0.011167911 0.02213602 0.06488397 0.008841789 -0.048768207 -0.014491471 -0.054309074
0.008066196 -0.017257646 -0.06663454 -0.005415581 0.019723877 0.054965958 -0.017751945 -0.054182403
-0.0071158786 0.020511935 0.032007743 -0.041508276 -0.030635862 0.062076837 -0.053562656 -0.009676156
