emb_cache_v2/b8b39d76b980b1a9f95089454068167b.npz (npz, 87263 bytes, 1 tensors)

vectors f4 [26, 768]
000000 1c 60 36 3d 0e 09 3f 3c 3c 7f d2 3a 8a c9 a8 3c
       0.04452525 0.011659874 0.0016059647 0.020603914
000010 54 67 c8 bc 13 a5 b0 bc dd 9c ac bc 44 bd 01 bd
       -0.024463333 -0.021563089 -0.021070892 -0.03167464
000020 e3 30 82 bd df fc b0 3b 6e f3 7d 3c 2f 14 aa bc
       -0.06356981 0.0054012383 0.015499933 -0.020761577
000030 22 8c 36 3b ae 68 0a bd ca 7f e1 3a 84 37 64 3c
       0.0027854522 -0.033791237 0.0017204222 0.013929252
000040 7a b9 1c bd ad 90 18 3d 68 95 90 3d 5b b5 04 3d
       -0.03826282 0.03724735 0.07059747 0.032399517
000050 9d a1 8a bc 0c f4 8b bc e3 34 47 bd 53 e9 86 3c
       -0.016922766 -0.017084144 -0.04863442 0.01646868
000060 c9 06 6e 3c 73 c2 2a 3c 17 90 e8 bb 5d 39 6b 3c
       0.014527985 0.010422337 -0.007097255 0.014356938
000070 d4 e8 9b bd 4a 92 a1 bd 44 b7 1a 3d b8 57 03 ba
       -0.07612768 -0.078892305 0.037772432 -0.00050103245
000080 80 d4 2b 3d 56 65 39 bc 8e b4 cb 3a 09 92 14 bd
       0.041950703 -0.011315664 0.001554148 -0.036272082
000090 6e f3 50 3c d1 61 89 bc 59 56 b0 3b 25 bd 8b 3d
       0.012753351 -0.016770275 0.005381387 0.06823186
0000a0 67 6f 41 3c 37 80 c8 3c 2d ec 6d bd f5 6e 8d 3c
       0.011806346 0.0244752 -0.058086563 0.017264822
0000b0 a9 af 2c bd 80 db 08 3d d5 50 18 3d 20 69 cb bc
       -0.04215971 0.033412457 0.037186462 -0.024830401
0000c0 1b 78 8e bd f2 eb b7 3d 7b 60 6e 3c ba dc 99 3b
       -0.06956502 0.0898055 0.01454937 0.004695502
0000d0 7c 40 96 ba e7 d5 0e bd 38 13 8e 3c d1 88 bb bd
       -0.001146331 -0.034871962 0.017343149 -0.09156955
0000e0 77 77 31 bd 56 e5 77 ba 3b 52 cc 3d 3a b3 d8 3c
       -0.04332682 -0.0009456476 0.09976622 0.02645265
0000f0 34 e2 8c 3c 04 e7 bd bc 67 95 3c bc 44 05 5c 3b
       0.017197706 -0.023181446 -0.01151023 0.0033572474
000100 a6 68 ca bd 13 8a 1d 3d b1 f6 75 3c 11 1c 61 3d
       -0.09883241 0.038461756 0.015012429 0.054958407
000110 51 1d 7c bb e8 09 db 3c ef d0 ac 3b 21 88 11 bc
       -0.0038469622 0.026738122 0.0052739303 -0.008882553
000120 f9 0a 0a 3d 90 8c 3e ba 24 da 37 3d 29 ac a3 bd
       0.03370187 -0.000726887 0.04488577 -0.07991821
000130 b0 79 f0 3c 8c 1b b8 ba 3d b4 e1 b9 96 39 0f 3d
       0.0293549 -0.0014046296 -0.00043049632 0.034967028
000140 7f fb 74 3d d3 f2 a0 3d 0f c1 12 bd 18 65 20 bc
       0.059810158 0.07858815 -0.035828646 -0.009789728
000150 1c f9 03 3c 64 4e 17 bc 6a a1 ac bc 79 b0 02 bd
       0.008054998 -0.009234998 -0.021073062 -0.03190658
000160 0f 69 a2 bc 13 1c 23 bc fb 1a 00 3e ec b8 9d bc
       -0.019825486 -0.009955424 0.12510292 -0.019253217
000170 f2 7d 57 3c 3d 34 70 bc a6 4f d0 3c 47 9f 11 3a
       0.013152586 -0.014660892 0.025428604 0.0005555045
000180 3a 6d 8e 3b d7 37 76 bc 72 ed ba 3c 94 39 0a be
       0.004346517 -0.015027962 0.0228183 -0.13498527
000190 61 2c 7a 3c 7d 45 82 3c 29 7f ba bd 41 16 6d 3b
       0.01526937 0.015902275 -0.09106285 0.0036176594
0001a0 0a 68 2f bb 53 df ab 3d 5e 1a 8a bb 8d c8 23 3c
       -0.0026764893 0.08392205 -0.004214569 0.0099965455
0001b0 21 f7 02 3c 62 c9 89 3b 88 3e a1 3c 1b ce 28 3d
       0.00799349 0.004204915 0.019683138 0.041212182
0001c0 29 4b 16 3d 09 40 83 3c 0d 5e e7 bd d5 72 64 3d
       0.036692772 0.016021745 -0.11297236 0.055773575
0001d0 dc f9 06 bd 16 04 2c 3c ec b1 90 3c 1c 05 0e 3c
       -0.03295313 0.010499021 0.017662965 0.00866821
0001e0 8f c2 5b bc fa 1c 04 3d 67 70 54 bc 61 67 8d bc
       -0.013413086 0.032254197 -0.012966252 -0.017261209
0001f0 df 73 81 bc 71 62 ab bd 73 b8 33 bd 8c 27 c1 bc
       -0.015802322 -0.083683856 -0.043877076 -0.023578428
000200 17 cd 2e 3d 88 bc 49 bd dd 39 32 bc 46 95 97 3c
       0.042676058 -0.049252063 -0.0108780535 0.018503796
000210 55 97 44 bc a7 97 93 bb d9 55 ce 3b d5 40 47 3d
       -0.011998971 -0.0045041624 0.006296855 0.048645813
000220 ed 5c 29 bd 9e 7d a2 bc 39 f6 b1 bc 27 05 1e 3d
       -0.041348387 -0.01983529 -0.021723853 0.038579132
000230 ca 06 0a bd da d9 3b bd 1a b6 fb bc 70 cc 8a 3c
       -0.03369788 -0.045862056 -0.030726481 0.016943187
000240 2f f9 0e 3d ee 5d 35 bd f5 c8 1e bd 9e 84 c1 bc
       0.03490561 -0.04427903 -0.038765866 -0.023622807
000250 67 f7 c8 bb 19 d3 62 3d 34 4e 8f 3a 35 10 ae 3b
       -0.0061330083 0.0553771 0.001093334 0.0053119906
000260 00 08 75 3d 18 12 96 bc 46 4c a8 ba 70 94 92 3c
       0.059822083 -0.018319175 -0.0012840114 0.017893046
000270 ad 6c 4f 3d 7e 34 45 bc 3a 26 88 bb 59 eb 8a bd
       0.05064075 -0.012036441 -0.0041549476 -0.0678317
000280 99 b4 f4 3c bf c0 ae bc ac 23 da 3c 6d c3 22 3c
       0.029871272 -0.021332143 0.026628338 0.009934288
000290 aa 39 ab 3c 53 b9 a3 bd d6 52 0f 3d 75 fc bd 3c
       0.02090152 -0.07994332 0.034991108 0.02319167
0002a0 db f5 dc bd e4 f4 2f 3d fe 8d 9c 3b f2 02 d3 3b
       -0.10789081 0.042958155 0.004777669 0.00643956
0002b0 12 d8 1a 3a 88 15 44 bc 1c 20 97 bd 45 85 3e bc
       0.0005906831 -0.011968024 -0.07379171 -0.011628454
0002c0 40 97 54 bd 86 83 cb 3c 15 3d ec bc e3 12 6a bd
       -0.051902056 0.024842989 -0.02883772 -0.057146918
0002d0 10 7c 49 bb fe 1a 08 3d 0a 55 2e bb 3b fe b7 3c
       -0.0030744113 0.033228867 -0.002660098 0.022460094
0002e0 06 d3 75 bd 29 07 5f bb 0b 4e 35 bc 6c c7 f1 bb
       -0.0600157 -0.0034031367 -0.01106597 -0.0073785093
0002f0 c7 02 0c bd 91 22 7e bc b3 ee 36 3c 8e 7b 8b 3c
       -0.034182336 -0.015511171 0.011165309 0.017026689
000300 2e 59 0b bd a5 a6 83 3c d5 00 27 bd f6 ca 4c bd
       -0.034020595 0.016070673 -0.040772278 -0.049998246
000310 7b fa 08 3d 29 ea 8e bd 95 e1 16 bc d4 f8 3b 3c
       0.033442 -0.06978256 -0.009209056 0.0114728995
000320 c7 b4 b1 bb f5 0f ae bd 47 2f d9 3c df f6 a9 bd
       -0.0054231617 -0.08499137 0.026511801 -0.0829904
000330 d5 94 9d bc f1 da f8 3b 61 ee 16 bd fe 0a 1e 3d
       -0.019236008 0.007594459 -0.03684843 0.0385847
000340 77 dd 2e bd 1d 9d c1 3b 25 37 89 3b cc d9 ef 3b
       -0.042691674 0.005908622 0.004187482 0.0073196646
000350 38 2c 14 bc 2e a9 ab 3c b8 2d f7 ba e1 fe fa 3c
       -0.009043746 0.020954695 -0.001885823 0.030639114
000360 9f 92 e4 3b c9 d8 63 3c cd 6d 07 bd 54 66 d0 3d
       0.0069754864 0.013906666 -0.0330637 0.101757675
000370 df 10 b4 3b 8e 96 6e bc ee f1 dd bc 7d 2f b1 bc
       0.0054951753 -0.014562262 -0.0270929 -0.02162909
000380 b4 7c 02 bc 40 91 40 b8 b9 8c 96 bb a1 96 2f 3c
       -0.007964302 -4.591164e-05 -0.004594412 0.010717065
000390 c8 35 f0 3c 6c a0 7b 3c 35 af ce 3c fa 40 a5 bb
       0.02932252 0.015358072 0.02523003 -0.005043146
0003a0 7f 32 cc bc bf 3e be 3a 18 ae 2c 3c 75 2a 0a 3d
       -0.024926422 0.0014514549 0.010539554 0.033731896
0003b0 5b a4 25 bc 8d fc 4b bd fe 5c b9 bc 73 07 c4 3a
       -0.010109986 -0.049801398 -0.02262735 0.0014955833
0003c0 a8 ca 5a 3b 56 59 ce bc 51 d3 24 bd f8 5b 91 bc
       0.0033384953 -0.025189083 -0.04024059 -0.01774405
0003d0 86 a4 a8 3c dd 94 a8 3d 2d 80 d8 bc bb fd bf bc
       0.020586263 0.082315184 -0.026428306 -0.023436418
0003e0 42 2e 92 bc c5 e1 c5 3c 32 da 49 bb 07 54 01 bb
       -0.017844323 0.024155507 -0.003080022 -0.0019733922
0003f0 6c 83 be 3c a4 4d 2b 3d 1b 60 41 bc b0 cc b1 3d
       0.023256026 0.04182209 -0.0118026985 0.08681619
